dtefm_middle/resource/trained_memory/PPO_critic_lock_e.pth (torch, 113486 bytes, 79 tensors)

gcpn_1.P2P.weight f4 [8, 3]
0.3758277 -0.010835816 0.501663 0.2651939 0.50419414 0.31434497 0.18416356 0.13436987
-0.2650251 0.24487922 -0.36891708 0.077497676 0.26371992 -0.57000184 0.5660595 0.14183465
-0.10872053 0.5434666 0.3227643 -0.28964257 0.06884701 -0.18297723 -0.505676 0.08858154
00000000: 7d6c c03e b588 31bc fd6c 003f 7fc7 873e
00000010: de12 013f d3f1 a03e 5f95 3c3e 4198 093e
00000020: 5fb1 87be 9ec1 7a3e b3e2 bcbe 1ab7 9e3d
00000030: 4c06 873e a4eb 11bf 47e9 103f 1a3d 113e
00000040: dfa8 debd a120 0b3f 5d41 a53e 084c 94be
00000050: a9ff 8c3d 625e 3bbe fb73 01bf 3d6a b53d

gcpn_1.P2P.bias f4 [8]
0.017692426 -0.1325067 0.130182 -0.5345092 -0.31229734 -0.25049052 0.08815024 -0.38122407
00000000: b5ef 903c d6af 07be 6e4e 053e 98d5 08bf
00000010: 70e5 9fbe 4b40 80be 1d88 b43d cd2f c3be

gcpn_1.P2P.batch_norm.weight f4 [8]
1.0030838 1.0569749 1.0234513 1.077679 0.9515886 0.9797021 0.9457899 0.97619045
00000000: 0d65 803f f44a 873f 7400 833f 63f1 893f
00000010: 4f9b 733f c2cd 7a3f 491f 723f 9ee7 793f

gcpn_1.P2P.batch_norm.bias f4 [8]
-0.0064317803 0.032182444 -0.01294497 0.037120353 -0.014274595 0.043161448 -0.104187995 -0.010204646
00000000: afc1 d2bb bdd1 033d 2417 54bc 830b 183d
00000010: fedf 69bc 0fca 303d 8460 d5bd 6331 27bc

gcpn_1.P2P.batch_norm.running_mean f4 [8]
0.6113172 0.7252199 0.123758204 -0.68900776 -0.23675127 0.17222446 0.03674539 -0.86551267
00000000: 497f 1c3f 03a8 393f f174 fd3d d062 30bf
00000010: ed6e 72be 9c5b 303e 5682 163d 3d92 5dbf

gcpn_1.P2P.batch_norm.running_var f4 [8]
0.2810581 1.5205789 0.1805251 0.35221297 0.93072987 0.09527911 0.20995317 1.2624807
00000000: d9e6 8f3e 54a2 c23f 92db 383e 4255 b43e
00000010: 5044 6e3f b221 c33d f7fd 563e f898 a13f

gcpn_1.T2T.weight f4 [8, 3]
0.13476864 0.43239415 -0.20052293 0.13492224 -0.6277741 -0.49820343 0.5766155 -0.43521866
0.37421176 -0.10530715 -0.50765115 -0.08589989 0.06948809 0.22512701 -0.7600235 0.2894673
0.34231982 -0.625585 0.54464096 0.087586805 0.29320586 -0.1823109 -0.3865253 -0.27867195
00000000: ca00 0a3e c462 dd3e e255 4dbe 0e29 0a3e
00000010: ceb5 20bf 8514 ffbe 139d 133f fbd4 debe
00000020: af98 bf3e 46ab d7bd 6df5 01bf 48ec afbd
00000030: c64f 8e3d b287 663e e690 42bf 0f35 943e
00000040: 8b44 af3e 5726 20bf 976d 0b3f b660 b33d
00000050: 141f 963e b5af 3abe a5e6 c5be 17ae 8ebe

gcpn_1.T2T.bias f4 [8]
0.14387862 0.67603564 0.69624543 -0.5232306 -0.06862945 0.42590114 -0.19386153 0.48542413
00000000: eb54 133e ac10 2d3f 243d 323f 71f2 05bf
00000010: 998d 8cbd b70f da3e a383 46be 8389 f83e

gcpn_1.T2T.batch_norm.weight f4 [8]
1.0771269 0.998577 1.0843718 1.1149919 1.0185542 1.0956526 0.93199205 1.080918
00000000: 4bdf 893f bea2 7f3f b2cc 8a3f 0eb8 8e3f
00000010: fc5f 823f 583e 8c3f 0897 6e3f 855b 8a3f

gcpn_1.T2T.batch_norm.bias f4 [8]
-0.046506047 0.018591525 -0.053783253 -0.027944244 -0.079164326 0.015601487 0.14465305 -0.003387422
00000000: 207d 3ebd 414d 983c d44b 5cbd 54eb e4bc
00000010: e820 a2bd 619d 7f3c ee1f 143e 83ff 5dbb

gcpn_1.T2T.batch_norm.running_mean f4 [8]
0.25517663 0.5991612 0.89548403 -0.6547444 -0.0557974 0.5585214 0.06803757 0.32986644
00000000: 83a6 823e a162 193f 713e 653f 549d 27bf
00000010: d18b 64bd 42fb 0e3f 4857 8b3d 41e4 a83e

gcpn_1.T2T.batch_norm.running_var f4 [8]
0.08301817 0.14142029 1.5208647 0.060275495 0.027345566 0.37663692 1.319575 0.15314513
00000000: 6e05 aa3d 7bd0 103e b2ab c23f 70e3 763d
00000010: cf03 e03c 8ed6 c03e d5e7 a83f 14d2 1c3e

gcpn_1.P2T.weight f4 [8, 8]
-0.043736834 -0.4484076 0.028816279 -0.33467498 0.094187506 -0.33279616 0.15177417 -0.3638396
-0.22291616 0.32010376 0.13325585 -0.07771254 -0.008001147 -0.27572784 0.01420934 -0.11345211
-0.23952974 -0.21512963 -0.25120142 -0.036633328 -0.23949201 -0.1281752 -0.1949964 -0.20947044
-0.28110966 -0.274339 0.16422576 -0.108046465 -0.16850823 -0.3194117 0.1839806 -0.0015226977
0.17691618 -0.21264128 -0.0949529 0.4374274 0.010016291 0.0040089237 0.42651996 0.024128677
-0.15209568 -0.35233828 0.32695404 -0.22757283 -0.20084439 0.029604442 -0.095783584 -0.10759867
0.22974445 -0.17283133 -0.12677181 0.4498138 -0.022692094 -0.08026396 0.13188931 -0.39948282
-0.16952872 -0.3304035 -0.4139246 0.006105078 -0.026114635 -0.2750912 -0.02571261 -0.008087885
00000000: 6525 33bd ae95 e5be 1e10 ec3c 855a abbe
00000010: 61e5 c03d 4264 aabe b06a 1b3e 2f49 babe
00000020: 2244 64be a4e4 a33e 3974 083e c127 9fbd
00000030: 3e17 03bc 332c 8dbe 4bce 683c 9459 e8bd
00000040: 4947 75be f14a 5cbe 799d 80be d40c 16bd
00000050: 653d 75be 5c40 03be 23ad 47be 6b7f 56be
00000060: 9bed 8fbe 2976 8cbe cc2a 283e 7747 ddbd
00000070: 6c8d 2cbe ee89 a3be 6965 3c3e 4295 c7ba
00000080: 8429 353e a3be 59be ab76 c2bd 7cf6 df3e
00000090: 5f1b 243c 4a5d 833b d360 da3e 81a9 c53c
000000a0: f8be 1bbe af65 b4be 8566 a73e da08 69be
000000b0: 27aa 4dbe 0485 f23c 2f2a c4bd b15c dcbd
000000c0: 2142 6b3e b2fa 30be 78d0 01be ff4d e63e
000000d0: c5e4 b9bc 6e61 a4bd fe0d 073e 0389 ccbe
000000e0: f098 2dbe a62a a9be eded d3be 1b0d c83b
000000f0: 5cee d5bc c1d8 8cbe 40a3 d2bc 0c83 04bc

gcpn_1.P2T.bias f4 [8]
-0.12678818 -0.2576502 0.32671678 0.34391618 0.18479154 0.21947856 0.004799173 0.27315697
00000000: c3d4 01be baea 83be 6c47 a73e c815 b03e
00000010: fe39 3d3e fdbe 603e 6242 9d3b 3bdb 8b3e

gcpn_1.P2T.batch_norm.weight f4 [8]
0.9044118 0.92350507 0.9961609 0.98710674 1.0490881 0.9694416 0.8308836 1.0215883
00000000: 8887 673f d46a 6c3f 6704 7f3f 07b3 7c3f
00000010: 8548 863f 532d 783f cab4 543f 68c3 823f

gcpn_1.P2T.batch_norm.bias f4 [8]
-0.035403054 -0.06909718 -0.05296983 0.09357089 -0.019947454 0.05713269 -0.2628339 -0.034534566
00000000: cb02 11bd d382 8dbd e4f6 58bd 18a2 bf3d
00000010: d868 a3bc f803 6a3d 2a92 86be 1e74 0dbd

gcpn_1.P2T.batch_norm.running_mean f4 [8]
0.18994345 0.84960324 -0.040288772 0.5039613 -1.3004977 1.2342798 -0.54963267 -1.3409785
00000000: 8980 423e 997f 593f d705 25bd 9c03 013f
00000010: b576 a6bf e1fc 9d3f bab4 0cbf 2fa5 abbf

gcpn_1.P2T.batch_norm.running_var f4 [8]
1.0817996 0.22570542 1.8931317 1.1236777 0.94396687 0.77206177 0.26129034 2.462517
00000000: 6978 8a3f 521f 673e 2452 f23f acd4 8f3f
00000010: d0a7 713f d7a5 453f d9c7 853e e199 1d40

gcpn_1.T2P.weight f4 [8, 8]
0.14507928 0.04424812 0.21968947 0.036578845 -0.072780065 0.35727212 0.07916509 -0.24676749
0.19065815 0.2016323 -0.29363775 0.31357208 0.053239346 0.16069278 0.28629693 0.15725863
0.3310367 0.15732822 0.07430153 -0.19370463 -0.27870747 0.1028795 0.064123355 -0.043434724
0.12349881 -0.20717722 0.20027256 -0.111675866 -0.16786991 0.07246471 0.11660338 -0.52775174
-0.32291904 0.10809742 0.23440301 0.009166462 -0.2056566 0.3633359 -0.31726527 -0.27755475
0.2140252 -0.181489 0.28494242 0.04396893 -0.11709359 -0.072785065 0.11953898 0.41015798
0.30593368 0.07047985 -0.38030964 0.25356188 -0.00965488 -0.058171995 0.0005381196 0.0063911933
-0.28626585 -0.08098737 -0.026627013 0.073708534 0.028244147 -0.3360635 0.09952645 0.37472996
00000000: aa8f 143e 843d 353d 47f6 603e b3d3 153d
00000010: b70d 95bd 5fec b63e 4f21 a23d 9eb0 7cbe
00000020: e43b 433e b378 4e3e b057 96be 858c a03e
00000030: 8011 5a3d a68c 243e 8395 923e 6808 213e
00000040: a47d a93e a61a 213e 672b 983d 825a 46be
00000050: bfb2 8ebe 7db2 d23d 1b53 833d 9ce8 31bd
00000060: f2ec fc3d 4426 54be 4014 4d3e 51b6 e4bd
00000070: 17e6 2bbe 6168 943d c1cd ee3d bd1a 07bf
00000080: a555 a5be 2e62 dd3d 5807 703e ee2e 163c
00000090: a597 52be 2a07 ba3e 9870 a2be a81b 8ebe
000000a0: 6c29 5b3e 41d8 39be f9e3 913e c418 343d
000000b0: c4ce efbd 5610 95bd dad0 f43d 3a00 d23e
000000c0: 57a3 9c3e bd57 903d f2b7 c2be ddd2 813e
000000d0: 802f 1ebc c245 6ebd 9810 0d3a 376d d13b
000000e0: 7091 92be b5dc a5bd e520 dabc 80f4 963d
000000f0: 4560 e73c 8410 acbe 86d4 cb3d 9bdc bf3e

gcpn_1.T2P.bias f4 [8]
-0.24271552 -0.4236657 0.0817887 0.35442206 0.035926964 0.03149773 -0.29597688 0.17575319
00000000: 6b8a 78be b6ea d8be d580 a73d cf76 b53e
00000010: 2728 133d c403 013d 488a 97be a5f8 333e

gcpn_1.T2P.batch_norm.weight f4 [8]
1.0195442 0.9451221 1.0975616 0.9558465 1.0108335 1.0219759 0.97704566 1.0218061
00000000: 6d80 823f 86f3 713f e67c 8c3f 5bb2 743f
00000010: fe62 813f 1bd0 823f aa1f 7a3f 8bca 823f

gcpn_1.T2P.batch_norm.bias f4 [8]
-0.0038101599 0.03683461 -0.0017991953 -0.08726844 -0.2737324 -0.04523256 0.016158838 0.08959202
00000000: e0b3 79bb e3df 163d fad2 ebba ccb9 b2bd
00000010: a726 8cbe c745 39bd 8a5f 843c 057c b73d

gcpn_1.T2P.batch_norm.running_mean f4 [8]
0.19125946 0.51647955 0.21905535 -0.13896336 -0.23724537 0.4649436 -0.052420586 0.021003498
00000000: 85d9 433e 0138 043f 0c50 603e 694c 0ebe
00000010: 73f0 72be 160d ee3e f8b6 56bd 870f ac3c

gcpn_1.T2P.batch_norm.running_var f4 [8]
95.92551 83.39994 31.223179 16.694437 6.355169 33.470596 6.9088554 54.342655
00000000: dcd9 bf42 c5cc a642 12c9 f941 358e 8541
00000010: 8b5d cb40 e4e1 0542 5815 dd40 e15e 5942

gcpn_2.P2P.weight f4 [16, 8]
-0.017000077 0.16542228 -0.20530829 -0.2441823 -0.2178592 0.29616594 -0.30850103 0.35364917
-0.51671946 -0.47311786 0.04611681 0.011976205 0.05774641 0.2320417 -0.21905725 0.019456921
0.43303752 0.2873261 0.27782896 0.20792656 -0.26419842 -0.21041231 -0.0222874 -0.32559335
-0.26701698 -0.2922789 0.40173063 -0.23517379 -0.13634665 0.18115084 0.12791207 0.25011674
0.17084341 0.22064297 0.18321581 0.27311066 0.5347934 -0.27168307 0.20972046 -0.073786646
-0.0514899 0.005910917 -0.08245941 -0.047854885 0.07935888 -0.07681583 -0.20480171 -0.2541585
0.35696772 -0.27584162 -0.16023819 0.045191124 -0.096567735 0.35939798 -0.27041334 -0.29552573
-0.25239983 -0.16474915 0.032100357 -0.008272211 0.13924338 0.27581975 0.33175838 -0.15235674
0.0921429 -0.0635689 0.10978081 0.2593054 -0.18941042 0.22801188 -0.10948175 0.28857163
0.23186883 0.30483556 0.20010728 -0.07652733 0.03591398 0.1094161 0.009496383 -0.041169316
-0.46319845 -0.09137392 0.12829979 -0.12046362 0.17881402 -0.42166334 0.1363266 -0.04441134
-0.39840025 0.09396033 0.2219099 0.10103156 0.01280781 -0.008438087 0.23891374 0.38214663
0.3168859 0.19370197 -0.19523366 -0.11968994 0.33295596 0.21675059 -0.24310854 -0.5507537
-0.08240182 0.18004899 -0.29024586 -0.14978537 -0.24035695 -0.2110445 0.23656073 0.15344457
-0.23056547 0.010844123 0.23036282 -0.2846131 -0.020833058 0.015215158 0.07892408 -0.022533083
-0.28289562 -0.07309937 -0.23215853 0.3034157 0.077627435 0.34170422 0.09105153 0.032461394
00000000: bf43 8bbc 7564 293e 563c 52be ed0a 7abe
00000010: 7b16 5fbe 10a3 973e d9f3 9dbe 8111 b53e
00000020: ba47 04bf 813c f2be fbe4 3c3d d837 443c
00000030: 8087 6c3d 579c 6d3e 8b50 60be 1f64 9f3c
00000040: 18b7 dd3e 681c 933e 993f 8e3e b3ea 543e
00000050: 0445 87be 5376 57be 1194 b6bc 2cb4 a6be
00000060: 73b6 88be 94a5 95be a3af cd3e 66d1 70be
00000070: 759e 0bbe 9b7f 393e 62fb 023e 4d0f 803e
00000080: 93f1 2e3e 3bf0 613e ed9c 3b3e 29d5 8b3e
00000090: 38e8 083f 0b1a 8bbe f6c0 563e 741d 97bd
000000a0: 13e7 52bd 5eb0 c13b 7be0 a8bd 7c03 44bd
000000b0: e986 a23d 9e51 9dbd 8ab7 51be 1021 82be
000000c0: 79c4 b63e 1d3b 8dbe 7b15 24be 541a 393d
000000d0: 4ec5 c5bd 0303 b83e 9e73 8abe 264f 97be
000000e0: 8d3a 81be 00b4 28be aa7b 033d 2b88 07bc
000000f0: d195 0e3e 3f38 8d3e 3cdc a93e 6803 1cbe
00000100: 6bb5 bc3d 6930 82bd c3d4 e03d adc3 843e
00000110: cef4 41be f27b 693e f837 e0bd a9bf 933e
00000120: 066f 6d3e 6813 9c3e ece8 4c3e 5cba 9cbd
00000130: 8a1a 133d 8c15 e03d b896 1b3c 28a1 28bd
00000140: 5928 edbe 4022 bbbd 0561 033e a1b5 f6bd
00000150: 061b 373e 42e4 d7be 3399 0b3e aae8 35bd
00000160: 1efb cbbe 466e c03d 593c 633e a2e9 ce3d
00000170: d9d7 513c e73f 0abc cea5 743e b9a8 c33e
00000180: de3e a23e cf59 463e 55eb 47be 0020 f5bd
00000190: 3479 aa3e def3 5d3e 72f1 78be 32fe 0cbf
000001a0: 49c2 a8bd c35e 383e 1b9b 94be 5661 19be
000001b0: 2220 76be 0d1c 58be fa3c 723e 9320 1d3e
000001c0: 5b19 6cbe 8cab 313c 3be4 6b3e cfb8 91be
000001d0: 17aa aabc 0049 793c f3a2 a13d 4d97 b8bc
000001e0: b2d7 90be 1fb5 95bd f7ba 6dbe 4d59 9b3e
000001f0: 22fb 9e3d dbf3 ae3e 3979 ba3d 3df6 043d

gcpn_2.P2P.bias f4 [16]
0.13572551 -0.109930925 0.13736725 0.06852522 -0.057190247 0.0037449715 0.62547106 0.14932369
0.107026756 0.20132063 -0.17988648 -0.25180942 -0.19071822 -0.22750528 -0.05800462 -0.25190735
00000000: a1fb 0a3e 7723 e1bd 00aa 0c3e f356 8c3d
00000010: 5240 6abd 326e 753b df1e 203f 4fe8 183e
00000020: d830 db3d ff26 4e3e 2934 38be 2aed 80be
00000030: a34b 43be 25f7 68be 4196 6dbd 00fa 80be

gcpn_2.P2P.batch_norm.weight f4 [16]
1.0002578 0.9558142 0.9552929 1.0543901 1.0381314 1.0394524 0.9838663 1.0190699
1.0151861 0.94728774 0.8496938 1.1401678 0.87529826 0.9991434 0.9493537 0.951596
00000000: 7308 803f 3db0 743f 138e 743f 41f6 863f
00000010: 7de1 843f c70c 853f a9de 7b3f e270 823f
00000020: 9ef1 813f 7381 723f 8885 593f 05f1 913f
00000030: 8c13 603f ddc7 7f3f d808 733f cc9b 733f

gcpn_2.P2P.batch_norm.bias f4 [16]
-0.08874068 -0.07335076 -0.04041394 0.24034435 0.03246357 -0.09246895 0.04932485 0.04197897
-0.0096960375 0.11938217 -0.1374296 -0.07257312 0.113053896 -0.09582428 0.055384688 -0.021290066
00000000: acbd b5bd ec38 96bd 1689 25bd d41c 763e
00000010: 85f8 043d 5c60 bdbd db08 4a3d 24f2 2b3d
00000020: 21dc 1ebc a47e f43d 58ba 0cbe 37a1 94bd
00000030: cd88 e73d 853f c4bd 0edb 623d 8168 aebc

gcpn_2.P2P.batch_norm.running_mean f4 [16]
0.5571202 -0.19049023 0.061035387 -0.3122356 0.0008657001 0.14173965 0.17445669 -0.7095829
0.18831816 0.022336306 0.0859527 -0.14526342 -0.5512201 0.008329807 -0.27099308 -0.5612474
00000000: 6e9f 0e3f df0f 43be 3e00 7a3d 58dd 9fbe
00000010: 26f0 623a 3324 113e c6a4 323e 3aa7 35bf
00000020: 7ad6 403e a1fa b63c f807 b03d efbf 14be
00000030: c31c 0dbf be79 083c 9bbf 8abe e9ad 0fbf

gcpn_2.P2P.batch_norm.running_var f4 [16]
3.257013 68.301926 102.00714 3.5308957 19.538559 5.175424 12.822468 6.7119503
9.638639 64.34553 46.313198 4.780146 24.072105 24.369343 5.0211515 8.73496
00000000: e772 5040 969a 8842 a803 cc42 32fa 6140
00000010: f84e 9c41 139d a540 d428 4d41 4cc8 d640
00000020: de37 1a41 e9b0 8042 b740 3942 f5f6 9840
00000030: ac93 c041 6af4 c241 46ad a040 65c2 0b41

gcpn_2.T2T.weight f4 [16, 8]
-0.026113894 -0.25497982 0.03848161 -0.1737023 0.35350025 0.17403649 0.2669303 0.07793022
-0.17044471 0.2541291 0.0016891308 0.23717614 -0.3460561 0.056053974 0.05212276 0.23157443
0.14704138 -0.13938446 -0.3359057 0.37878618 -0.2634184 -0.21360143 -0.10641539 0.38567847
-0.067615315 -0.24141014 -0.058924384 0.006968532 0.013313092 -0.07094751 -0.32970285 -0.049040556
-0.014906688 0.22313893 0.0327746 0.12720719 0.26357022 0.15984449 0.21407595 -0.27739152
-0.10381425 -0.038367156 0.22099556 0.3057258 -0.43311352 0.26000753 0.04727621 0.360095
-0.36967948 0.015745852 0.17700295 0.08508681 0.24732246 0.264087 0.4617152 0.0025672237
-0.04300505 -0.38362747 0.30299932 -0.24954201 -0.3623929 0.08749255 -0.15424389 0.16891642
0.07825209 -0.09503884 -0.016576165 -0.22720541 0.42491883 -0.14949131 0.24133103 0.11299171
0.27030346 -0.05411473 -0.07842489 0.21195476 -0.23235981 0.30875736 0.3306444 -0.29585373
-0.32143733 0.119428776 -0.14682892 -0.1562246 0.07397763 -0.31154972 0.08078617 -0.04162353
0.20263381 0.2266245 -0.020953605 0.11257222 0.035094436 0.08502849 -0.09982041 0.13804844
0.20574223 0.089415886 0.08189126 0.30050024 0.40621725 -0.23764548 0.19370316 -0.2033031
-0.08601667 0.44255456 0.22349711 -0.19497976 -0.17775886 0.19653955 0.16703686 0.14095232
-0.15316969 -0.15710789 -0.42929158 0.33785173 -0.23653808 -0.14699264 -0.05049101 0.054891005
-0.16583718 0.52091944 0.32084024 0.21217391 0.11034078 0.2362975 0.08100305 -0.34719053
00000000: ceec d5bc b78c 82be e59e 1d3d 04df 31be
00000010: fcfd b43e 9f36 323e 17ab 883e e199 9f3d
00000020: 0f89 2ebe 361d 823e d365 dd3a 4dde 723e
00000030: 442e b1be da98 653d ad7e 553d d921 6d3e
00000040: 0492 163e cdba 0ebe d5fb abbe 43f0 c13e
00000050: c7de 86be 55ba 5abe 50f0 d9bd a677 c53e
00000060: e679 8abd 3834 77be b25a 71bd 4958 e43b
00000070: 281f 5a3c ee4c 91bd d0ce a8be c0de 48bd
00000080: 2e3b 74bc 887e 643e a93e 063d 9a42 023e
00000090: adf2 863e 46ae 233e ba36 5b3e 4306 8ebe
000000a0: 919c d4bd e126 1dbd a94c 623e 1888 9c3e
000000b0: 0ec1 ddbe b51f 853e b3a4 413d 5f5e b83e
000000c0: a146 bdbe 72fd 803c 4340 353e fe41 ae3d
000000d0: 1942 7d3e 6936 873e ef65 ec3e de3e 283b
000000e0: 1026 30bd d26a c4be ba22 9b3e f187 7fbe
000000f0: 908b b9be 4b2f b33d 1cf2 1dbe 6df8 2c3e
00000100: a242 a03d b9a3 c2bd bdca 87bc 89a8 68be
00000110: f68e d93e 4014 19be 7b1f 773e 3368 e73d
00000120: 3765 8a3e 68a7 5dbd 3b9d a0bd ab0a 593e
00000130: bbef 6dbe 7215 9e3e 394a a93e 247a 97be
00000140: 6f93 a4be 1397 f43d 525a 16be 57f9 1fbe
00000150: 9581 973d 7283 9fbe 3873 a53d 6f7d 2abd
00000160: 3d7f 4f3e 4110 683e e5a6 abbc 448c e63d
00000170: 2fbf 0f3d 6b23 ae3d a56e ccbd 925c 0d3e
00000180: 17ae 523e ad1f b73d 9bb6 a73d 2bdb 993e
00000190: b5fb cf3e 5659 73be 1f5a 463e b02e 50be
000001a0: 8229 b0bd 8396 e23e 6ddc 643e c6a8 47be
000001b0: 6b06 36be aa41 493e b60b 2b3e ce55 103e
000001c0: 84d8 1cbe e4e0 20be 1bcc dbbe e7fa ac3e
000001d0: 0a37 72be 3d85 16be a9cf 4ebd 64d5 603d
000001e0: 39d1 29be fa5a 053f 2c45 a43e 1e44 593e
000001f0: 59fa e13d f9f7 713e ede4 a53d f5c2 b1be

gcpn_2.T2T.bias f4 [16]
-0.07065614 -0.47510907 0.13458146 -0.27081606 0.014861077 0.1885757 -0.35417005 0.023678841
-0.18035689 -0.39140272 0.15736665 -0.19365942 -0.19740069 -0.13091205 -0.44854593 -0.15701564
00000000: 2bb4 90bd 7f41 f3be b9cf 093e 67a8 8abe
00000010: e07b 733c fd19 413e c755 b5be 21fa c13c
00000020: 7aaf 38be f065 c8be b924 213e a84e 46be
00000030: 6823 4abe cf0d 06be d0a7 e5be b5c8 20be

gcpn_2.T2T.batch_norm.weight f4 [16]
0.96341604 1.0688277 1.1416769 0.9879106 0.9803578 0.8563797 0.9590986 1.0202023
0.9727842 0.8884087 1.0127174 0.94397694 1.003736 0.96278757 1.2183042 1.0031416
00000000: 6fa2 763f 59cf 883f 7822 923f b6e7 7c3f
00000010: bbf8 7a3f b33b 5b3f 7c87 753f fd95 823f
00000020: 6308 793f c16e 633f b9a0 813f 79a8 713f
00000030: 6c7a 803f 3f79 763f 64f1 9b3f f266 803f

gcpn_2.T2T.batch_norm.bias f4 [16]
-0.004710322 -0.035336524 0.04522418 0.12591107 0.07607179 -0.15495902 0.08570994 -0.01044542
-0.055429533 0.052798167 0.005898695 -0.086533785 -0.01918164 -0.04731132 0.09020285 -0.06880545
00000000: 0b59 9abb 08bd 10bd fd3c 393d d5ee 003e
00000010: 87cb 9b3d 94ad 1ebe b188 af3d 4423 2bbc
00000020: 140a 63bd e442 583d d749 c13b a038 b1bd
00000030: d122 9dbc 84c9 41bd 46bc b83d dfe9 8cbd

gcpn_2.T2T.batch_norm.running_mean f4 [16]
2.782482 4.4002905 0.41262335 -8.279447 7.996178 9.474133 7.568221 -6.6878686
0.53972274 6.8828316 -10.370732 8.704116 8.414086 7.162887 -7.6831813 11.709019
00000000: 2f14 3240 2ecf 8c40 5e43 d33e 9d78 04c1
00000010: b1e0 ff40 0c96 1741 de2e f240 0503 d6c0
00000020: 452b 0a3f 2840 dc40 85ee 25c1 0f44 0b41
00000030: 19a0 0641 5f36 e540 9fdc f5c0 2458 3b41

gcpn_2.T2T.batch_norm.running_var f4 [16]
132.72556 31.012848 325.88324 181.95084 261.68787 67.13239 239.24597 91.82579
89.21842 147.843 167.42944 70.66111 172.38231 200.33304 496.1456 407.22882
00000000: beb9 0443 501a f841 0ef1 a243 6af3 3543
00000010: 0cd8 8243 c943 8642 f83e 6f43 cea6 b742
00000020: d56f b242 cfd7 1343 f06d 2743 7d52 8d42
00000030: df61 2c43 4255 4843 a312 f843 4a9d cb43

gcpn_2.P2T.weight f4 [16, 16]
-0.14010161 -0.07067743 -0.0971997 -0.454317 0.17355946 0.055825938 -0.22462998 -0.041471537
-0.16188103 -0.084122814 -0.15063946 0.03274673 0.11846159 0.113776326 -0.20799068 -0.1608554
-0.12275794 -0.07275318 -0.016183436 0.03486507 -0.20092319 0.058978915 0.18333058 0.13953413
0.26841858 0.022986984 -0.24345912 0.045949303 0.0045909304 0.035485975 -0.20197934 0.31754845
-0.21161655 0.026183642 -0.04810641 -0.23674221 -0.19084695 0.24401191 0.07527576 -0.1630274
0.22021104 -0.21066166 0.02255411 -0.022335272 0.30386716 -0.34074298 -0.2384225 -0.15012327
0.19413577 0.14516985 -0.1397543 -0.044978306 -0.29913092 0.20101734 0.011031696 -0.033720277
0.20645201 0.011578904 -0.20199014 0.08899754 -0.14054134 -0.16225564 -0.15563034 0.14238398
0.153499 0.18467166 0.20335135 -0.15754725 -0.036739387 -0.09957083 -0.23051329 -0.3554152
-0.123817265 0.21040358 0.101044014 -0.07034051 -0.090640925 0.044381592 0.022093827 0.1843695
0.15884389 -0.2748088 -0.20880882 0.25766602 -0.036400247 0.061137635 0.07023356 -0.077339076
0.21094793 -0.1324345 -0.0032731383 0.24763913 -0.16877447 0.13864769 0.06295671 0.10358871
0.12121698 0.13888676 0.15925689 0.04402313 -0.28464687 -0.1840781 -0.098108836 -0.31776777
0.06931344 0.07802343 -0.1374219 -0.19511364 -0.23644787 -0.12841219 -0.031863786 0.110817164
-0.15788545 -0.07745582 0.16053644 0.124233074 0.4146482 -0.016917447 -0.005687169 0.10531078
-0.11732913 0.25991327 -0.10720232 0.038294572 -0.03203934 -0.060466785 0.13187696 0.26430732
0.2790003 0.3627914 -0.30757332 0.23424833 0.0745127 0.30699813 -0.10284276 -0.26479948
-0.021383293 0.03961751 0.061897364 0.16989177 0.114572726 0.07107226 0.22536746 0.0295136
0.104956575 0.3456046 0.10498038 -0.040707704 0.07553183 0.36794335 0.09573991 -0.22750404
0.10702525 -0.19188792 0.22929186 -0.052460015 0.0043688426 -0.081297524 0.08616363 0.29751307
0.07552606 -0.13298514 0.104273595 0.06606775 -0.17902964 0.020307641 -0.04547657 -0.14473346
0.07120003 -0.18663222 -0.2334103 -0.39075905 0.012571884 -0.23384239 -0.2769331 0.10991575
-0.15642469 0.06832171 -0.14080766 -0.13479465 0.21240526 0.26821172 -0.1679034 -0.24527411
-0.24526429 0.21961784 -0.0744344 -0.06592299 0.00564224 -0.12190439 0.124392636 0.05978059
0.3639414 0.213706 0.0021983623 0.17250718 -0.14425185 -0.11204411 0.20629787 0.139565
-0.21443583 0.10691899 0.08186989 -0.11418983 0.0067873374 0.11140921 0.22724532 -0.05998114
0.07380433 -0.22089198 -0.0015393686 0.23826031 0.26104382 -0.11730126 -0.15104216 -0.1929417
0.123070575 0.12327019 -0.18144104 0.37769613 -0.1791879 0.07238422 -0.013764395 0.05774855
0.10224728 0.11096617 -0.18430436 -0.14561656 -0.22198758 -0.22724943 -0.07234788 -0.102845185
-0.09847082 -0.21345596 0.0021977474 0.31174445 -0.10568456 -0.062082246 0.088882685 0.019733936
0.38496056 0.2729498 -0.18293634 -0.008462537 -0.19180954 0.09212044 0.051695395 -0.13255519
0.085006356 -0.07133754 0.023879753 -0.11417684 -0.12230923 -0.118624695 -0.07946508 0.010332232
00000000: cc76 0fbe 54bf 90bd a310 c7bd 3d9c e8be
00000010: 92b9 313e bda9 643d 6705 66be 0fde 29bd
00000020: 24c4 25be 9548 acbd 3b41 1abe 6f21 063d
00000030: fd9b f23d 9003 e93d 82fb 54be 47b7 24be
00000040: 8468 fbbd 9fff 94bd 2093 84bc adce 0e3d
00000050: cfbe 4dbe e093 713d 03bb 3b3e 09e2 0e3e
00000060: 296e 893e 334f bc3c 594d 79be 5635 3c3d
00000070: 846f 963b be59 113d acd3 4ebe b695 a23e
00000080: 02b2 58be 147f d63c 3a0b 45bd 8d6c 72be
00000090: 626d 43be 42de 793e 2d2a 9a3d a8f0 26be
000000a0: 017f 613e b1b7 57be 66c3 b83c 76f8 b6bc
000000b0: 7a94 9b3e dd75 aebe 0725 74be eab9 19be
000000c0: 87cb 463e 68a7 143e c01b 0fbe 2c3b 38bd
000000d0: b027 99be 7dd7 4d3e 49be 343c 461e 0abd
000000e0: 2868 533e 72b5 3d3c 81d6 4ebe 5844 b63d
000000f0: 12ea 0fbe 5826 26be 8f5d 1fbe 1bcd 113e
00000100: d82e 1d3e 911a 3d3e 563b 503e 1154 21be
00000110: 0a7c 16bd cbeb cbbd ad0b 6cbe fbf8 b5be
00000120: e893 fdbd 0974 573e 2af0 ce3d af0e 90bd
00000130: f3a1 b9bd 79c9 353d 1dfe b43c 5ccb 3c3e
00000140: f9a7 223e bdb3 8cbe fbd1 55be cdec 833e
00000150: 6d18 15bd 756b 7a3d 9dd6 8f3d f363 9ebd
00000160: bc02 583e e99c 07be 2682 56bb 1d95 7d3e
00000170: 37d3 2cbe a9f9 0d3e 73ef 803d 5126 d43d
00000180: 9c40 f83d 5538 0e3e 3d14 233e 9951 343d
00000190: 3cbd 91be f87e 3cbe 49ed c8bd 75b2 a2be
000001a0: 34f4 8d3d c0ca 9f3d 54b8 0cbe dfcb 47be
000001b0: 641f 72be 7c7e 03be 9a83 02bd 1cf4 e23d
000001c0: b9ac 21be 28a1 9ebd aa63 243e e96d fe3d
000001d0: c54c d43e 7596 8abc 6e5b babb 2ead d73d
000001e0: 414a f0bd 5a13 853e e48c dbbd c5da 1c3d
000001f0: af3b 03bd 05ac 77bd c10a 073e 4a53 873e
00000200: 21d9 8e3e cbbf b93e 407a 9dbe cbde 6f3e
00000210: 1d9a 983d dc2e 9d3e 3a9f d2bd cc93 87be
00000220: 042c afbc f845 223d 1788 7d3d 1cf8 2d3e
00000230: 1ba5 ea3d 558e 913d bac6 663e 81c6 f13c
00000240: 79f3 d63d 16f3 b03e f4ff d63d 1fbd 26bd
00000250: 6fb0 9a3d 1263 bc3e 4913 c43d d2f6 68be
00000260: 0e30 db3d 447e 44be 7ccb 6a3e 50e0 56bd
00000270: 8228 8f3b 517f a6bd 8f76 b03d a253 983e
00000280: 68ad 9a3d 422d 08be 658d d53d 874e 873d
00000290: 8c53 37be 365c a63c a445 3abd 0235 14be
000002a0: 52d1 913d 841c 3fbe 1c03 6fbe 9211 c8be
000002b0: 4efa 4d3c 6174 6fbe 2dca 8dbe 821b e13d
000002c0: cb2d 20be 41ec 8b3d e22f 10be 9c07 0abe
000002d0: c480 593e 0c53 893e deee 2bbe 2329 7bbe
000002e0: 9026 7bbe 80e3 603e 1071 98bd a202 87bd
000002f0: 8ae2 b83b 02a9 f9bd 91c1 fe3d 7edc 743d
00000300: 8756 ba3e bfd5 5a3e 6612 103b b9a5 303e
00000310: c2b6 13be 6277 e5bd c03f 533e 21ea 0e3e
00000320: 1195 5bbe 58f8 da3d 67ab a73d 5cdc e9bd
00000330: 5068 de3b 832a e43d ffb2 683e c9ae 75bd
00000340: b926 973d 8231 62be a4c4 c9ba 83fa 733e
00000350: 89a7 853e a53b f0bd ccaa 1abe 8292 45be
00000360: 6d0c fc3d 1575 fc3d aecb 39be 6361 c13e
00000370: 087d 37be 2e3e 943d 0f84 61bc be89 6c3d
00000380: 0667 d13d 3b42 e33d 48ba 3cbe 821c 15be
00000390: b650 63be 13b4 68be 202b 94bd 7fa0 d2bd
000003a0: 12ab c9bd 3394 5abe 1508 103b f89c 9f3e
000003b0: 2671 d8bd f449 7ebd 2008 b63d 10a9 a13c
000003c0: 8d19 c53e 14c0 8b3e aa53 3bbe 74a6 0abc
000003d0: b869 44be a4a9 bc3d 8dbe 533d 8cbc 07be
000003e0: d017 ae3d 6b19 92bd 799f c33c 8cd5 e9bd
000003f0: 437d fabd 81f1 f2bd 96be a2bd 8648 293c

gcpn_2.P2T.bias f4 [16]
-0.3822512 0.34771842 -0.25631082 -0.13924085 -0.036320582 -0.27955717 -0.14395803 -0.17571875
0.21584694 0.09598544 -0.33758366 -0.111823514 0.11844786 0.10638237 0.27298024 -0.4165591
00000000: 6eb6 c3be 2608 b23e 2c3b 83be 2795 0ebe
00000010: e4c4 14bd 1e22 8fbe bc69 13be 9eef 33be
00000020: fb06 5d3e 0494 c43d c4d7 acbe ba03 e5bd
00000030: cb94 f23d 00df d93d 11c4 8b3e 3c47 d5be

gcpn_2.P2T.batch_norm.weight f4 [16]
0.9908025 1.0417616 0.98280644 1.0413053 1.0643306 1.0386392 0.9759539 1.0514058
1.043742 0.7757573 0.96832865 1.1345106 1.0021714 1.0220742 1.0798955 1.0305207
00000000: 3ca5 7d3f 7258 853f 3499 7b3f 7e49 853f
00000010: fc3b 883f 21f2 843f 1dd8 793f 7794 863f
00000020: 5699 853f 0898 463f 63e4 773f a537 913f
00000030: 2747 803f 54d3 823f 043a 8a3f 1ae8 833f

gcpn_2.P2T.batch_norm.bias f4 [16]
-0.034371674 -0.02606768 -0.0932406 -0.10845884 0.01731028 0.011827568 -0.09439579 -0.017965738
-0.027080582 0.085522294 0.007230293 -0.03865003 -0.0429918 -0.032844894 0.05987668 -0.07684
00000000: 50c9 0cbd e38b d5bc edf4 bebd ab1f debd
00000010: 4ace 8d3c 6ac8 413c 9452 c1bd e22c 93bc
00000020: 19d8 ddbc 5026 af3d 18ec ec3b 7e4f 1ebd
00000030: 2b18 30bd 5e88 06bd 4041 753d 4a5e 9dbd

gcpn_2.P2T.batch_norm.running_mean f4 [16]
-2.2345405 0.10012946 -2.6141868 -1.9027438 -1.3152615 -0.019711941 -1.6474853 2.255688
0.2465697 -1.6765004 -2.2226496 -0.82859075 1.5532546 1.4448942 -1.2255689 -2.439216
00000000: b602 0fc0 ad10 cd3d d64e 27c0 1c8d f3bf
00000010: 7d5a a8bf f07a a1bc cce0 d2bf 315d 1040
00000020: c47c 7c3e 9197 d6bf e43f 0ec0 861e 54bf
00000030: 0cd1 c63f 4bf2 b83f 71df 9cbf 1d1c 1cc0

gcpn_2.P2T.batch_norm.running_var f4 [16]
2.2547386 0.5962017 5.658001 1.2121592 0.6982629 2.3202343 0.5805135 2.039447
4.232764 1.233773 2.427028 0.5790275 3.3506036 1.1066403 5.8904343 2.070687
00000000: a34d 1040 ada0 183f 580e b540 0828 9b3f
00000010: 5bc1 323f b87e 1440 889c 143f 4d86 0240
00000020: cd72 8740 46ec 9d3f 6d54 1b40 253b 143f
00000030: 4a70 5640 64a6 8d3f 707e bc40 2386 0440

gcpn_2.T2P.weight f4 [16, 16]
-0.16025294 -0.2488854 0.031802785 -0.03123851 0.11032984 -0.06846004 0.025560278 -0.1023133
-0.15440735 -0.02264027 -0.123731405 -0.03481414 -0.38404867 -0.07465669 -0.0813534 -0.0954582
-0.2691273 -0.17122762 -0.00095545925 0.108482495 -0.1398019 -0.22055449 0.08205992 -0.2038688
0.11334229 -0.31890517 -0.004183558 -0.023633678 0.12866563 -0.15050973 0.0139282225 -0.23152244
-0.20552999 -0.15070958 0.05401186 0.23386356 -0.17802863 -0.039190188 -0.10807243 -0.065418296
0.17006007 -0.06349511 -0.17609502 -0.09132519 0.23263738 0.111482754 -0.06738836 0.32608342
-0.0976392 0.23532523 0.14388917 0.11984 0.23770887 0.0066065826 0.1615261 0.26345205
0.1686783 -0.13569088 -0.07199158 0.24396795 0.19825682 -0.15511698 -0.21044521 0.25527006
-0.13086522 -0.1717417 -0.26047984 0.052639745 0.048717674 0.08557274 0.14902371 -0.09997735
-0.022543259 0.019715657 0.053486787 -0.13288002 0.23094575 0.12417329 0.26312995 0.037192848
-0.031056473 -0.31171998 -0.21495785 -0.23954785 -0.016457923 0.19244918 -0.2153817 -0.27087954
0.109486565 0.0074280165 0.17877978 0.12594329 0.15263921 0.14883362 0.26112533 0.08127085
0.24612382 -0.026145238 -0.11596436 -0.09051897 0.25208268 0.13360983 0.08083896 -0.2633145
-0.18522151 0.090418324 -0.1632844 0.11091807 0.08097824 -0.29160938 -0.08080384 -0.19185391
0.16641685 0.19214852 0.12138472 0.2114134 -0.2276845 0.21748382 -0.044433437 0.34711865
-0.014089906 -0.14306167 0.10797936 0.098977596 -0.22480258 -0.11482331 0.18725365 -0.25090986
-0.23602931 -0.15365316 0.04173825 -0.2443804 -0.34732667 -0.09223611 -0.061039913 -0.31927347
0.011771446 0.0049811536 -0.07727876 -0.021881958 0.11284378 -0.09992772 -0.11290136 0.08010389
0.09565349 -0.17187127 -0.008709584 -0.12387548 -0.12564279 0.10021352 -0.47561476 0.1642808
-0.22527121 -0.105221465 -0.23852359 0.06689638 -0.06927833 -0.16293502 0.06218181 0.0773838
0.0052895457 0.13778466 -0.13140555 0.10400663 -0.025766063 0.41873553 0.18729135 -0.11158783
0.1884524 0.17338987 0.1865909 -0.2272174 -0.21393701 -0.019439997 0.1201853 -0.14358178
-0.15351513 0.23847628 -0.3819886 -0.1959011 0.27120954 -0.031135736 -0.13108486 0.2567478
0.0927594 -0.08947945 -0.14079016 -0.3810916 -0.15014765 -0.12759481 0.073974356 -0.03778011
-0.015075303 0.11243879 0.2886058 -0.0012268812 0.18087202 -0.18879013 0.07652257 -0.28701058
-0.15705737 -0.0064188223 0.19553714 0.0734416 -0.18966419 -0.009104128 -0.1702039 0.104946695
0.05958972 -0.25112125 -0.044156116 0.06600308 -0.028484903 0.056342725 -0.008903797 -0.19679105
0.11095264 -0.14041571 -0.22549409 0.24766415 -0.20795038 -0.2936179 -0.19328834 0.17637987
0.02404852 -0.07204351 -0.06404317 0.14844042 -0.19844383 0.069584236 -0.047003977 -0.14187717
-0.26791847 -0.41267228 0.051311255 -0.012099365 -0.047736548 -0.020996585 0.04977711 0.14259782
-0.034365766 0.03298109 -0.019289294 -0.19734912 0.011991972 -0.2196898 0.12316198 0.0014038816
-0.23987359 0.06794212 -0.16412164 -0.02350615 0.18750897 0.053873625 -0.09613994 0.37644395
00000000: 5919 24be d0db 7ebe a343 023d e7e7 ffbc
00000010: 9cf4 e13d c734 8cbd ca63 d13c a389 d1bd
00000020: f61c 1ebe 1678 b9bc e466 fdbd 4699 0ebd
00000030: 07a2 c4be 9be5 98bd 9d9c a6bd 977f c3bd
00000040: 0ecb 89be 4b56 2fbe c977 7aba 122c de3d
00000050: 3b28 0fbe 09d9 61be 080f a83d fcc2 50be
00000060: 0120 e83d 8a47 a3be 3a16 89bb 6a9b c1bc
00000070: ecc0 033e 391f 1abe 3333 643c 3814 6dbe
00000080: 7476 52be 9d53 1abe 8a3b 5d3d ee79 6f3e
00000090: 234d 36be e485 20bd 1455 ddbd 07fa 85bd
000000a0: 3a24 2e3e b909 82bd 4152 34be b408 bbbd
000000b0: 7e38 6e3e 1251 e43d e902 8abd 68f4 a63e
000000c0: 10f7 c7bd 19f9 703e af57 133e ad6e f53d
000000d0: f469 733e 087c d83b 1967 253e 30e3 863e
000000e0: 01ba 2c3e 8df2 0abe 5270 93bd bcd2 793e
000000f0: d603 4b3e fcd6 1ebe f37e 57be c2b2 823e
00000100: 8801 06be 0edd 2fbe 9d5d 85be c69c 573d
00000110: 2f8c 473d c340 af3d ac99 183e edc0 ccbd
00000120: a4ac b8bc bb82 a13c f614 5b3d b311 08be
00000130: 0b7d 6c3e 914e fe3d f8b8 863e 8757 183d
00000140: 256a febc c399 9fbe e91d 5cbe 084c 75be
00000150: c4d2 86bc 6611 453e 058d 5cbe b9b0 8abe
00000160: 7e3a e03d b866 f33b 0c12 373e 47f7 003e
00000170: 744d 1c3e d767 183e 38b2 853e 5571 a63d
00000180: e207 7c3e 8a2e d6bc b97e edbd 0262 b9bd
00000190: fb10 813e 04d1 083e e68e a53d 28d1 86be
000001a0: b5aa 3dbe 3e2d b93d 0734 27be 0329 e33d
000001b0: ebd7 a53d d34d 95be 7c7c a5bd 5a75 44be
000001c0: 2e69 2a3e 95c2 443e 8d98 f83d c17c 583e
000001d0: 2026 69be 14b4 5e3e d6ff 35bd 89b9 b13e
000001e0: 59d9 66bc c27e 12be 4824 dd3d c4b4 ca3d
000001f0: a632 66be 7c28 ebbd 6cbf 3f3e 4277 80be
00000200: abb1 71be 4157 1dbe baf5 2a3d db3e 7abe
00000210: cdd4 b1be 49e6 bcbd fd04 7abd d077 a3be
00000220: 06dd 403c f238 a33b 5444 9ebd cb41 b3bc
00000230: a41a e73d e8a6 ccbd d438 e7bd 820d a43d
00000240: fae5 c33d 06ff 2fbe a5b2 0ebc 6db2 fdbd
00000250: 81a8 00be bf3c cd3d c783 f3be 3a39 283e
00000260: 7fad 66be 5a7e d7bd 873f 74be f800 893d
00000270: cce1 8dbd 70d8 26be 5bb2 7e3d 667b 9e3d
00000280: ed53 ad3b 6c17 0d3e 2d8f 06be 6e01 d53d
00000290: 5a13 d3bc 8164 d63e 4ec9 3f3e 2988 e4bd
000002a0: aaf9 403e 1d8d 313e af11 3f3e aeab 68be
000002b0: 4e12 5bbe a140 9fbc b623 f63d 1a07 13be
000002c0: 1233 1dbe 2033 743e 0394 c3be 4c9a 48be
000002d0: fadb 8a3e 5f10 ffbc 1c3b 06be 7374 833e
000002e0: a4f8 bd3d 0041 b7bd 4c2b 10be 701e c3be
000002f0: 4ec0 19be 37a8 02be de7f 973d 51bf 1abd
00000300: 67fe 76bc 4f46 e63d 24c4 933e 4dcf a0ba
00000310: 8436 393e 3352 41be ddb7 9c3d 0df3 92be
00000320: a6d3 20be fc54 d2bb e33a 483e 8d68 963d
00000330: 5437 42be 7b29 15bc ee49 2ebe 4bee d63d
00000340: 5a14 743d f792 80be 0bdd 34bd 9f2c 873d
00000350: 2c59 e9bc a1c7 663d 3be1 11bc 9883 49be
00000360: 233b e33d 23c9 0fbe ece7 66be ac9b 7d3e
00000370: f2f0 54be 1655 96be 61ed 45be ed9c 343e
00000380: 6701 c53c 8c8b 93bd 1129 83bd c400 183e
00000390: dc34 4bbe 2e82 8e3d 3e87 40bd 4048 11be
000003a0: 9c2c 89be c849 d3be c02b 523d 6a3c 46bc
000003b0: 6687 43bd 0801 acbc 15e3 4b3d 2a05 123e
000003c0: 1ec3 0cbd 2e17 073d 9504 9ebc e315 4abe
000003d0: fa79 443c 5df6 60be 593c fc3d 7302 b83a
000003e0: 6ca1 75be 3d25 8b3d 810f 28be f88f c0bc
000003f0: 5a02 403e 97aa 5c3d 04e5 c4bd 43bd c03e

gcpn_2.T2P.bias f4 [16]
0.4631811 0.14340764 0.4906779 -0.27541795 0.100656435 0.25897065 -0.5158743 0.35345814
-0.25452927 -0.2690049 0.3480294 0.08108602 -0.19961874 -0.18116894 0.13078134 0.20348813
00000000: 1326 ed3e 74d9 123e 223a fb3e 9503 8dbe
00000010: f624 ce3d cd97 843e 5710 04bf 77f8 b43e
00000020: a951 82be 03bb 89be e930 b23e 6d10 a63d
00000030: db68 4cbe 5a84 39be 8beb 053e 315f 503e

gcpn_2.T2P.batch_norm.weight f4 [16]
0.9692876 0.94322854 1.0303856 0.8494593 1.0169961 1.0459317 1.0715338 0.9847402
1.0481278 0.9419755 0.8848639 1.0464617 0.9631367 0.96530694 0.8588608 1.0726572
00000000: 3b23 783f 6d77 713f ade3 833f 2a76 593f
00000010: ee2c 823f 17e1 853f 0528 893f ef17 7c3f
00000020: 0d29 863f 4e25 713f 7186 623f 75f2 853f
00000030: 2090 763f 5b1e 773f 4dde 5b3f d54c 893f

gcpn_2.T2P.batch_norm.bias f4 [16]
-0.12963812 0.047153465 -0.067359224 -0.14980102 -0.12172611 -0.03288675 -0.095168784 -0.028064152
0.09592712 0.0214721 -0.10394982 -0.1304555 -0.07657144 -0.07339128 0.027741367 -0.34366345
00000000: dbbf 04be fe23 413d a2f3 89bd 7065 19be
00000010: 8a4b f9bd 42b4 06bd dae7 c2bd cbe6 e5bc
00000020: 7075 c43d 42e6 af3c a5e3 d4bd 2096 05be
00000030: 7dd1 9cbd 2b4e 96bd dd41 e33c a8f4 afbe

gcpn_2.T2P.batch_norm.running_mean f4 [16]
-0.9528983 -1.0523562 0.41217163 1.0332091 0.38140336 0.31435806 -0.9746231 0.9199945
-1.8019791 -1.4592147 0.97046214 -0.58076173 -0.28519946 -1.1543504 -0.79447055 -0.038029168
00000000: 25f1 73bf 9cb3 86bf 2908 d33e 3240 843f
00000010: 4d47 c33e 8af3 a03e e680 79bf c284 6b3f
00000020: 40a7 e6bf 8cc7 babf 3570 783f cdac 14bf
00000030: aa05 92be c1c1 93bf 6c62 4bbf 79c4 1bbd

gcpn_2.T2P.batch_norm.running_var f4 [16]
187.0544 203.71475 14.401546 228.3113 13.740817 16.700592 14.28248 31.660975
184.49841 165.4723 23.064878 96.0835 19.965641 69.6845 126.101135 29.209686
00000000: ed0d 3b43 fab6 4b43 bb6c 6641 b14f 6443
00000010: 63da 5b41 d09a 8541 0a85 6441 ad49 fd41
00000020: 987f 3843 e978 2543 df84 b841 c12a c042
00000030: a2b9 9f41 775e 8b42 c833 fc42 70ad e941

gcpn_3.P2P.weight f4 [64, 16]
0.027670363 0.017014971 -0.009956658 -0.08264012 -0.21777487 -0.14243998 0.11386272 -0.045247022
0.26494783 0.018017597 0.22458908 -0.14175114 0.30787992 -0.10646737 0.20478415 0.047106843
-0.07209198 0.047130045 -0.14166988 -0.10774321 0.23801875 0.30026197 -0.03228333 -0.21651714
-0.26186618 0.030196676 -0.12439207 -0.15703279 -0.094212405 -0.09504418 -0.13566212 -0.17550997
0.20769997 0.24597758 -0.08019887 0.108618 -0.112689495 -0.07836676 0.097105056 0.013868445
0.26657832 0.038089644 -0.13703856 -0.1085255 -0.0054519107 0.17838871 0.051695794 0.13570201
0.05667357 0.13239443 0.27144417 0.3040285 0.11741177 0.21349628 -0.07849588 -0.009622003
-0.27639946 0.06028271 0.13947672 -0.17052194 -0.05818862 0.05124898 -0.09742138 -0.047091912
-0.07731685 0.021373097 0.26769036 -0.11267577 -0.11308728 0.14335307 0.17783324 0.2092699
-0.19838245 0.030493816 -0.059791535 0.44707444 -0.05289123 0.1405902 -0.1471994 -0.21642007
0.059278917 0.058758747 -0.024327433 0.23077288 0.19205126 -0.16135739 0.18396032 0.1173583
0.04696345 0.09545616 0.035510324 0.15118934 0.09438505 -0.09920322 -0.23775664 0.30781966
0.18558006 0.08043598 0.16406015 0.0062202276 0.023941556 -0.22039928 0.011764513 -0.002547712
-0.13126159 0.18243586 0.30405673 0.13413425 -0.27371585 0.07902118 -0.14981218 -0.005990933
-0.16518226 0.17481269 -0.09567906 -0.16415074 0.19754541 -0.25089005 -0.09647412 0.38256395
0.09431452 0.13756248 0.21498069 0.3970302 0.051737525 0.124458395 -0.13956451 -0.20284754
-0.23354916 -0.12619981 0.062471304 -0.15388355 0.12569726 -0.24741447 -0.2890159 0.3554231
-0.08861932 0.16465127 0.17634001 0.055926032 0.104049064 0.22786942 -0.054325387 -0.16764684
-0.22485824 -0.21222909 -0.091526985 0.28101096 -0.14471646 -0.3522148 -0.27161545 -0.0015410815
0.041616306 -0.15593661 -0.08111728 0.16394085 0.047896262 0.049297832 0.10256344 0.14898135
0.02934237 0.099192694 -0.3053497 -0.06744236 -0.32702976 0.053175483 -0.011460952 0.092157975
0.017525028 0.10670732 0.11730334 0.15928966 -0.1002447 0.19707562 -0.09015677 -0.008977424
-0.098817065 0.09476603 0.2515854 -0.2959424 0.06685621 -0.17941342 0.21491444 -0.20967063
0.22340237 0.14894435 -0.3318525 0.09685552 0.027131705 0.17202768 -0.16514373 0.031183353
0.022380091 -0.12599613 0.11761123 -0.16139321 0.1924748 0.3681257 -0.17968777 -0.1835629
-0.19630307 0.16905281 0.08175108 0.04974008 -0.05808573 -0.32423413 0.0342579 0.07927395
-0.12129312 0.2780233 0.056763653 -0.17759214 0.114391364 0.12831353 -0.09551367 -0.34066492
0.21412131 -0.076890685 -0.011790864 -0.31657296 -0.03563549 0.051452056 0.071441695 -0.12793048
0.19873784 -0.21810675 -0.27520514 0.10181823 -0.10474879 -0.034189504 0.1439028 -0.038865104
-0.24800204 0.09026295 -0.07020289 -0.011721757 0.21918626 0.013255601 0.006697044 -0.27365872
-0.24056138 0.17545944 0.21410327 0.11276096 0.0011879761 -0.123521484 -0.16270493 -0.01886115
0.004219268 -0.12368965 -0.052799594 0.22293364 -0.17873138 -0.17722084 -0.0863855 0.013820911
00000000: f5ac e23c fb62 8b3c 4021 23bc 393f a9bd
00000010: 6000 5fbe c9db 11be dc30 e93d f154 39bd
00000020: 3ea7 873e a499 933c aefa 653e 3627 11be
00000030: 70a2 9d3e 910b dabd f0b2 513e 1bf3 403d
00000040: f6a4 93bd 6f0b 413d e911 11be 79a8 dcbd
00000050: 30bb 733e f0bb 993e 863b 04bd abb6 5dbe
00000060: 5313 86be 055f f73c 45c1 febd 34cd 20be
00000070: 6ff2 c0bd 86a6 c2bd 03eb 0abe e3b8 33be
00000080: 4daf 543e 8ce1 7b3e 4e3f a4bd 1d73 de3d
00000090: c0c9 e6bd c07e a0bd 04df c63d 7938 633c
000000a0: f47c 883e e303 1c3d d653 0cbe 9e42 debd
000000b0: f1a5 b2bb 88ab 363e f8be 533d 78f5 0a3e
000000c0: 8c22 683d 6892 073e bbfa 8a3e a0a9 9b3e
000000d0: 9575 f03d c59e 5a3e 73c2 a0bd 9ba5 1dbc
000000e0: 3b84 8dbe 01eb 763d fcd2 0e3e 4e9d 2ebe
000000f0: 3157 6ebd 73ea 513d dc84 c7bd 73e3 40bd
00000100: 4c58 9ebd a216 af3c b60e 893e 8ec2 e6bd
00000110: 4e9a e7bd 26cb 123e eb19 363e d94a 563e
00000120: c524 4bbe 2bce f93c f8e7 74bd f1e6 e43e
00000130: 79a4 58bd e1f6 0f3e 71bb 16be 399d 5dbe
00000140: 73ce 723d 03ad 703d 534a c7bc ba4f 6c3e
00000150: 16a9 443e df3a 25be 1860 3c3e 8c59 f03d
00000160: bf5c 403d 857e c33d 4673 113d 61d1 1a3e
00000170: f34c c13d 0f2b cbbd 7a76 73be 8a9a 9d3e
00000180: b308 3e3e 9ebb a43d 62ff 273e 0dd3 cb3b
00000190: 1521 c43c 59b0 61be f2bf 403c 84f7 26bb
000001a0: 7069 06be 77d0 3a3e 53ad 9b3e 7d5a 093e
000001b0: 7c24 8cbe dbd5 a13d 5d68 19be 974f c4bb
000001c0: 8a25 29be 1902 333e 62f3 c3bd 2217 28be
000001d0: 5849 4a3e a974 80be 3994 c5bd 6cdf c33e
000001e0: f927 c13d 2edd 0c3e e623 5c3e 8b47 cb3e
000001f0: baea 533d 0be4 fe3d 00ea 0ebe 44b7 4fbe
00000200: 8327 6fbe 863a 01be e9e1 7f3d a693 1dbe
00000210: c8b6 003e 385a 7dbe e4f9 93be 04fa b53e
00000220: 0c7e b5bd 589a 283e 7a92 343e b212 653d
00000230: ad17 d53d 9a56 693e 4c84 5ebd 9dab 2bbe
00000240: 3d41 66be 9552 59be 8072 bbbd abe0 8f3e
00000250: 8d30 14be 8055 b4be 2e11 8bbe 1dfe c9ba
00000260: dc75 2a3d d9ad 1fbe d120 a6bd 1ce0 273e
00000270: df2e 443d 86ec 493d c80c d23d 918e 183e
00000280: 695f f03c 8a25 cb3d cc56 9cbe 381f 8abd
00000290: 7270 a7be 89ce 593d b8c6 3bbc 52bd bc3d
000002a0: a690 8f3c 5e89 da3d bc3c f03d d41c 233e
000002b0: 184d cdbd 31ce 493e 1da4 b8bd 0c16 13bc
000002c0: 9a60 cabd b114 c23d cdcf 803e c385 97be
000002d0: e9eb 883d 27b8 37be 8812 5c3e e6b3 56be
000002e0: 97c3 643e de84 183e 92e8 a9be 305c c63d
000002f0: 4f43 de3c 0628 303e 701b 29be 3b74 ff3c
00000300: 7456 b73c 2105 01be 28de f03d 4344 25be
00000310: 1d18 453e f97a bc3e 1200 38be eaf7 3bbe
00000320: ac03 49be 2e1c 2d3e 1c6d a73d 41bc 4b3d
00000330: 4deb 6dbd 0402 a6be 0352 0c3d 615a a23d
00000340: 8768 f8bd 1259 8e3e 0181 683d b7da 35be
00000350: 0546 ea3d 9f64 033e ac9c c3bd a26b aebe
00000360: 9e42 5b3e dd78 9dbd 782e 41bc da15 a2be
00000370: 85f6 11bd 64bf 523d 0650 923d 3500 03be
00000380: ef81 4b3e 6057 5fbe b0e7 8cbe 1386 d03d
00000390: 8986 d6bd 4b0a 0cbd 415b 133e 0431 1fbd
000003a0: 3ff4 7dbe c8db b83d 88c6 8fbd 9d0c 40bc
000003b0: 5d72 603e 052e 593c e072 db3b ff1c 8cbe
000003c0: b955 76be a4ab 333e e33d 5b3e 38ef e63d
000003d0: ddb5 9b3a d5f8 fcbd 1f9c 26be b382 9abc
000003e0: c941 8a3b 0051 fdbd 6344 58bd b748 643e
000003f0: 5c05 37be 6179 35be e2ea b0bd 1a71 623c

gcpn_3.P2P.bias f4 [64]
0.029687898 0.12680599 0.1188432 -0.07652776 0.55013084 -0.25668412 -0.19591118 0.035526086
-0.47045773 -0.33919778 -0.012904696 0.021141198 0.16753998 0.20860688 -0.03735144 0.14535527
0.040230755 -0.08749449 -0.05992352 0.00065408647 -0.10160666 0.3266463 0.2290174 0.23917864
0.36368933 0.14726686 0.37406257 -0.06290812 -0.28695378 0.2215524 0.23633632 -0.50276935
0.4160869 0.08519345 -0.1983171 0.48665243 -0.10360418 -0.17273751 -0.07960342 -0.17604926
-0.17939553 0.05795862 0.03485104 0.23853348 0.35714734 0.4796124 -0.1377364 -0.24367493
-0.04803573 -0.23221736 -0.16306402 -0.15571702 -0.18764436 -0.20754237 0.43660116 0.11906811
0.069679946 -0.24508478 -0.047375042 -0.17397119 -0.34945697 -0.1484844 0.22321711 -0.2339183
00000000: 0934 f33c 6ed9 013e 1064 f33d 96ba 9cbd
00000010: 60d5 0c3f 1a6c 83be f19c 48be cd83 113d
00000020: d6df f0be 55ab adbe 386e 53bc 4e30 ad3c
00000030: 9a8f 2b3e 0b9d 553e d3fd 18bd 03d8 143e
00000040: 01c9 243d 5030 b3bd 5d72 75bd 0077 2b3a
00000050: 2717 d0bd 2f3e a73e 8a83 6a3e 3feb 743e
00000060: 7d35 ba3e 20cd 163e 2185 bf3e f9d5 80bd
00000070: 9beb 92be a2de 623e 2602 723e 7eb5 00bf
00000080: 5809 d53e e779 ae3d a313 4bbe 822a f93e
00000090: 6e2e d4bd 1ae2 30be 1e07 a3bd 4246 34be
000000a0: 76b3 37be 0566 6d3d f7bf 0e3d 1f42 743e
000000b0: 04dc b63e c28f f53e c50a 0dbe ec85 79be
000000c0: 1dc1 44bd 63ca 6dbe 41fa 26be 4874 1fbe
000000d0: d825 40be fd85 54be 308a df3e fbd9 f33d
000000e0: 5cb4 8e3d 81f7 7abe 550c 42bd 8125 32be
000000f0: 06ec b2be 4b0c 18be 0793 643e 4788 6fbe

gcpn_3.P2P.batch_norm.weight f4 [64]
1.0622802 1.095647 0.97254163 0.97308576 1.0596551 0.8678683 1.1383175 1.0938625
0.990248 0.9882995 0.95449924 0.98742384 1.1065104 1.053029 1.1136678 1.1246089
1.0129855 1.1731608 1.1332935 1.0056982 1.1753173 1.0225537 0.9616813 0.9118987
1.0058212 1.0204558 1.118121 0.95840657 1.1152611 0.93617815 1.0585768 0.8959549
0.9329849 1.0625746 0.98593986 1.1357139 1.0593609 1.0196264 1.0443223 1.0141257
1.0365986 1.0444404 0.9578504 1.0414665 0.9269574 1.132225 1.0818245 0.85925466
0.90221196 1.0497851 0.94638145 1.0740186 1.2160238 1.0048213 1.0146103 1.064701
1.1051265 1.0378189 1.0261122 1.0861173 1.0519544 1.003314 0.8993865 0.95811516
00000000: ccf8 873f 293e 8c3f 7df8 783f 261c 793f
00000010: c7a2 873f 9e2c 5e3f 63b4 913f b003 8c3f
00000020: e580 7d3f 3201 7d3f 105a 743f cfc7 7c3f
00000030: 22a2 8d3f a7c9 863f ab8c 8e3f 2ff3 8f3f
00000040: 82a9 813f 222a 963f c30f 913f b8ba 803f
00000050: cc70 963f 0ae3 823f bf30 763f 3172 693f
00000060: c0be 803f 4c9e 823f 971e 8f3f 225a 753f
00000070: e0c0 8e3f 5fa9 6f3f 727f 873f 4d5d 653f
00000080: 19d8 6e3f 7202 883f 8e66 7c3f 135f 913f
00000090: 2399 873f 1e83 823f 5aac 853f dfce 813f
000000a0: 43af 843f 39b0 853f af35 753f c64e 853f
000000b0: 154d 6d3f c0ec 903f 3a79 8a3f 1df8 5b3f
000000c0: 5df7 663f 5c5f 863f 0e46 723f 7179 893f
000000d0: aba6 9b3f fc9d 803f c0de 813f 1f48 883f
000000e0: c974 8d3f 40d7 843f a557 833f e405 8b3f
000000f0: 71a6 863f 986c 803f 323e 663f 0947 753f

gcpn_3.P2P.batch_norm.bias f4 [64]
0.15031075 -0.017482847 0.080056325 -0.07514406 0.066129744 -0.17430732 0.07909696 0.054654747
0.2045335 0.1668021 -0.13567862 0.0803854 -0.023872774 0.110786736 0.20395671 0.14662282
-0.046843234 -0.01921232 -0.15071334 0.040124364 -0.026406404 -0.07869924 0.055347305 0.040367406
-0.030035263 0.103908144 0.0440491 -0.21714374 -0.065630615 -0.3095483 -0.15120527 -0.0002346634
-0.18203051 -0.1349009 0.083040275 0.15285939 -0.18802366 0.14369403 -0.111715294 -0.2486124
0.14435036 -0.35533157 0.09178066 0.22284089 0.09430712 0.13488606 -0.11487308 -0.101663336
-0.03171925 0.06753696 0.16559179 -0.07427785 0.19450217 -0.001384926 -0.16726565 -0.042266794
0.1336995 -0.029472543 0.11745346 -0.22863688 -0.2365864 -0.003497703 0.15991828 0.03474831
00000000: 10eb 193e 3038 8fbc 92f4 a33d 21e5 99bd
00000010: 086f 873d 9e7d 32be 96fd a13d a8dd 5f3d
00000020: 3b71 513e 2bce 2a3e 56ef 0abe 1aa1 a43d
00000030: d690 c3bc 28e4 e23d 07da 503e 4b24 163e
00000040: b1de 3fbd 2863 9dbc 9954 1abe 7259 243d
00000050: 3e52 d8bc 112d a1bd dbb3 623d 4b58 253d
00000060: 830c f6bc cbcd d43d d46c 343d ee5a 5ebe
00000070: 5869 86bd 1d7d 9ebe 8ed5 1abe fa0f 76b9
00000080: 3566 3abe 7623 0abe 0511 aa3d 2c87 1c3e
00000090: 4689 40be 8724 133e fdca e4bd 4094 7ebe
000000a0: 95d0 133e 05ee b5be 80f7 bb3d 6730 643e
000000b0: 1724 c13d 921f 0a3e 9442 ebbd de34 d0bd
000000c0: 0bec 01bd d150 8a3d e590 293e fc1e 98bd
000000d0: 942b 473e 6886 b5ba b047 2bbe f21f 2dbd
000000e0: 86e8 083e 6770 f1bc 718b f03d c91f 6abe
000000f0: b543 72be b839 65bb 9ec1 233e 3e54 0e3d

gcpn_3.P2P.batch_norm.running_mean f4 [64]
-0.44144082 0.7688646 -0.09655646 0.86852866 0.5259345 -0.4110727 0.012696558 -0.090591446
-0.6892235 -1.0359706 -0.70237565 0.13765377 1.4561048 1.1536 -0.7957826 0.40831265
0.12296053 0.33860573 1.2310472 0.0044513014 -0.13877577 0.83681154 0.20378408 0.11381428
0.5530702 0.024294376 0.79979515 -0.06361571 -0.9353232 0.43163028 1.6702306 -0.045589823
0.6721549 1.5054151 -0.8893893 -0.029853508 0.8893456 0.08792263 -0.5812999 0.16787986
-0.42616463 0.020053994 -0.12104574 -0.12445978 0.80045706 -0.6805906 0.44050965 0.13144846
-0.632783 -0.3789149 -0.17060584 -0.55583155 -0.99511665 -0.32403448 1.8365864 0.021188008
0.6023563 0.15807958 -0.32526758 0.8775986 0.8625767 1.0851735 0.74873865 -0.67126
00000000: 8804 e2be 4fd4 443f 65bf c5bd e557 5e3f
00000010: a5a3 063f 1f78 d2be 3905 503c 0288 b9bd
00000020: f470 30bf af9a 84bf e4ce 33bf 1cf5 0c3e
00000030: a461 ba3f 2aa9 933f 69b8 4bbf 5b0e d13e
00000040: bbd2 fb3d bb5d ad3e f492 9d3f 39dc 913b
00000050: 3c1b 0ebe 4839 563f c6ac 503e 7617 e93d
00000060: 0296 0d3f 0005 c73c 60bf 4c3f f448 82bd
00000070: 5771 6fbf a5fe dc3e 1eca d53f 65bc 3abd
00000080: 5812 2c3f 71b1 c03f 04af 63bf 588f f4bc
00000090: 27ac 633f c810 b43d 12d0 14bf b3e8 2b3e
000000a0: 4032 dabe 4648 a43c d4e6 f7bd c5e4 febd
000000b0: c1ea 4c3f 303b 2ebf 7b8a e13e 6d9a 063e
000000c0: 11fe 21bf 2201 c2be 4cb3 2ebe fa4a 0ebf
000000d0: f7bf 7ebf d9e7 a5be 4315 eb3f 7992 ad3c
000000e0: 0634 1a3f 9ddf 213e 7989 a6be 4daa 603f
000000f0: d4d1 5c3f f7e6 8a3f 56ad 3f3f b2d7 2bbf

gcpn_3.P2P.batch_norm.running_var f4 [64]
15.516459 27.609396 8.603986 20.98581 25.991442 38.53704 20.55925 44.505383
38.22855 24.407879 24.034208 44.367737 16.489214 32.442833 4.8864574 4.5888205
34.05227 23.646036 4.5198936 41.396664 46.712624 3.7707188 19.328798 36.78977
60.60207 35.225365 19.26723 43.93927 9.751584 40.90445 20.35232 41.19323
9.34675 38.970196 82.445984 38.014244 32.990993 31.864376 15.003089 50.914776
58.455437 33.014492 35.083317 20.539774 33.68134 9.236954 15.167761 38.661922
63.742485 31.302889 16.66814 8.742112 19.325962 30.786983 10.645432 11.711492
36.906807 5.5350547 25.442656 14.78834 13.403475 13.758132 34.214836 56.01351
00000000: 6b43 7841 0be0 dc41 eda9 0941 f0e2 a741
00000010: 79ee cf41 ee25 1a42 5879 a441 8305 3242
00000020: 09ea 1842 5643 c341 0f46 c041 9078 3142
00000030: e9e9 8341 76c5 0142 dc5d 9c40 9ed7 9240
00000040: 8635 0842 152b bd41 f8a2 9040 2f96 2542
00000050: bad9 3a42 7553 7140 61a1 9a41 b928 1342
00000060: 8568 7242 c6e6 0c42 4923 9a41 d0c1 2f42
00000070: 7d06 1c41 289e 2342 8dd1 a241 dec5 2442
00000080: 4a8c 1541 7be1 1b42 58e4 a442 960e 1842
00000090: c7f6 0342 3eea fe41 a70c 7041 bba8 4b42
000000a0: 5ed2 6942 d70e 0442 5155 0c42 7551 a441
000000b0: b1b9 0642 90ca 1341 26af 7241 cfa5 1a42
000000c0: 4ef8 7e42 516c fa41 5a58 8541 b1df 0b41
000000d0: 929b 9a41 be4b f641 b153 2a41 4562 3b41
000000e0: 92a0 1342 2b1f b140 8f8a cb41 0a9d 6c41
000000f0: a274 5641 4f21 5c41 fedb 0842 d60d 6042
