dtefm_middle/resource/trained_memory/PPO_actor_lock_e.pth (torch, 317967 bytes, 104 tensors)

gcpn_1.P2P.weight f4 [8, 3]
000000 ff 40 98 3e 66 e1 82 be 9f f4 e9 bd 65 fa 87 3e
       0.29737088 -0.2556259 -0.11423611 0.26558223
000010 f1 c8 0b bf d5 06 b1 3e 8c 89 ff bd 18 8e 8e 3e
       -0.5460349 0.34575525 -0.12477407 0.27842784
000020 1d ce b6 3d 67 5f 8b bd d6 a2 26 3e 1b d2 df 3c
       0.08926032 -0.06805306 0.16273054 0.027321866
000030 5c d2 57 3e ad 53 66 be a5 20 32 bd 1f e1 6c bd
       0.2107634 -0.22492857 -0.043488164 -0.05783188
000040 37 d4 9f 3d 24 ca 60 3b 1e fa 04 3f fc db 37 3e
       0.07804149 0.0034300173 0.5194415 0.17955011
000050 7a 8f 52 be 17 c0 b5 be 71 45 df bd bd cb 76 be
       -0.20562544 -0.35498115 -0.10901917 -0.24101157

gcpn_1.P2P.bias f4 [8]
000000 27 bd 40 be d4 1e e7 3c 34 5e b0 3e 34 f8 a1 3e
       -0.18822156 0.028212942 0.3444687 0.31634676
000010 b6 58 10 bf ae 9a b5 3e 23 42 2a 3e b2 32 0c 3f
       -0.5638536 0.35469574 0.16626792 0.54764855

gcpn_1.P2P.batch_norm.weight f4 [8]
000000 4f 5f 7f 3f ab e6 7c 3f 4c 11 81 3f 8b dc 7f 3f
       0.99754804 0.9878947 1.0083404 0.99945897
000010 98 04 7f 3f b2 8d 80 3f 30 62 80 3f f3 06 7f 3f
       0.99616385 1.0043242 1.0029964 0.9961998

gcpn_1.P2P.batch_norm.bias f4 [8]
000000 86 e1 32 bb 55 b4 2f bc b5 07 12 bb 77 15 c8 b9
       -0.0027295067 -0.010724147 -0.0022282426 -0.00038162965
000010 6d 1f 92 bb cf 36 18 bc 0c 47 95 bb 93 33 e7 bb
       -0.0044593127 -0.009290411 -0.0045555886 -0.0070557087

gcpn_1.P2P.batch_norm.running_mean f4 [8]
000000 9e 4f c3 be 63 a3 83 bd 53 2b 1e 3f fa 4c ea 3e
       -0.3814668 -0.06427648 0.6178486 0.45761853
000010 59 b9 35 bf 08 21 ce 3e bc a0 cd 3e 5c d3 a6 3d
       -0.70985943 0.40259576 0.40161693 0.08145782

gcpn_1.P2P.batch_norm.running_var f4 [8]
000000 39 f3 2d 3e 6b e4 54 3f 41 ed 6b 3e 28 2e a1 3d
       0.16987313 0.8316104 0.23039724 0.07870132
000010 e1 81 02 3e 34 24 80 3c aa 08 38 3f 3e 93 b6 3e
       0.12744857 0.015642263 0.7188822 0.35659212

gcpn_1.T2T.weight f4 [8, 3]
000000 12 4e c5 3e 73 be 05 bf bb fb 0a bf 62 17 93 be
       0.38536125 -0.5224373 -0.5429036 -0.28728777
000010 f7 4b 00 3f e3 eb aa bd 65 55 72 3e 86 45 87 be
       0.50115913 -0.08345773 0.23665388 -0.2642023
000020 66 c7 12 3f 91 0e 7b be 59 38 dd 3e 2d df 71 bc
       0.5733551 -0.24517275 0.43207052 -0.014762682
000030 e6 81 9a be 24 a0 97 3e b1 d1 9d be 81 e4 32 3e
       -0.3017723 0.29614365 -0.30824044 0.1746998
000040 08 95 25 be b3 4a 70 bd 84 95 10 bf e2 2f 8a be
       -0.16170132 -0.05866499 -0.5647814 -0.26989657
000050 45 4e a2 3e 7f dc 18 be cd 8f 17 3f ed ff db 3e
       0.3170034 -0.14927863 0.592038 0.42968693

gcpn_1.T2T.bias f4 [8]
000000 48 31 e1 bc 57 6d c1 be 92 0e b1 3e 4b c8 37 3e
       -0.02748932 -0.37778732 0.3458143 0.179475
000010 2b cc bf be c5 f0 be 3e 3a 66 b0 3e 7d 03 02 3f
       -0.37460455 0.37293068 0.34452993 0.5078657

gcpn_1.T2T.batch_norm.weight f4 [8]
000000 b9 bd 7e 3f f5 f6 7c 3f 1f 58 7e 3f 2e 90 7e 3f
       0.99508244 0.98814327 0.9935321 0.9943875
000010 c8 ba 81 3f 2c 0b 80 3f cc e5 7c 3f 0e 42 7f 3f
       1.0135126 1.0003409 0.9878814 0.99710166

gcpn_1.T2T.batch_norm.bias f4 [8]
000000 35 9d a7 bb df 5e 1b bc fa dd 37 3c d8 86 f9 bb
       -0.005115176 -0.009483068 0.011222357 -0.0076149516
000010 ac 25 fd 3b 37 b8 6a bb e9 00 20 bc 52 22 9b 3c
       0.007725438 -0.0035815367 -0.009765842 0.018937264

gcpn_1.T2T.batch_norm.running_mean f4 [8]
000000 ac ac 00 3d 3c 99 df be a5 97 e6 3e ae ed 08 3e
       0.031414673 -0.43671596 0.4503757 0.13371918
000010 88 09 f9 be 7c ef d8 3e 04 94 87 3d 9b 4d 0f 3f
       -0.48640084 0.42370212 0.066200286 0.5597779

gcpn_1.T2T.batch_norm.running_var f4 [8]
000000 98 11 34 3f 1a 2f c3 3e 54 e5 77 3e 53 42 8f 3e
       0.70339346 0.38121873 0.24208575 0.2798029
000010 bc 5e cb 3e f3 cb 0b 3e 99 b1 ad 3f 5f 3a 14 3e
       0.39720714 0.13652019 1.3569824 0.14475392

gcpn_1.P2T.weight f4 [8, 8]
000000 53 94 4a be ad 54 53 bd 91 a2 03 3b 30 14 78 3d
       -0.19783144 -0.051594425 0.002008591 0.060566127
000010 f0 3d 87 be f3 af 7d be 7e 67 47 3e 23 b6 b4 bd
       -0.26414442 -0.2477415 0.19473073 -0.08823802
000020 96 32 28 3e d3 f5 a3 3c 45 d3 fe 3d 91 f2 b0 3d
       0.16425547 0.020014679 0.1244264 0.08640016
000030 18 be fa 3d 36 c6 3c 3e d1 aa a2 be 86 ec 37 3e
       0.12243289 0.18434986 -0.31770948 0.1796132
000040 70 7b 7e be 3f db 8b be 80 c8 b0 3c dc 61 72 bd
       -0.24851775 -0.2731571 0.02157998 -0.059175357
000050 80 93 53 3e 19 37 50 be fa da 9d be a3 3c 87 3e
       0.20661736 -0.20333518 -0.30831128 0.2641345
000060 cf 21 5b bd b1 23 4b 3e 78 0e eb 3d 1b 16 87 be
       -0.05349904 0.19837834 0.11477369 -0.26384053
000070 65 99 8b 3d 15 fc b2 3d 6a c8 7b be 80 ae 22 be
       0.06816367 0.08739487 -0.2458817 -0.15886879
000080 8f ea fe 3d 60 b4 87 3d 13 e3 18 be 1c 26 d9 bd
       0.12447082 0.06626201 -0.14930372 -0.10602972
000090 fb 01 a6 3e de 41 85 bd ff 97 4a 3e b1 3b 1d 3e
       0.32423386 -0.06506704 0.19784544 0.15354802
0000a0 3a f3 57 be da 04 91 be 2d 83 b3 3e ce 50 f3 3c
       -0.21088877 -0.28324014 0.35061017 0.029701617
0000b0 a7 68 87 3e 0c 81 b2 3d 08 86 f5 3d 6a 53 82 3e
       0.2644703 0.0871602 0.11988455 0.25454265
0000c0 7d 83 ab 3e 98 db 6f be b8 f6 31 3d 6a 8a 86 3e
       0.33498755 -0.23423612 0.04344818 0.26277477
0000d0 8b af 82 3e 72 e5 61 3e a0 e6 84 be 3d f5 7e be
       0.25524554 0.22060183 -0.25957203 -0.24898238
0000e0 3b 89 58 be 70 61 1e 3d 03 55 b5 3e 06 b4 63 be
       -0.211461 0.038667142 0.3541642 -0.22236642
0000f0 e6 84 3f 3e f1 68 49 be da 53 a9 be 0d b0 a6 bd
       0.1870304 -0.19668938 -0.33071786 -0.08139048

gcpn_1.P2T.bias f4 [8]
000000 b4 f5 5b 3e fc 30 a7 3e 69 62 61 be 75 84 8d 3d
       0.21480447 0.3265456 -0.22010197 0.0691003
000010 5f a9 99 3e 57 cc 6d 3e 33 4e 5e 3e 9a d0 77 3e
       0.30012032 0.2322248 0.21709518 0.24200669

gcpn_1.P2T.batch_norm.weight f4 [8]
000000 27 dc 81 3f f4 78 7e 3f e3 27 80 3f 07 fe 80 3f
       1.014531 0.9940331 1.0012172 1.0077523
000010 92 70 80 3f 8c 21 7f 3f 44 1c 7d 3f f3 ff 81 3f
       1.0034354 0.99660563 0.98871255 1.0156235

gcpn_1.P2T.batch_norm.bias f4 [8]
000000 26 e5 3e 3c 33 d4 41 bb 5d f5 4e 3b a5 5c e5 39
       0.011651313 -0.0029575943 0.0031579353 0.0004374731
000010 4e 21 0a b9 08 5a 0a bc a8 36 50 bc 44 6d 45 3c
       -0.00013173113 -0.008444317 -0.012708344 0.012049977

gcpn_1.P2T.batch_norm.running_mean f4 [8]
000000 48 20 47 3f 8c d7 de 3c 9f a0 87 bf 6c 94 2c bf
       0.7778363 0.02720239 -1.0595893 -0.67413974
000010 68 af f3 be 5d a6 a2 3f 0b b1 14 3f 26 77 12 bf
       -0.47594762 1.270702 0.58082646 -0.57213056

gcpn_1.P2T.batch_norm.running_var f4 [8]
000000 66 56 73 3e 97 f4 e9 3e e6 13 bf 3f 36 23 15 3e
       0.23763427 0.4569442 1.4927948 0.14564213
000010 c2 3b 9d 3f c2 3c f7 3e af b1 28 3f 92 59 84 3e
       1.2283862 0.48288542 0.65896124 0.25849587

gcpn_1.T2P.weight f4 [8, 8]
000000 53 27 72 3e 23 4e b7 3d d7 10 77 be a3 f7 99 be
       0.23647813 0.0895045 -0.24127518 -0.30071744
000010 2d 4f 21 be ba 36 17 bd 95 ae 3f be 5e 25 0e 3e
       -0.1575286 -0.036917426 -0.18718942 0.13881442
000020 98 2c da 3d e0 e4 8e bd 5c 3e 0a 3e 5c 3a f2 3d
       0.10653037 -0.06977248 0.1350035 0.118275374
000030 ec f6 5f 3e 63 16 7a 3e 4c 32 d9 bd a4 8c af 3e
       0.21871537 0.24422602 -0.106052965 0.34286988
000040 42 da 02 bd 89 ba 25 bc c2 c7 a7 be 0a 62 66 be
       -0.031946428 -0.010115274 -0.3276959 -0.22498336
000050 90 44 51 be e7 44 18 be 7e 24 80 3e 9c 46 00 be
       -0.20436311 -0.14870034 0.2502784 -0.12526935
000060 4e aa 89 be da c8 fe 3d 9f 09 e1 3d 65 95 60 3e
       -0.26887745 0.12440653 0.10988163 0.2193199
000070 fb d2 40 be 53 95 9a 3d b2 3a 0b be 20 09 ba bd
       -0.18830483 0.075480126 -0.13596609 -0.09083772
000080 a1 3c 97 be 9f 00 24 be ba 11 e6 bd 99 5f 26 3e
       -0.29538444 -0.16015862 -0.1123385 0.16247405
000090 df 2a 89 3d 92 ac 9a 3d 40 3a ac 3e d8 8d ae 3e
       0.0669763 0.075524464 0.3363819 0.34092593
0000a0 67 d4 76 3e ca 42 35 3c cb 26 82 be 4c ab 91 3e
       0.24104463 0.011063287 -0.25420222 0.28451002
0000b0 9a d9 9d bd d7 d7 eb bc 9f 82 94 be 99 6a 95 bd
       -0.0770752 -0.028789444 -0.29005906 -0.072957225
0000c0 fd 09 67 be 42 98 9d 3e d0 7a 9c be 9a 1d 96 be
       -0.22562404 0.30780226 -0.30562449 -0.2931946
0000d0 6d 3c 8c bc a2 e4 52 be 08 b4 ea 3d c0 23 19 be
       -0.017118657 -0.20595029 0.114601195 -0.14955044
0000e0 a7 a8 21 be 26 87 2d 3c 4e dd 80 3e 6a 33 7e be
       -0.15786992 0.010591304 0.25168842 -0.248243
0000f0 68 20 2f 3e a4 5f 65 3e 76 01 b2 3e 44 8c 81 be
       0.17102206 0.22399765 0.3476674 -0.25302327

gcpn_1.T2P.bias f4 [8]
000000 20 95 ad 3d e5 a8 85 be c3 9f 9a 3e 58 94 0d be
       0.08475709 -0.2610542 0.30200014 -0.1382612
000010 eb 87 5a 3e 5b 64 1e 3c 31 5a e6 bc a5 4d 3f bc
       0.21340911 0.009667481 -0.028119178 -0.011676227

gcpn_1.T2P.batch_norm.weight f4 [8]
000000 57 87 7f 3f eb 0c 81 3f 40 6f 7e 3f 90 8c 80 3f
       0.9981589 1.0082067 0.99388504 1.0042896
000010 55 15 7f 3f 2f 67 81 3f 3c 1b 80 3f 9e 83 7f 3f
       0.99641925 1.0109614 1.0008311 0.99810207

gcpn_1.T2P.batch_norm.bias f4 [8]
000000 04 af 66 3c d2 dd b2 3c 77 44 8e 3b 9a c6 e6 bb
       0.014079813 0.021834288 0.0043416577 -0.007042718
000010 32 5f a2 ba d0 d2 b0 3c 32 5d 1e 3c 3c a7 0b bc
       -0.001238799 0.021584898 0.009665774 -0.0085237585

gcpn_1.T2P.batch_norm.running_mean f4 [8]
000000 6d 19 81 be a5 8c 38 3f e0 d5 b6 be c6 f3 e8 be
       -0.2521471 0.72089607 -0.3571005 -0.45498484
000010 aa b3 1e 3f 18 f8 28 be b2 8c 46 bf d9 8d ef 3e
       0.61992896 -0.1650089 -0.77558434 0.4678791

gcpn_1.T2P.batch_norm.running_var f4 [8]
000000 dd b0 05 41 d0 f9 59 42 f1 bf 3b 42 d9 d5 28 41
       8.3556795 54.493958 46.937443 10.552209
000010 32 ed f2 41 7e 5e b5 40 6e 1a 93 42 c5 f9 a8 41
       30.365818 5.6677847 73.55162 21.121958

gcpn_2.P2P.weight f4 [16, 8]
000000 26 98 79 3d 21 25 33 3e 66 dd 94 3d 64 51 ed 3d
       0.060936116 0.17494632 0.07268791 0.1158779
000010 31 c6 9b be 20 65 87 3e 95 a5 a1 3e 3b ea 94 3e
       -0.30424646 0.2644434 0.31571642 0.29084954
000020 f8 78 85 3e cb cc 86 be 1d 45 0b be ee 32 9f 3e
       0.26068854 -0.2632812 -0.13600583 0.31093544
000030 15 57 8d be 67 1c 9f 3e fe 17 8e be 5a 27 78 be
       -0.276055 0.31076357 -0.2775268 -0.24233761
000040 ec 23 34 3e 59 90 81 be 40 bc 9b bd f8 1b 7d 3e
       0.17591828 -0.2530544 -0.07604265 0.247177
000050 3b cf 8d 3e b0 3c ad 3e 9e 32 92 bd f9 c1 8f be
       0.27697167 0.33835363 -0.07138561 -0.28077677
000060 c5 4c b2 3e dc 86 95 bd cb 26 14 be c8 8f 9e 3d
       0.34824196 -0.07301113 -0.14467923 0.07742268
000070 a0 ed 7b be 3b 2d 6c 3e e6 7f 63 3e d7 a7 91 be
       -0.24602365 0.23064129 0.22216758 -0.28448364
000080 e3 54 92 be e3 7f ad bc 1c 6d 1a 3e 5e b0 35 bc
       -0.28580388 -0.021179145 0.15080684 -0.0110894125
000090 34 a6 37 be 63 1f b2 3c c2 c3 a9 be 76 9e 82 be
       -0.17934495 0.021743482 -0.33157164 -0.2551152
0000a0 f7 d8 75 be 49 2a 97 3e 21 e0 9c 3e eb f3 fe bd
       -0.24008547 0.2952445 0.30639747 -0.124488674
0000b0 4b d2 e3 3b ea 80 23 3e 80 70 34 3d 87 14 2d be
       0.006952559 0.15967146 0.0440526 -0.16902362
0000c0 d5 ec 54 3e af 0d 60 3e 78 de 8a bc 1a 1a 42 bd
       0.20793469 0.2188022 -0.016951784 -0.047388174
0000d0 4b f0 a1 3e 6d 81 a1 3e 6f f9 43 be 2f 02 b2 3e
       0.3162864 0.31544057 -0.1913812 0.3476729
0000e0 58 9f b1 3d 6e 68 70 be ea 6c 3b 3e a6 61 8f be
       0.086729705 -0.23477337 0.18303266 -0.28004187
0000f0 51 82 a4 3e 50 3c 6e be da f4 cb 3d 3b eb d9 3d
       0.32130674 -0.23265195 0.09958811 0.1064057
000100 c5 f3 9d 3d d5 38 97 3e 53 60 00 be ae be 17 be
       0.07712511 0.29535547 -0.12536745 -0.14818832
000110 2c 67 a2 be 2c 8a 29 bc 23 8c 25 be fb 5f 40 3c
       -0.3171934 -0.010347884 -0.16166739 0.0117416335
000120 70 00 91 bd 2e 90 00 3e 1e 17 99 3e b1 3a dd 3d
       -0.070801616 0.12555 0.2990045 0.1080221
000130 c7 ab dc bd bb 33 33 be bd 59 9e be d6 af 9b 3e
       -0.107749514 -0.17500202 -0.3092784 0.3040759
000140 93 62 94 bd 77 9c 77 3d f7 95 0a 3d d6 8a 63 be
       -0.07245364 0.06045195 0.033834424 -0.2222093
000150 a9 91 4b 3e 4e 63 45 3e 96 53 9b 3c b6 55 54 be
       0.19879784 0.19276163 0.018960755 -0.20735821
000160 91 c0 1e be 65 c1 c6 3b 57 79 55 be a6 e2 3e be
       -0.15503146 0.006065535 -0.20847069 -0.18641147
000170 36 c7 73 bd c4 51 e3 bd 1d b4 a0 3d d7 f2 ac bd
       -0.059516154 -0.1109958 0.07846854 -0.084447555
000180 2e c4 fe bc 27 b3 09 be 39 63 a5 be 3c ab 96 3e
       -0.031099405 -0.13447247 -0.32302263 0.29427516
000190 8a b0 86 3d 4a e1 a5 3e 62 e6 61 bd 0e cb c5 bd
       0.06576641 0.32398444 -0.05515135 -0.0965787
0001a0 93 af a5 be ed 3a 13 be 4d 88 77 3e 5a 93 b4 be
       -0.32360515 -0.14377947 0.24173088 -0.3526867
0001b0 59 b2 fe bd d4 bc 67 3e 38 2a 55 3e 1a f6 f9 3d
       -0.12436361 0.22630626 0.20816886 0.12205143
0001c0 a9 fb 94 bd ce 2f b9 bc 9d 39 96 bd e0 21 06 be
       -0.07274563 -0.022605803 -0.073352076 -0.1309886
0001d0 e7 97 1b 3e 58 90 f2 bd 15 2e 4a be 3e a3 87 3d
       0.15194665 -0.11843938 -0.19744141 0.06622933
0001e0 c0 75 88 be f5 00 95 bd 2b 07 29 3e f9 ed 0b 3e
       -0.26652336 -0.07275573 0.1650664 0.13664998
0001f0 dd c5 95 3e 5c a1 7d be 95 2d 30 bc 70 b3 cc bd
       0.2925252 -0.24768585 -0.010753055 -0.099951625

gcpn_2.P2P.bias f4 [16]
000000 13 e5 4c be 2b ad 4a be 3a 06 b2 3d db f1 14 3d
       -0.2000926 -0.19792621 0.08692594 0.036363464
000010 0b f1 39 be d2 f5 7f be 91 6d 96 be 60 08 b0 3e
       -0.18158357 -0.24996117 -0.29380468 0.3438139
000020 28 78 7e bd 0b bf ab bd a4 2e 04 be d3 17 35 be
       -0.06212631 -0.08386048 -0.12908417 -0.1768487
000030 0f 8a a5 be 04 34 54 be bd f7 5c 3e d5 25 9e 3d
       -0.32331893 -0.20722967 0.2157888 0.0772206

gcpn_2.P2P.batch_norm.weight f4 [16]
000000 b6 2c 7c 3f fd 9b 80 3f d7 4a 7f 3f 18 40 80 3f
       0.98505723 1.0047604 0.9972357 1.001956
000010 47 5b 81 3f 7f 81 7d 3f 0b 5b 7e 3f 2b 54 7f 3f
       1.0105981 0.9902572 0.9935767 0.99737805
000020 45 63 81 3f a3 0a 7e 3f 23 05 80 3f db ff 80 3f
       1.010842 0.9923498 1.0001568 1.0078081
000030 32 a0 7d 3f e5 32 80 3f 69 b9 7f 3f f4 83 82 3f
       0.99072564 1.0015532 0.9989229 1.0196519

gcpn_2.P2P.batch_norm.bias f4 [16]
000000 0e 2a 8e bc 12 c3 94 3b d0 2a 4a 3c b2 e8 4f 3a
       -0.017354038 0.0045398558 0.012339309 0.00079310976
000010 fc 10 0a 3b 75 64 ed ba b3 66 7c bc 20 b9 74 3b
       0.0021067252 -0.0018111604 -0.015405345 0.0037341788
000020 d5 e8 c3 3c 16 e4 58 bb 4a 61 94 bb 99 41 35 3c
       0.023914734 -0.0033094934 -0.0045281993 0.011063003
000030 02 18 1c 3b 57 53 14 bc 94 90 4f bc 1e 98 1a 3c
       0.002381802 -0.009053073 -0.012668747 0.009435682

gcpn_2.P2P.batch_norm.running_mean f4 [16]
000000 eb bc cc 3e e9 32 db 3e 19 83 ba 3f 0e 75 7a 3f
       0.39987883 0.4281228 1.4571258 0.9783486
000010 b8 fe e6 bd 16 07 64 3f 99 6f 6b 3e cb 8f c2 3d
       -0.112790525 0.8907331 0.2299179 0.095000826
000020 4d 8f 1f bf 07 75 2f bf ea 66 3a 3f 7a 29 61 bf
       -0.62328035 -0.68537945 0.72813284 -0.87953913
000030 87 61 d5 3d 07 25 8b 3e 96 d5 f8 be 0d 96 f9 bb
       0.104189925 0.27176687 -0.48600453 -0.0076167644

gcpn_2.P2P.batch_norm.running_var f4 [16]
000000 27 66 34 41 9c f5 c1 41 bd cd 9a 41 75 69 9e 41
       11.27494 24.244926 19.350458 19.801493
000010 7b 4b 93 40 1e dd 32 40 f3 1a ae 41 3c ec c1 40
       4.602964 2.794746 21.763159 6.060087
000020 5c b7 30 41 4c 78 58 41 d6 c9 31 40 35 eb 7d 3f
       11.044765 13.529369 2.777944 0.9918702
000030 e9 fa 50 40 08 30 35 40 d4 0f ab 3f 2e fe 1a 41
       3.2653143 2.8310566 1.3364205 9.687056

gcpn_2.T2T.weight f4 [16, 8]
000000 d9 12 11 be 28 06 eb bd 94 b7 64 3e a4 44 82 3e
       -0.14167346 -0.114757836 0.22335654 0.25442994
000010 a3 86 ae 3e a4 91 cd 3d 8a e4 2c 3e 53 1e bd bc
       0.34087095 0.10037544 0.16884056 -0.023085749
000020 aa 5d 54 be d6 fc ae be 53 83 5a 3e 4a 85 46 bd
       -0.20738855 -0.34177274 0.21339159 -0.048466958
000030 32 7b 15 3e f5 44 5b 3c f8 00 ad be 0c 42 33 be
       0.14597777 0.01338314 -0.33789802 -0.17505664
000040 6d 85 b8 3d 3c d1 84 bd 3c fe b2 be a8 81 06 3e
       0.09009824 -0.06485221 -0.3495959 0.13135397
000050 27 34 c3 3b 43 7e e6 bd 18 a8 19 3e 0c ee 8d 3d
       0.005957145 -0.11254551 0.15005529 0.069301695
000060 d1 1e 15 be 76 65 9f 3e 2c dd 34 3e 67 af 90 3c
       -0.14562537 0.31132096 0.17662495 0.017661763
000070 d1 fd a8 bd 0d 09 9a be 2d 00 83 3e f9 e4 dc bd
       -0.08251537 -0.3008503 0.25586072 -0.107858606
000080 e5 1e 5c be d8 41 71 3e a6 6e 02 3e 8b e0 d5 3d
       -0.2149616 0.23560274 0.12737522 0.10443219
000090 ce 9a 96 bd b0 bd d0 bd 26 a4 8c 3d 2c dc 8b 3e
       -0.073537454 -0.1019243 0.06867246 0.27316415
0000a0 05 87 1d 3d 68 48 21 be fc b1 b0 3e ca 90 aa 3c
       0.038458843 -0.15750277 0.3451079 0.020820994
0000b0 23 28 91 3e a1 2e a7 3d ce eb a4 3e c8 ec 5d 3e
       0.28350934 0.08163191 0.32211155 0.21672356
0000c0 32 49 2b be 32 78 76 3e d4 52 56 3b 50 eb 9c be
       -0.1672714 0.24069288 0.0032703178 -0.3064828
0000d0 b5 fe 9f bd 40 66 a4 be 71 66 43 be 4c 79 82 be
       -0.078122534 -0.3210926 -0.19082047 -0.25483167
0000e0 11 d2 7e 3e 79 ee bd bd 52 84 8f bd 12 2a 1d 3e
       0.24884821 -0.09274001 -0.0700766 0.1534808
0000f0 85 bc 09 3e bb 6c 7a be 16 c5 ed 3d e3 ae 09 3e
       0.1345082 -0.2445554 0.11609857 0.1344562
000100 78 f9 8f be 41 10 9d 3e 5e 5d 59 be 5c 8d 09 be
       -0.28120017 0.30676463 -0.21227023 -0.1343283
000110 ac 31 97 be 04 55 a8 3e c6 e7 9e 3d 90 02 96 3e
       -0.29530084 0.32877362 0.07759051 0.2929883
000120 b6 44 ca 3c 4c 53 4c 3e 99 8a e2 bd da fa 94 be
       0.024690967 0.1995365 -0.11061592 -0.29097635
000130 7c b0 61 3d b9 1c c9 bc e5 39 ee bc 04 1d 1e be
       0.05509995 -0.024549829 -0.02908034 -0.15440756
000140 8c 11 4e 3c ab 2e d7 3d dc 70 f9 3d c7 8c 8c be
       0.012577426 0.10506948 0.12179729 -0.27451155
000150 6a 01 2e 3e 4e 0b 15 3d 39 ba 82 3e c6 6b 84 3e
       0.16992727 0.036387734 0.25532702 0.25863475
000160 22 78 8b be a0 65 ad 3e 9b 92 b5 be 71 ef 49 3e
       -0.27240092 0.33866596 -0.35463414 0.19720246
000170 a0 6e 31 3c 2f 19 35 3e 64 c4 35 be 17 d5 51 3e
       0.010829598 0.17685388 -0.17750698 0.20491444
000180 73 38 3a be 88 04 9d be 5a dc dc 3d 6c 33 46 3e
       -0.18185596 -0.3066752 0.10784216 0.19355553
000190 8a f9 b1 3e 73 fc 1c bd 18 06 b0 3e a2 d0 6f 3e
       0.34760696 -0.03832669 0.3437965 0.23419431
0001a0 3e 3a 2c be e1 83 85 be dc b3 4e 3e d0 66 51 be
       -0.16819093 -0.26077178 0.20185798 -0.20449376
0001b0 b2 08 26 3e 90 af 9b be 2c 13 85 3e 1e a0 01 3e
       0.16214254 -0.3040738 0.2599119 0.12658736
0001c0 cc 44 7d bd 2c 7a 43 3e 22 6b 82 be 3c ad 41 bd
       -0.061833188 0.19089574 -0.2547236 -0.04728435
0001d0 07 73 93 39 14 de 42 be 0a 7e a0 bd b7 7c 0a be
       0.00028123727 -0.19030029 -0.0783654 -0.13524137
0001e0 20 79 a7 3e b6 41 9b 3e 5d a1 9e 3e 02 3e 94 3e
       0.327096 0.3032357 0.30982485 0.28953558
0001f0 38 4d b0 be b4 4d 01 3e 74 a0 03 3e 8e 3e 85 be
       -0.34433913 0.12627298 0.12854177 -0.26024288

gcpn_2.T2T.bias f4 [16]
000000 e2 61 0e 3e d5 24 44 be f0 e4 64 3d 57 55 ec 3d
       0.13904527 -0.19154675 0.055882394 0.11539715
000010 f9 d7 9d 3e 33 af 3e be cb 03 8e be cb ec a8 3e
       0.30828837 -0.1862152 -0.2773727 0.3299316
000020 3e dd 19 3e 41 c8 2f 3e 58 53 02 3e 1b 24 ff bd
       0.15025803 0.17166235 0.12727106 -0.124580584
000030 25 9b 55 3e 48 dd 9d be 0d a0 4a 3d ce d5 22 3e
       0.20859964 -0.30832887 0.049469043 0.15901873

gcpn_2.T2T.batch_norm.weight f4 [16]
000000 33 40 7d 3f 1b 8b 81 3f 93 24 81 3f 02 c9 7a 3f
       0.98926085 1.0120577 1.0089287 0.97962964
000010 35 0f 81 3f ea 93 7d 3f 47 fd 80 3f 68 9e 81 3f
       1.0082766 0.99053824 1.0077294 1.0126467
000020 2b 26 81 3f 70 77 7d 3f ac 3a 80 3f 84 06 80 3f
       1.0089773 0.9901037 1.0017905 1.0001988
000030 e4 9c 7d 3f 1f 87 7d 3f fb 40 7e 3f f6 05 7e 3f
       0.9906752 0.99034303 0.993179 0.99227846

gcpn_2.T2T.batch_norm.bias f4 [16]
000000 78 cb 0a 3c b8 0e 73 3c d7 b5 65 3b 3a d9 7c bc
       0.008471362 0.014835052 0.0035051012 -0.01543265
000010 ca 2d 0a bc ca 37 f7 bb 9b 61 83 3c 23 5c 90 3c
       -0.0084337685 -0.0075444924 0.016037753 0.01762206
000020 de 08 7e 3c 09 ed 63 bc b0 36 21 bb d6 f1 b8 ba
       0.015505044 -0.013911494 -0.0024599247 -0.0014110159
000030 df fa 60 bc 9c 0f 25 bc cd d7 29 bc 46 1e 51 3b
       -0.013731687 -0.010074522 -0.010366392 0.0031908914

gcpn_2.T2T.batch_norm.running_mean f4 [16]
000000 4d d3 07 41 77 6f fb c0 e0 b3 cb bf 35 50 16 3f
       8.489087 -7.8573565 -1.5914268 0.58716136
000010 74 4c 57 40 8f a9 4f 41 e6 ce 40 c1 de b1 69 40
       3.3640413 12.978896 -12.050512 3.6514812
000020 28 df 87 3f bf 5a 22 c0 eb 7e 08 41 f3 00 36 bf
       1.0614977 -2.5367887 8.530986 -0.710952
000030 40 cb e4 40 36 25 05 c0 82 2f df c0 2e 69 1f 41
       7.149811 -2.0803962 -6.9745493 9.963179

gcpn_2.T2T.batch_norm.running_var f4 [16]
000000 b7 93 a1 41 ea 90 24 42 42 f1 6b 42 aa 51 1b 42
       20.197126 41.141518 58.985603 38.82975
000010 89 bd 82 42 69 4a 8f 42 95 16 a8 42 8e 90 7a 41
       65.370186 71.64533 84.044106 15.660292
000020 80 ca d2 42 d5 37 08 41 c8 7e 85 41 84 49 09 43
       105.39551 8.513631 16.686905 137.28717
000030 69 d8 09 42 bd 65 28 42 b1 5c a6 42 a8 d6 59 43
       34.461338 42.099354 83.18104 217.8385

gcpn_2.P2T.weight f4 [16, 16]
000000 bc e7 34 3e 0a 65 06 be ca 23 2f be 82 2e b1 3d
       0.17666525 -0.13124481 -0.17103496 0.08651449
000010 65 b4 58 be 9c 66 59 be 1a 54 56 be 3e 8b de bd
       -0.21162565 -0.21230549 -0.2093052 -0.10866402
000020 bb ac 5e bd 33 ca 0e be 0c 16 db bd 61 78 7a be
       -0.054363947 -0.1394432 -0.106975645 -0.24459983
000030 93 e8 1f 3e a9 cc 84 bd c8 63 1a be f7 2b aa 3d
       0.15616064 -0.06484348 -0.15077126 0.08309167
000040 ea 5e 3e be c9 34 31 3e 6c 83 0d 3e 01 14 76 be
       -0.18590894 0.17305292 0.13819665 -0.24031068
000050 6f 67 4c be 50 56 27 be 34 b3 11 be dd f0 2d 3d
       -0.19961332 -0.1634152 -0.14228517 0.042466033
000060 fe 1c 81 be 99 82 44 be c6 7b ef 3d bd 2f 99 bd
       -0.25217432 -0.19190444 0.1169353 -0.074798085
000070 1d a7 d8 bd 82 cf 4b be 92 b8 c3 3d 99 7e 28 3c
       -0.10578749 -0.19903377 0.09556688 0.0102840895
000080 29 77 b7 bd e3 ec 17 be ee c5 49 3d ea c3 96 3d
       -0.08958275 -0.14836459 0.049261026 0.073615864
000090 ea a6 dd 3d 45 3b 97 3d 9b 00 1a bd 9b 5f 44 be
       0.10822852 0.07384352 -0.037598234 -0.19177096
0000a0 2c e3 26 3e c2 5a f3 bb 0d ad 28 be ac b2 61 3e
       0.16297597 -0.0074265907 -0.16472264 0.22040814
0000b0 f8 24 06 3e 78 49 41 be 2f 32 07 be f0 20 c5 bd
       0.1310004 -0.18875682 -0.13202737 -0.09625423
0000c0 3f 3b 05 be 75 19 ef 3d 08 64 42 be 20 83 70 3e
       -0.13010882 0.116747774 -0.18983471 0.2348752
0000d0 b9 8c d8 bd 69 b8 09 3e fa 71 87 bb f5 12 dc bd
       -0.10573716 0.13449253 -0.00413346 -0.10745803
0000e0 e5 6b 31 3e 55 fc 40 be 1c 2c 07 be ba fd 1e 3d
       0.17326315 -0.18846257 -0.1320042 0.03881619
0000f0 f8 6f 34 3e 53 70 c8 bd 32 7e 24 be 14 86 39 be
       0.17620838 -0.09787049 -0.16063765 -0.18117553
000100 91 90 e7 bd d4 5b b0 bd 0b db 77 bd 04 de 13 be
       -0.11306871 -0.08611265 -0.06051163 -0.14440161
000110 e5 19 95 3d fe 51 b0 bb f0 7b 27 be dd 07 0c be
       0.072803296 -0.005380868 -0.16355872 -0.13674875
000120 79 5f 50 3d 6b 7f c1 ba 32 3f 39 3e 53 6e 21 bd
       0.0508723 -0.0014762705 0.18090513 -0.039411854
000130 3d a9 4c be 2a e9 46 be 12 fa 7c bd a1 5d 53 bd
       -0.19986434 -0.19424883 -0.061761923 -0.051602963
000140 0a 87 2b 3d 03 0d 4a bd 30 e6 b8 3d e7 80 9b bd
       0.04187683 -0.049328815 0.0902828 -0.075929455
000150 42 77 40 3e 94 b5 9a 3d 8e bf 80 bd df 5c 5a 3e
       0.18795493 0.075541645 -0.06286536 0.2132449
000160 5c f2 a7 3d fe b9 1e be 07 e8 0e be 5a e6 10 3e
       0.08200523 -0.15500638 -0.13955699 0.14150372
000170 f7 c0 fb 3d 91 af 4e 3e 61 5e bf bc 8e 49 3c 3e
       0.122926645 0.20184161 -0.023360433 0.18387434
000180 99 a2 e7 3d a1 09 ab 3d 04 1b 55 bd f3 54 80 3e
       0.1131031 0.08351446 -0.052027717 0.2506481
000190 36 29 6d 3d a1 75 94 bd 3c ad a7 bc a8 df 7c 3e
       0.05790063 -0.072489984 -0.020468347 0.24694693
0001a0 67 a4 27 3e 14 eb 03 bd 7c cb 7f 3e bf ed f9 3d
       0.16371308 -0.03220661 0.24979967 0.122035496
0001b0 20 41 06 be 5b e1 6d be 81 71 0d 3e 56 5f 6c 3e
       -0.1311078 -0.23230498 0.1381283 0.23083243
0001c0 92 9d 13 be b6 87 cb 3d 75 33 16 3b d2 00 84 bd
       -0.14415577 0.09937994 0.0022918854 -0.06445469
0001d0 74 a1 84 bd f3 0c 6d 3d dd 84 69 3d 6d fb 23 3e
       -0.06476107 0.057873677 0.057011474 0.1601388
0001e0 7c 99 c5 3d d2 c6 01 3e 78 ba 50 3e e7 36 a6 3d
       0.096484154 0.126735 0.20383632 0.081159405
0001f0 db 9a 1e 3d 90 30 b9 bd bd d8 44 3e 72 08 16 3d
       0.0387219 -0.09042466 0.19223304 0.036629148
000200 89 0b 24 3e 49 fc 83 3e 91 9d 4c bd 30 81 36 3e
       0.16020025 0.25778416 -0.049954955 0.17822719
000210 2c dd 15 bd 9c d4 67 3e f6 11 44 3e b7 f2 bc bd
       -0.03658788 0.22639698 0.19147477 -0.09225982
000220 10 32 0d 3b ce 86 d3 bd ef 2e d1 bd be d0 82 bd
       0.0021544732 -0.10328446 -0.1021403 -0.06387471
000230 df c0 00 3c 8f ed a7 bd 0e 34 78 be 9d 38 12 be
       0.007858484 -0.081996076 -0.24238607 -0.14279409
000240 49 19 97 bc 74 5b 9d bd 1e 1a 43 3e 23 f2 4b 3e
       -0.018444674 -0.07683459 0.19052932 0.19916587
000250 e6 67 25 3e 3a 62 dd 3d 3c d2 43 be 5f e6 6c 3e
       0.16152915 0.10809751 -0.19123167 0.23134755
000260 4c 69 68 be 80 3b 96 bd 11 c8 2d be 8c 9a a9 3d
       -0.22696418 -0.073355675 -0.1697085 0.082814306
000270 d1 01 52 be 13 ac 0d be 9e e0 25 be b4 dd 18 be
       -0.20508505 -0.13835172 -0.16198966 -0.14928323
000280 0d 23 eb bd 43 07 7e 3e fb 3a a2 bc d3 f3 98 3d
       -0.11481295 0.24807458 -0.019803515 0.07468381
000290 93 bf 7a be 7f 1b 6c 3e b7 ee 4f bd 06 76 6f be
       -0.24487142 0.23057364 -0.050764766 -0.23384866
0002a0 a1 53 32 3e a4 7d 84 bd 55 8e 67 3e 4c cc 36 be
       0.17414714 -0.064692765 0.22612889 -0.1785137
0002b0 16 af 68 be 10 e7 3d be d3 48 d7 3d c8 a9 c3 bc
       -0.2272304 -0.18545175 0.10511937 -0.023884669
0002c0 a3 c6 5d be 97 78 64 3d 47 2d 71 bc 9a 19 cd 3d
       -0.21657805 0.055779066 -0.014720268 0.10014649
0002d0 20 1c 11 be cb 9a 29 be 72 ba 39 3e c7 16 f3 bd
       -0.14170885 -0.16562955 0.1813753 -0.11869579
0002e0 67 b7 33 3e c5 de 60 3e 8a 46 3e be b0 1d 07 be
       0.17550431 0.2195998 -0.18581596 -0.13194919
0002f0 a3 b3 17 3d f5 a6 6b be be 21 7b 3d 05 14 d0 bd
       0.03703655 -0.23012908 0.061311476 -0.101600684
000300 1e 6e f5 bd df 35 3b be fb 06 eb 3d 6c cd 1a be
       -0.11983894 -0.18282269 0.11475941 -0.15117425
000310 cf f6 40 be 0a ac 84 bd d9 53 18 be fa 60 80 be
       -0.1884415 -0.06478126 -0.14875735 -0.25073987
000320 39 f5 d1 3d c6 8d cb bd 86 a4 34 3e 63 13 31 3e
       0.10251851 -0.099391505 0.17640886 0.17292552
000330 c1 15 1c be 29 7b 18 be 91 16 ca bd d9 fc 0b 3e
       -0.15242673 -0.14890732 -0.098675855 0.13670672
000340 e8 b9 5f bb f0 44 ac bd ff e1 21 3e 61 c3 80 3e
       -0.0034137908 -0.08411586 0.15808867 0.25149062
000350 cd 36 44 3e 1a 7d 2d be 1d 51 4e bd 44 87 3f bd
       0.1916153 -0.16942254 -0.050370324 -0.04675986
000360 94 6d 5f 3e 7c fe 05 be 5e ae 03 be 92 6d c7 b9
       0.21819144 -0.1308536 -0.12859485 -0.00038037874
000370 ec 41 51 bd 44 04 db 3d 34 4b 88 3c 32 e4 22 be
       -0.05108826 0.10694173 0.016637422 -0.15907362
000380 99 7e 38 3e 62 1d 24 3e 3f 70 73 3d f8 e1 64 be
       0.18017043 0.16026834 0.059433218 -0.22351825
000390 9a f1 ef 3d 54 c4 3d 3e 58 b5 a3 3d d9 e1 b7 bd
       0.11716004 0.18531924 0.07993573 -0.08978624
0003a0 df 33 19 3c cc d9 ba bd d2 0d 73 3e c6 2d 62 3e
       0.009350746 -0.09123573 0.23735741 0.22087774
0003b0 c9 0a 70 bc 77 83 34 be d3 b3 13 3e 40 07 14 3e
       -0.014651009 -0.17628275 0.14424066 0.1445589
0003c0 c5 3d fc 3d b3 e3 42 be 18 b4 b9 3d 46 9a d3 bd
       0.12316469 -0.19032173 0.09067553 -0.1033216
0003d0 59 ec 68 be 14 21 2f be 90 36 ca 3d d6 68 de 3d
       -0.2274641 -0.17102462 0.09873688 0.108598396
0003e0 17 98 70 be c5 52 01 3e aa dd 56 3e 1d 63 45 3e
       -0.23495518 0.1262923 0.20982996 0.1927609
0003f0 25 4e 0f 3e a3 ec 15 bd 51 1e 29 3e d5 a2 51 3e
       0.13994654 -0.036602627 0.16515471 0.20472272

gcpn_2.P2T.bias f4 [16]
000000 47 02 07 3e a7 dd 35 be 35 ef b3 bd 97 82 46 3e
       0.13184462 -0.17760335 -0.087858595 0.19385754
000010 93 24 41 3e 40 a8 25 3e 64 8a d9 bd 28 7d 46 bd
       0.18861608 0.16177464 -0.10622099 -0.048459202
000020 5b 0e 3e be a2 06 17 be 09 5f 46 3e 65 c5 52 be
       -0.18560164 -0.14748624 0.1937219 -0.20583113
000030 42 8f 73 bd e8 21 44 3d cf 39 1d be f5 8b 7d 3d
       -0.059462793 0.047883898 -0.15354083 0.06190105

gcpn_2.P2T.batch_norm.weight f4 [16]
000000 2f 09 81 3f f2 36 80 3f b9 a0 7e 3f f2 af 80 3f
       1.0080928 1.0016768 0.99463993 1.0053694
000010 e6 fa 80 3f 15 ca 81 3f 01 8c 7e 3f 43 a5 7d 3f
       1.0076568 1.0139796 0.9943238 0.99080294
000020 7b 4b 7c 3f 40 f5 7c 3f 81 19 80 3f 00 40 80 3f
       0.98552674 0.9881172 1.0007783 1.0019531
000030 9d 37 7f 3f e0 46 83 3f cd 35 7e 3f a8 66 80 3f
       0.99694234 1.0256004 0.99300843 1.0031328

gcpn_2.P2T.batch_norm.bias f4 [16]
000000 1b 85 ce 3b d9 ef 54 b9 b2 f7 84 3a b6 ee 93 b7
       0.0063024885 -0.00020307246 0.001014462 -1.7634924e-05
000010 ee 08 80 3b 5f 2f 10 3c 64 87 d8 bb 66 ee 2b 3c
       0.0039073145 0.008800357 -0.0066079367 0.01049385
000020 56 33 92 bb 42 b3 50 bc 12 a5 a5 3b 3b 83 5d bc
       -0.004461686 -0.012738051 0.0050550783 -0.013520057
000030 f0 cb 3a bb 4b e7 f3 3b 48 52 bb bb 07 3a a5 bb
       -0.0028502904 0.0074433438 -0.005716596 -0.005042318

gcpn_2.P2T.batch_norm.running_mean f4 [16]
000000 8f 95 3d bf ba 1f a0 bf e6 27 39 bf ed b4 7e bf
       -0.74056333 -1.2509682 -0.72326505 -0.9949482
000010 d6 e3 d3 be dd 0e f1 3d 74 86 cd 3e 89 1f 69 3f
       -0.41384763 0.11770413 0.40141642 0.91063744
000020 1d 54 42 bf c7 f7 dc bf cb 60 a7 3e 29 2e 29 3e
       -0.75909597 -1.7263116 0.32691035 0.16521515
000030 dc eb f7 be 0b bc 66 bf 6d ae 40 3f 7a f7 bc 3f
       -0.48422134 -0.9013068 0.7526615 1.4763024

gcpn_2.P2T.batch_norm.running_var f4 [16]
000000 a6 e8 1c 3f e4 9f 63 40 10 d3 8d 3f 7b 1c a0 3f
       0.61292493 3.556634 1.1080036 1.2508692
000010 6c b1 b0 3e fa 2d 51 3f cf 99 4e 3f ca d1 56 3f
       0.34510362 0.8171078 0.80703443 0.8391386
000020 3a 61 0a 40 65 58 27 40 77 58 40 3f 1b 8c 1e 40
       2.1621842 2.6147702 0.75134987 2.4773014
000030 c6 ab 4b 3f 74 b7 91 3f 5c 58 4b 3f f8 1d 01 40
       0.7955898 1.138411 0.794317 2.0174541

gcpn_2.T2P.weight f4 [16, 16]
000000 af fb 3b bd f4 e3 d4 3d ed 76 34 be 64 92 34 3d
       -0.04589432 0.10395041 -0.17623492 0.04408492
000010 f4 22 65 be 93 10 24 3e 54 02 7e 3e 89 b5 ab bd
       -0.22376615 0.16021948 0.24805576 -0.083842345
000020 11 4d 15 3d 5a d9 fc bd 29 0f 2a be a4 31 07 be
       0.03645045 -0.12346144 -0.16607346 -0.1320253
000030 40 78 e4 bd 4a 51 69 3d fa 0e d2 bc 3e b9 55 3c
       -0.11155748 0.05696229 -0.025641907 0.013044653
000040 6c 25 3d be 14 d5 23 be 01 8a 5b be 56 b7 36 be
       -0.18471307 -0.15999252 -0.21439363 -0.17843375
000050 db 6d 58 3e 5b 85 af 3d 37 fd 7a be 24 9d 3c bd
       0.21135657 0.085703574 -0.24510656 -0.0460483
000060 43 87 e5 3c 2b f4 03 3e 99 17 6f 3e c0 f6 88 3d
       0.0280186 0.12886111 0.23348846 0.06687689
000070 94 40 2f 3e 8e 8d b7 bd c1 2c 0f bc cd 35 1a be
       0.17114478 -0.08962546 -0.0087386975 -0.15059586
000080 f0 34 81 3d 13 6d 73 3e 97 cf 2c 3e bb 2d 82 3e
       0.06308925 0.23772077 0.16876064 0.25425515
000090 51 d9 f0 bd df 66 e1 bc 79 e8 63 3d 98 84 4c 3e
       -0.117602 -0.027514873 0.055641625 0.19972456
0000a0 e7 4c 63 be 98 ff ea bd 2f 4d ff 3c 22 a7 0d be
       -0.22197305 -0.11474532 0.031164734 -0.13833287
0000b0 a3 9e b9 3d 5e 17 4c bc 1a df 86 bd e9 56 09 3e
       0.09063461 -0.012456743 -0.06585522 0.1341206
0000c0 5f b6 3b 3e f6 1a 81 3e 79 3c f7 3d 23 09 92 bb
       0.18331288 0.25215882 0.12072081 -0.0044566556
0000d0 a6 06 4b 3e 5b f9 50 3e 01 25 fa bd b1 00 e1 3d
       0.19826755 0.20407622 -0.12214089 0.1098646
0000e0 3a 84 d3 3c 07 30 c8 bd 07 63 95 bd 57 7c 82 bd
       0.025819886 -0.097747855 -0.072942786 -0.06371372
0000f0 eb 69 32 be 5c c3 95 bd 77 a4 95 3d ab ac 34 3e
       -0.17423217 -0.073126525 0.0730676 0.17643993
000100 48 af ed 3c a3 57 7d be 43 97 0f 3e 80 96 92 bd
       0.029014245 -0.24740462 0.14022546 -0.07157612
000110 51 a0 69 3e 80 17 70 be ec fb 84 bd 75 f4 45 3e
       0.22815062 -0.23446465 -0.06493363 0.19331534
000120 6a d5 e8 3d ec 27 eb bd 89 e8 58 be 6b 21 9f 3b
       0.113688305 -0.11482224 -0.21182455 0.0048562787
000130 0d 34 c2 3d 28 51 53 be 74 bf 59 be 6d c4 b5 3b
       0.09482584 -0.20636427 -0.2126444 0.0055470974
000140 13 93 13 bd 7d 26 34 3e a4 26 69 be 7e d8 0c bd
       -0.036028933 0.17592807 -0.22768646 -0.03438615
000150 6f dc 45 be ec cb a4 bc dc 80 e8 bd 0f b9 bb 3d
       -0.1932237 -0.020116769 -0.11352703 0.091661565
000160 68 dc 59 be 19 22 3b be a4 ca 05 be 94 c3 56 be
       -0.21275485 -0.18274726 -0.13065583 -0.20973045
000170 fd a3 2e 3e 4c 3f 85 bc e9 c6 02 be 9f c0 42 3e
       0.17054744 -0.016265534 -0.1277119 0.19018792
000180 f5 88 42 bd 2c dc e4 3d 3d 45 b5 bd 89 ee 59 be
       -0.047493894 0.11174807 -0.08851097 -0.212824
000190 9b 68 54 3d cc 31 20 3e 67 42 82 be 53 0b 19 3d
       0.051857572 0.15643996 -0.25441286 0.037364315
0001a0 49 05 7f 3d 4d 67 87 3c c9 98 38 3b 09 01 95 bd
       0.0622609 0.01652875 0.002816724 -0.07275588
0001b0 63 f1 47 be d6 2c b8 3c 1f e8 2b be 73 e0 4b be
       -0.19525675 0.022482317 -0.16787766 -0.1990984
0001c0 35 0b ab bd c8 55 37 be 5c 80 c9 3d 92 98 39 3e
       -0.08351747 -0.17903817 0.09838936 0.18124607
0001d0 c6 9e 3d 3e f3 5f 1f be 47 29 02 3e 4b c7 2a 3e
       0.18517599 -0.15563945 0.12711059 0.16677587
0001e0 5d b8 bb 3b 10 40 f6 3d 81 bf 0c 3e a0 0d 3f 3e
       0.005728765 0.12023938 0.13744928 0.18657541
0001f0 40 4f e5 3d 93 aa f8 3d f4 31 dc bd e4 5f 14 be
       0.11196756 0.121419095 -0.10751715 -0.14489704
000200 22 26 de bd 70 0b 61 3e 69 70 44 bd df 61 ad 3c
       -0.10847117 0.2197702 -0.047958765 0.021164833
000210 88 94 6b be 18 89 4d bc 7e 1c 65 bd 59 75 1d be
       -0.23005879 -0.012544893 -0.055935375 -0.15376796
000220 9e e8 52 3e bc 71 3c be 52 71 11 bd f3 35 6c bc
       0.20596549 -0.18402761 -0.03550846 -0.014417159
000230 b6 9f 61 be f1 73 30 3e fa 5d a2 bd 43 63 e4 3d
       -0.22033581 0.17231728 -0.07928081 0.11151745
000240 15 ef 09 3e 81 a3 63 3e 07 55 6b 3d ad d8 4b 3e
       0.13470109 0.2223034 0.057454135 0.19906874
000250 f6 17 6e 3e 4e e8 41 3d 19 0b 4c bd c4 e4 86 bd
       0.23251328 0.047340684 -0.04981527 -0.06586602
000260 ed bd 42 3d 37 01 b0 3d 36 5c 69 be 39 a5 35 3e
       0.04754441 0.08593982 -0.22789082 0.17738809
000270 26 36 17 3d 09 b9 76 be f2 a6 b5 3d de 31 24 3e
       0.036916874 -0.24094023 0.08869733 0.16034648
000280 bb ec aa 3d 0b 48 58 3e f5 a1 30 3c 15 cc 45 be
       0.08345934 0.21121232 0.010780801 -0.19316132
000290 57 56 09 3b ec 50 4a 3e f6 2f e2 bd 81 44 e7 3d
       0.0020956004 0.19757432 -0.11044304 0.11292363
0002a0 26 6f 6c 3d ef f9 09 bd 5e 2b b0 bb 2c fe d1 3d
       0.057723187 -0.03368562 -0.0053762635 0.102535576
0002b0 4c cb 2e be 5b 90 29 3e 57 8f 30 3e be 31 0d 3e
       -0.17069739 0.16558973 0.1724218 0.13788506
0002c0 8e d1 82 3e ee ec 7a bc 8f cf 40 be 2b 22 0c 3b
       0.25550503 -0.0153152775 -0.18829177 0.002138267
0002d0 ba 01 a4 bd 63 f1 81 3d 88 61 55 3e 76 42 0e be
       -0.08008142 0.06344869 0.20837986 -0.1389254
0002e0 3e cd 55 3c 62 fe 78 3e 85 0a 55 be 00 16 12 bd
       0.013049422 0.2431579 -0.20804794 -0.035665512
0002f0 7f b1 73 3e 17 d3 2c 3e 75 90 7d 3d 32 9d d9 bd
       0.23798178 0.168774 0.061905343 -0.10625686
000300 45 26 c1 bc fc 74 5d be 7a b7 66 be 5d 7e 6c be
       -0.023577819 -0.21626657 -0.22530928 -0.23095079
000310 69 09 79 3e d1 d3 59 3e e6 8e e4 3d a0 bb 4b bd
       0.24319996 0.21272208 0.11160068 -0.04973948
000320 cb 6e 62 3e 06 bc 82 bd 88 a5 38 3e 3e 24 fe bb
       0.22112577 -0.06383519 0.18031895 -0.0077557852
000330 5b ad df bd b5 56 74 bd f1 20 13 bd ce f2 63 be
       -0.10921737 -0.059653003 -0.035920087 -0.22260591
000340 9d ee aa 3d 43 d0 a0 bd 50 70 e3 3d cd f6 1f 3e
       0.08346293 -0.07852223 0.11105406 0.15621491
000350 a0 c2 13 bd 19 b6 fa 3d d5 61 40 3d cb 94 2e 3e
       -0.03607428 0.122417636 0.0469683 0.17048948
000360 40 02 27 be b0 12 d1 bc 26 29 a7 bd e9 4c 67 3e
       -0.16309452 -0.025521606 -0.08162145 0.22587933
000370 1c 7d 61 be a2 6d 14 be 4f c5 eb 3c cc 14 5e 3e
       -0.22020382 -0.14494947 0.028780608 0.21687621
000380 9c 20 2d 3e c6 2a 6a be 66 64 34 be f7 40 74 3e
       0.1690697 -0.2286788 -0.17616424 0.23852907
000390 d3 6c 57 3d 85 63 65 be cf a3 a2 bd 7b df ce 3d
       0.052594017 -0.22401245 -0.079414 0.10101219
0003a0 46 96 63 bd cb 23 50 be da d9 17 be 22 68 ef bd
       -0.055563234 -0.20326154 -0.14829198 -0.11689784
0003b0 1f ab 81 bc 56 ca cc 3d c2 9c f1 3d 6b a3 f0 bd
       -0.015828667 0.0999953 0.11797477 -0.117499195
0003c0 b3 c2 0d bd 98 b8 48 be ea 07 42 3e 83 fb 80 3e
       -0.034609508 -0.19601667 0.18948331 0.25191888
0003d0 a6 ec 72 3e 38 0c c8 3d d6 d3 61 bd b4 7e 09 bc
       0.23723087 0.097679555 -0.055133663 -0.008392025
0003e0 24 63 b3 3d 5c e0 51 be ea 09 0d 3c 85 70 54 be
       0.08759144 -0.20495743 0.008608321 -0.20746048
0003f0 6e f4 81 be ac 94 c4 ba 5f f4 b3 bd f9 53 27 be
       -0.25381798 -0.0014997921 -0.087868445 -0.16340627

gcpn_2.T2P.bias f4 [16]
000000 02 ea 2a 3d fc e9 2a 3c fa 4c 19 3d fb a5 0f be
       0.041727073 0.010431763 0.037426926 -0.1402816
000010 e5 89 7a be 20 e5 ae 3b 51 c5 d1 bd a9 ff ab bd
       -0.24466665 0.0053373724 -0.10242713 -0.08398373
000020 da 6a 3b 3e f8 7c 27 3d 6e a0 e9 3d 4c c7 8f bd
       0.1830248 0.040890664 0.11407553 -0.07020435
000030 ac 27 4c be e8 2a 49 3d 38 35 29 be ba ec fb 3c
       -0.19937009 0.049113184 -0.16524208 0.030752528

gcpn_2.T2P.batch_norm.weight f4 [16]
000000 3e 7f 7e 3f 90 f9 80 3f 9f 07 80 3f 1e 63 80 3f
       0.99412906 1.007616 1.0002326 1.0030248
000010 4d 41 80 3f 3b 16 81 3f e8 93 81 3f 00 8d 80 3f
       1.0019928 1.0084909 1.0123262 1.004303
000020 b5 7e 80 3f 0d 19 7d 3f db 73 80 3f db 67 7f 3f
       1.0038668 0.9886635 1.0035356 0.99767846
000030 72 19 80 3f 5f 08 7d 3f 0f 4a 80 3f d6 d3 7f 3f
       1.0007765 0.988409 1.0022601 0.9993261

gcpn_2.T2P.batch_norm.bias f4 [16]
000000 a8 d5 86 bb e0 89 7a 3b 9e 37 31 3c c8 cc ae 3c
       -0.0041148253 0.0038229153 0.010816483 0.021337882
000010 b4 95 cc 3c e3 a1 93 b8 a5 ba 23 3c 6c 80 b0 3b
       0.024973728 -7.03966e-05 0.00999323 0.005386403
000020 67 08 91 3c ce 81 b2 bb b2 8f 0b 3c 29 bd d7 bb
       0.017704202 -0.005447603 0.008518146 -0.006583829
000030 80 ff 53 3b f1 ec 9d bb cc 32 05 bc 58 b3 80 3b
       0.0032348335 -0.0048195054 -0.008129787 0.0039276294

gcpn_2.T2P.batch_norm.running_mean f4 [16]
000000 32 26 12 bf 1a c1 8d be a9 df 04 3f 42 5f 35 3f
       -0.5708953 -0.27686387 0.5190378 0.70848477
000010 25 68 29 bf 5a 7b 93 bf db d2 61 bf c1 0e 64 3f
       -0.66174537 -1.1522019 -0.88212365 0.8908501
000020 24 c8 4e be 2d e3 6c 3f 48 45 7f 3f 84 75 75 3e
       -0.20193535 0.9253414 0.9971509 0.2397061
000030 d9 de 9a be e9 9b 02 3f 9c 48 44 bf 55 08 2e be
       -0.30248144 0.5101915 -0.76673293 -0.16995366

gcpn_2.T2P.batch_norm.running_var f4 [16]
000000 10 80 f8 41 fc 00 a5 41 40 24 16 42 b5 45 43 42
       31.06253 20.62548 37.5354 48.818073
000010 64 f5 e4 41 62 7f 78 42 c6 f4 26 42 30 1f 44 42
       28.61982 62.124397 41.739037 49.030457
000020 59 c1 d5 41 2f c8 3d 42 1c 5d 61 42 66 1d 21 42
       26.719408 47.44549 56.340927 40.27871
000030 f6 45 b1 41 8c f5 fe 41 18 8e 16 42 e4 05 ea 41
       22.15916 31.869896 37.638763 29.252876

gcpn_3.P2P.weight f4 [64, 16]
000000 b4 92 4b be 25 3d 41 3e 95 06 29 be 56 6f 62 3e
       -0.19880182 0.18870981 -0.16506417 0.22112784
000010 fc 3d 30 3e 7d b0 4b 3e f1 e0 11 3e 17 ec 7f 3d
       0.17211145 0.19891544 0.14245965 0.062481012
000020 a0 bf 86 bc d2 f7 20 ba 7f d0 c2 bd 14 6c 64 be
       -0.016448796 -0.0006140444 -0.09512424 -0.22306854
000030 62 73 70 3e 03 21 4d 3c d3 2e f6 3d a4 1c 88 3c
       0.23481515 0.012520078 0.1202065 0.01661522
000040 f9 b9 9a 3d 3e d6 25 be 00 69 43 be 5e 5a 44 3e
       0.07555003 -0.16195008 -0.19083023 0.19175097
000050 9d b6 c1 3d e8 c0 fd 3d ca d4 7d be e1 e5 99 3c
       0.09458659 0.123903096 -0.24788204 0.018786373
000060 c8 7d 6d be 16 05 cf bc 45 cc 92 bc 8d 79 29 be
       -0.23192513 -0.02527098 -0.017919669 -0.16550274
000070 46 2f 83 be 11 83 ad 3b 67 e1 66 3e 56 b0 62 3e
       -0.25622004 0.0052951653 0.22546922 0.2213758
000080 39 5e 15 be 23 35 27 bd 67 c9 51 be 4c 68 39 be
       -0.14586724 -0.04082216 -0.20486985 -0.18106192
000090 30 44 98 bd f5 d4 80 3e 73 40 3a bd 6b 29 9b 3c
       -0.07434881 0.25162473 -0.04547162 0.018940648
0000a0 ee 27 73 3e c2 67 67 3d 24 d9 5b 3e 25 f4 20 3e
       0.237457 0.056495436 0.21469551 0.15718134
0000b0 1d 32 7b 3e 4d 16 5b 3d 91 8e 4b be b4 4d 4f be
       0.24530835 0.053488065 -0.19878604 -0.20244485
0000c0 14 5c 0e be 3a 38 60 3e d0 96 02 3e 99 47 76 3d
       -0.13902313 0.21896449 0.12752843 0.060126875
0000d0 6a b1 30 be 3a a3 33 be 3c 36 55 3e 15 ae 0e bd
       -0.17255178 -0.17542735 0.2082147 -0.034833986
0000e0 75 70 83 be 46 e8 01 bd 15 c2 93 bd 57 65 1e bc
       -0.25671735 -0.031715654 -0.072147526 -0.009667716
0000f0 7a 34 ff 3d c2 d0 ad 3d 90 79 4a be e1 fb 54 3c
       0.12461181 0.08487083 -0.19772935 0.012999506
000100 d1 cd f9 bd df c6 31 3e 64 ff eb 3d 14 19 06 3e
       -0.121974595 0.1736102 0.11523321 0.13095504
000110 55 23 6d 3e a9 b7 e3 3d 12 f7 81 be c0 ab 90 3d
       0.2315801 0.11119015 -0.25383812 0.07064009
000120 ac f6 2b be 6d 83 02 3d ab f7 45 ba 02 71 80 3e
       -0.16793317 0.03186362 -0.0007551859 0.25086218
000130 8e 29 2b be 4c 47 7d be b1 bb a7 bd d3 ea 21 3d
       -0.1671507 -0.24734229 -0.08190096 0.039530586
000140 59 e7 3a 3e 5f 91 48 3e 12 28 4c 3e 7d 61 a5 3d
       0.18252315 0.19586705 0.1993716 0.08075235
000150 65 a2 6d bd e0 3f 52 bd 18 84 11 be fc f1 54 3d
       -0.0580162 -0.051330447 -0.14210546 0.051988587
000160 df 24 3a be fb 7b b2 3d 4b dc 1e 3e 33 0b 58 3e
       -0.18178128 0.08715054 0.15513723 0.21098022
000170 4c 50 7d be 4e 1f 51 3e 9d 27 23 be 1b 07 41 bc
       -0.24737662 0.20422098 -0.1593308 -0.011781479
000180 8a 0d 68 3e 06 c8 07 3e 4d fa 8a bd 5a d4 15 3e
       0.22661415 0.13259897 -0.06786022 0.14631787
000190 e2 da 70 be 42 14 5e 3e 42 df 76 3e b9 71 01 bc
       -0.23520997 0.21687415 0.24108604 -0.007900649
0001a0 97 e3 1f 3d 2f ec 79 bd 10 b5 2a be f2 e5 fe bd
       0.039035406 -0.061016258 -0.16670632 -0.12446202
0001b0 f6 d8 ac bc d0 32 4a be d7 73 48 be ba 7e dd 3c
       -0.021099549 -0.19745946 -0.1957544 0.027037967
0001c0 06 bb 24 be 5a 0e 0b be f0 e2 dc bb 3b c8 0a be
       -0.16086969 -0.13579693 -0.0067409202 -0.13552944
0001d0 73 e0 6d 3e 54 da b3 bd ec 6b 0b be 5c aa 97 bd
       0.23230152 -0.08781877 -0.13615388 -0.0740554
0001e0 28 a3 4e be 75 d2 02 3e be d9 58 3e be ef 10 be
       -0.20179427 0.12775595 0.21176812 -0.14153954
0001f0 b8 43 c7 bd 24 db 69 3e 39 ce 3f be 5f a8 8e 3d
       -0.09729713 0.22837502 -0.18731011 0.06965708
000200 f3 c0 55 be b6 e4 58 be 2b 3e 8a 3b a5 1c 0e be
       -0.20874386 -0.21180996 0.004218837 -0.13878115
000210 63 60 14 3e 55 ac a5 bd 74 1f d0 3a b4 25 fd bd
       0.14489894 -0.0808951 0.0015878514 -0.12360707
000220 70 21 c3 3d 45 d1 77 3e bc fa 1c bd 09 c9 28 be
       0.09527862 0.24200924 -0.038325056 -0.16482939
000230 12 88 70 be ff 61 6d 3e a3 80 e6 3d 07 a8 ef 3d
       -0.23489407 0.23181914 0.11255004 0.117019705
000240 6c e1 47 3d a0 a0 f6 3d dd 36 c3 3d 09 8a 08 3e
       0.048798963 0.120423555 0.09531949 0.13333906
000250 ab 86 18 3e 3a bf bb 3c 04 74 5f 3e 13 3e 17 3e
       0.14895122 0.022918332 0.218216 0.14769773
000260 88 bc 8d 3b 7f 73 f6 bd 0b 52 e5 3c 2d f2 4a 3e
       0.004325453 -0.12033748 0.027993223 0.19818945
000270 66 a7 1a 3e 75 51 bb bd e4 d9 87 bd c5 9c c5 3d
       0.1510292 -0.09146396 -0.06633356 0.09649042
000280 08 cb b2 3d 9f 4e 6e 3e 36 ab f3 3d 9e be 94 3d
       0.087301314 0.23272179 0.1189789 0.0726292
000290 49 7a 74 3d 70 96 7e be 53 91 df bd 4a c6 11 3d
       0.059686933 -0.24862075 -0.1091639 0.035589494
0002a0 6e 54 30 be d7 74 5d be cf 7c 24 3e 50 4e c6 3d
       -0.17219707 -0.21626602 0.16063236 0.09682906
0002b0 15 59 54 be 64 9a 1a 3c 42 ba 12 3e 21 32 11 3e
       -0.20737107 0.009436224 0.14328864 0.14179279
0002c0 9a 1c 65 3e d3 13 c4 bd 4f f1 df 3d 16 70 52 be
       0.22374192 -0.09574094 0.10934698 -0.2055057
0002d0 31 c2 ca bc 47 dc 1b be 2d 78 4b bd 3e ee 11 3e
       -0.0247508 -0.15220748 -0.049675155 0.14251038
0002e0 fd 0e 05 3e e3 99 0c be 21 3f 85 bd 8b ba 5d bd
       0.12993999 -0.13730578 -0.065061815 -0.05413298
0002f0 66 33 b6 bd e8 6a 07 be 73 1c 35 3e 5f 0b 38 3e
       -0.08896522 -0.13224375 0.17686634 0.17973088
000300 2d 28 55 3e 7a 2e 12 be a0 1d 41 3e 21 24 94 bd
       0.20816107 -0.14275542 0.18858957 -0.072334535
000310 c2 ef 80 bd f8 4e 62 bd f2 07 78 bc af 33 d7 bd
       -0.0629573 -0.05525109 -0.015138613 -0.10507905
000320 fd 9c 1e 3d 51 16 24 be 3d 19 db 3d ad f9 51 be
       0.038723934 -0.16024138 0.10698173 -0.205054
000330 02 f1 c5 bd 6c c0 2f be df 08 2b 3e b5 c2 34 3e
       -0.09665109 -0.17163247 0.16702603 0.176524
000340 8d bc 3f be 3a 5d 17 be 25 f0 66 3e a1 56 91 3d
       -0.1872427 -0.14781657 0.22552545 0.07096601
000350 b3 af 28 3e 6a a9 58 be d3 da d8 3d ae 41 1b 3e
       0.16473274 -0.21158376 0.105886124 0.15161774
000360 18 5d 6b bd 65 f5 83 bc 0c 9e 36 3e de 3e 9f 3d
       -0.057461828 -0.016108224 0.17833728 0.07775663
000370 02 14 56 3d 1b 7d ba 3b 0d 91 e9 bd ec ff 2a be
       0.052265175 0.0056911833 -0.11404619 -0.16699189
000380 e1 20 81 3e 39 d6 00 bd 11 c6 69 3e e9 d6 4d 3e
       0.25220397 -0.0314543 0.22829463 0.20101513
000390 2c 31 08 be 3d 16 ab 3c e7 f9 82 bd 28 5e c2 3a
       -0.13300008 0.020884627 -0.06395321 0.0014829086
0003a0 bf 39 1a 3e 57 f2 0e 3e 0c c3 16 be 16 ab e9 bd
       0.15061091 0.13959633 -0.14722842 -0.11409585
0003b0 e4 ab 3c be 9a 0a 5c be c5 50 29 3e 0c b3 15 be
       -0.18424946 -0.21488419 0.16534717 -0.14619082
0003c0 ae 0e 43 3c ce 2d cf bb f3 f5 38 3d 51 21 85 bc
       0.011905355 -0.006322599 0.04515643 -0.016251238
0003d0 fc a1 fa 3d 26 3b 20 3d 4e 47 41 3e 1a 65 6a 3d
       0.12237927 0.03911891 0.18874857 0.057225324
0003e0 0f 54 93 3b 44 79 e8 3c b5 88 2e 3e 3a 6e 43 3d
       0.0044961045 0.028378136 0.17044337 0.047712542
0003f0 68 64 2a 3e 98 e5 a7 bc 6d 9d 99 bc c8 c8 56 3e
       0.16639864 -0.020495221 -0.018751824 0.2097503

gcpn_3.P2P.bias f4 [64]
000000 b6 54 11 be f4 c5 06 bc 8d b6 62 3e 4f 67 41 3e
       -0.14192471 -0.008225907 0.2213995 0.18887065
000010 11 ba 37 be 17 e3 55 be 42 58 4a 3e af 4e 95 3d
       -0.17942072 -0.20887409 0.1976023 0.07290398
000020 33 7d 46 be ff 1c 5d 3e 6e 58 38 be 43 7e 5d 3e
       -0.19383697 0.21593092 -0.18002483 0.21630196
000030 65 27 38 3e c9 26 36 3e 34 f4 42 bd d6 b8 ad 3c
       0.17983778 0.17788233 -0.04759617 0.0212063
000040 52 64 55 be bf 77 10 3e 14 cd 5a 3c 7b f4 3d 3e
       -0.2083905 0.1410818 0.0133545585 0.18550293
000050 06 0b d7 bd 82 9b 77 3e 2c 8f 2a 3e 29 d4 90 bd
       -0.105001494 0.24180415 0.16656178 -0.07071716
000060 36 be 8c 3d c3 59 3b be 7e db 2a be ea 85 2f be
       0.06872217 -0.1829596 -0.16685292 -0.17140928
000070 f6 58 13 be f6 41 8e 3d d2 87 db bd 58 d1 b0 bd
       -0.14389405 0.06946175 -0.10719265 -0.08633679
000080 5e 62 32 3e aa aa 24 3d ac 46 fa bd cb a8 8b bd
       0.17420337 0.04020182 -0.12220511 -0.06819304
000090 7f e5 86 bd 15 a6 ee 3d fc 76 34 3e ed be 4b 3e
       -0.06586742 0.116527714 0.17623514 0.19897051
0000a0 a7 1a 2e be fe 9c db bc 46 1d 70 3d c0 aa c8 bd
       -0.17002355 -0.026808258 0.058621667 -0.09798193
0000b0 b2 26 28 3e ac 0d e2 bc c5 c3 db 3c 49 c9 5b be
       0.16421011 -0.02759441 0.026826749 -0.21463503
0000c0 56 1c 39 3e 12 b0 29 be ee 36 bd bb 29 6e 50 be
       0.18077216 -0.16571072 -0.0057743704 -0.20354523
0000d0 9f 56 42 3e 99 f7 66 3c 28 c2 e5 3d 33 48 4b be
       0.18978356 0.014097118 0.11218673 -0.1985176
0000e0 aa 9c ac 3c 9d 2f d3 3d 94 74 34 3e 00 bc 3c 3e
       0.021070797 0.10311816 0.17622596 0.18431091
0000f0 f9 d7 43 bd 60 1e cc bc 4f 98 aa 3d e8 74 b8 bd
       -0.04781339 -0.024916828 0.08329832 -0.09006673

gcpn_3.P2P.batch_norm.weight f4 [64]
000000 b6 e3 81 3f 21 30 81 3f 10 38 7f 3f 6e f2 7e 3f
       1.0147617 1.0092813 0.9969492 0.9958867
000010 83 f7 7d 3f cd 15 80 3f 4d a8 7d 3f f5 76 7f 3f
       0.992058 1.0006653 0.9908493 0.9979089
000020 32 e8 80 3f 2f 23 81 3f b9 1e 80 3f 05 f4 80 3f
       1.007086 1.0088862 1.0009376 1.0074469
000030 8f f9 81 3f cc 83 7f 3f 34 aa 7e 3f db 62 7d 3f
       1.0154284 0.9981048 0.9947846 0.98978966
000040 46 3e 80 3f 8e 33 80 3f 95 a1 7f 3f 8c 92 7c 3f
       1.0019004 1.0015733 0.9985593 0.9866111
000050 9d fe 80 3f ba 31 80 3f ab ea 81 3f d2 eb 7d 3f
       1.0077702 1.0015175 1.014974 0.9918796
000060 8f fe 7e 3f e4 c6 80 3f 72 43 81 3f 50 25 80 3f
       0.99607176 1.0060697 1.0098708 1.0011387
000070 01 28 83 3f bf cd 7f 3f 0d aa 80 3f 4b fb 80 3f
       1.0246583 0.9992332 1.0051895 1.0076689
000080 38 88 80 3f 89 80 7f 3f 65 59 7c 3f 89 98 7f 3f
       1.0041571 0.99805504 0.98573905 0.99842125
000090 50 09 81 3f a9 af 7e 3f 34 d7 80 3f c3 c4 80 3f
       1.0080967 0.99486786 1.0065675 1.0060047
0000a0 17 1c 80 3f 0e f5 7f 3f 29 e3 7c 3f 91 c8 7f 3f
       1.0008572 0.999833 0.9878412 0.99915415
0000b0 88 53 7b 3f ac bc 7f 3f 00 d2 80 3f c7 10 81 3f
       0.98174334 0.99897265 1.0064087 1.0083245
0000c0 b1 69 80 3f e6 d4 7e 3f ab e2 7d 3f 5e af 80 3f
       1.0032254 0.9954361 0.9917399 1.0053518
0000d0 68 2d 7e 3f dc a8 80 3f 1b 95 80 3f a1 c3 80 3f
       0.99288034 1.0051532 1.0045503 1.0059701
0000e0 92 05 81 3f 15 b2 7e 3f 52 a5 7d 3f 48 f8 7f 3f
       1.0079825 0.9949048 0.99080384 0.9998822
0000f0 2f 53 80 3f 4d d9 7f 3f 77 43 80 3f b0 40 7d 3f
       1.0025386 0.9994095 1.0020589 0.9892683
