dtefm_middle/resource/trained_memory/PPO_actor_lock.pth (torch, 305067 bytes, 104 tensors)

gcpn_1.P2P.weight f4 [8, 3]
-0.01004136 0.31441733 -0.4703235 -0.43312192 -0.21848638 0.14581417 -0.014215839 0.458778
-0.05065237 0.16446391 -0.17697792 -0.09779829 -0.53326017 -0.3974475 -0.23556651 0.013951991
0.23125374 0.35328022 -0.39798668 -0.24504851 0.20409685 0.4884905 -0.11245337 0.42133838
00000000: 8484 24bc 4ffb a03e 3ece f0be 28c2 ddbe
00000010: e5ba 5fbe 4f50 153e 8de9 68bc f3e4 ea3e
00000020: dc78 4fbd 3a69 283e b339 35be 784a c8bd
00000030: bd83 08bf 3d7e cbbe 5938 71be e496 643c
00000040: c8cd 6c3e 25e1 b43e e9c4 cbbe ffed 7abe
00000050: c4fe 503e 6d1b fa3e f44d e6bd aab9 d73e

gcpn_1.P2P.bias f4 [8]
-0.08946407 0.06604001 0.5179125 -0.5321716 -0.35981244 -0.14568269 -0.22558421 0.5033708
00000000: f038 b7bd fc3f 873d ea95 043f 663c 08bf
00000010: 5639 b8be d82d 15be 8cff 66be e9dc 003f

gcpn_1.P2P.batch_norm.weight f4 [8]
0.9986305 1.006122 1.0124673 0.99891067 0.9900589 0.9928686 1.0101413 1.0043926
00000000: 40a6 7f3f 9bc8 803f 8798 813f 9cb8 7f3f
00000010: 8074 7d3f a32c 7e3f 4f4c 813f f08f 803f

gcpn_1.P2P.batch_norm.bias f4 [8]
0.006382048 0.011694567 0.020025898 -0.032034352 0.006239943 -0.006508102 0.0053735166 -0.011322997
00000000: 8020 d13b 929a 3f3c 5a0d a43c 7436 03bd
00000010: 7078 cc3b eb41 d5bb 5314 b03b 1784 39bc

gcpn_1.P2P.batch_norm.running_mean f4 [8]
-0.19303311 -0.15484558 0.89642066 -0.72465545 -1.0967923 0.3675902 -0.41126192 0.9078618
00000000: 79aa 45be d78f 1ebe d37b 653f 0583 39bf
00000010: b163 8cbf c834 bc3e ec90 d2be a269 683f

gcpn_1.P2P.batch_norm.running_var f4 [8]
0.38033232 0.5783352 0.7883656 0.102850616 1.4102433 0.2645634 0.5926318 0.2864272
00000000: ebba c23e c70d 143f 54d2 493f 58a3 d23d
00000010: da82 b43f db74 873e b8b6 173f 96a6 923e

gcpn_1.T2T.weight f4 [8, 3]
-0.3576885 -0.30095956 -0.38371718 -0.5157332 -0.35635388 0.49260715 0.267468 0.26968285
0.020572005 -0.31121302 0.092887394 -0.52483004 -0.45219594 -0.29757288 0.32710242 0.3326587
-0.26168403 -0.01889823 0.37620872 0.56579095 0.22092846 0.08560291 0.38682204 -0.32354945
00000000: f222 b7be 5f17 9abe 9476 c4be 1707 04bf
00000010: 0474 b6be 0137 fc3e 91f1 883e df13 8a3e
00000020: 9f86 a83c 5057 9fbe bf3b be3d 435b 06bf
00000030: 3a86 e7be 795b 98be f879 a73e 3e52 aa3e
00000040: 73fb 85be 76d0 9abc 6e9e c03e add7 103f
00000050: 123b 623e 9450 af3d 8a0d c63e 46a8 a5be

gcpn_1.T2T.bias f4 [8]
0.10547563 -0.44381356 -0.4062323 -0.2950927 0.2629852 0.23329686 -0.3410865 0.17511244
00000000: 9b03 d83d 883b e3be aefd cfbe 6416 97be
00000010: ffa5 863e 5fe5 6e3e e4a2 aebe ad50 333e

gcpn_1.T2T.batch_norm.weight f4 [8]
1.0116799 1.0016855 1.0175421 0.9869306 0.98320854 1.011177 0.9882604 0.998696
00000000: ba7e 813f 3b37 803f d23e 823f 7ca7 7c3f
00000010: 8eb3 7b3f 3f6e 813f a2fe 7c3f 8baa 7f3f

gcpn_1.T2T.batch_norm.bias f4 [8]
0.009090426 -0.0051473356 0.0126356715 -0.0074651297 -0.007781673 0.018795019 -0.011767186 0.016162919
00000000: 03f0 143c fbaa a8bb d905 4f3c 0c9e f4bb
00000010: 68fd febb 03f8 993c 28cb 40bc 1968 843c

gcpn_1.T2T.batch_norm.running_mean f4 [8]
-0.25627258 -0.8844294 -0.14488149 -0.5588016 -0.12735526 0.44912052 0.07205363 0.2910574
00000000: 2936 83be f769 62bf d05b 14be 9f0d 0fbf
00000010: 6b69 02be 20f3 e53e db90 933d 7a05 953e

gcpn_1.T2T.batch_norm.running_var f4 [8]
1.0326539 2.186513 0.5785472 0.79824007 1.6772463 0.94572824 1.1352534 0.059587937
00000000: 012e 843f d4ef 0b40 ab1b 143f 7659 4c3f
00000010: 02b0 d63f 3f1b 723f fc4f 913f 7b12 743d

gcpn_1.P2T.weight f4 [8, 8]
0.19269621 -0.04571459 0.0047353595 0.089617856 0.21521206 0.33025867 -0.27369866 -0.14190833
0.15090904 0.2874391 0.32303706 0.31805894 0.04925827 -0.29264337 0.026899517 -0.21370801
-0.3304851 0.29584408 0.26458347 -0.3725528 0.067662984 -0.062251378 -0.081971794 -0.15757091
0.13386342 -0.21401498 0.13507843 0.17529733 0.24733964 0.13762343 -0.3478583 -0.23194475
0.1689859 0.06704025 -0.27735054 -0.20376377 0.34467775 0.23716193 -0.16004021 -0.06519482
-0.3503471 -0.0043018716 -0.28302863 -0.2553901 -0.012317068 0.03808232 -0.1432495 0.21027888
-0.20601471 0.3338149 0.23809463 -0.29887754 -0.08140411 0.010438688 0.06711758 0.07555198
0.15206395 0.03214462 -0.18685374 0.15552893 -0.32468188 -0.2239984 -0.078345336 -0.18337436
00000000: 2852 453e 393f 3bbd 132b 9b3b 9189 b73d
00000010: 8d60 5c3e aa17 a93e 3b22 8cbe 6b50 11be
00000020: e687 1a3e 382b 933e 1d65 a53e 9fd8 a23e
00000030: 0ac3 493d 5ad5 95be 605c dc3c 46d6 5abe
00000040: 5835 a9be e078 973e 7c77 873e 3ebf bebe
00000050: e492 8a3d 4dfb 7ebd d4e0 a7bd 455a 21be
00000060: 7e13 093e be26 5bbe 0052 0a3e 2581 333e
00000070: 9a46 7d3e 28ed 0c3e 7c1a b2be ed82 6dbe
00000080: a40a 2d3e 664c 893d e400 8ebe 73a7 50be
00000090: 9a79 b03e 94da 723e 95e1 23be dd84 85bd
000000a0: b260 b3be b7f6 8cbb 21e9 90be 7ec2 82be
000000b0: 87cd 49bc 35fc 1b3d ffaf 12be 5953 573e
000000c0: 85f5 52be c9e9 aa3e 14cf 733e 7a06 99be
000000d0: 33b7 a6bd 0807 2b3c f174 893d ffba 9a3d
000000e0: a7b6 1b3e 14aa 033d 9656 3fbe fa42 1f3e
000000f0: b43c a6be d65f 65be 8573 a0bd 7dc6 3bbe

gcpn_1.P2T.bias f4 [8]
-0.1199027 -0.28759828 -0.07550346 0.076106094 -0.22810851 -0.009844533 0.25125706 -0.033808816
00000000: 8c8f f5bd 1540 93be 8fa1 9abd 83dd 9b3d
00000010: 4795 69be f74a 21bc c4a4 803e 1d7b 0abd

gcpn_1.P2T.batch_norm.weight f4 [8]
1.0056016 1.0169734 0.99242955 1.0057666 0.98356676 0.992673 1.0093687 0.997836
00000000: 8eb7 803f 2f2c 823f dd0f 7e3f f6bc 803f
00000010: 08cb 7b3f d11f 7e3f fe32 813f 2e72 7f3f

gcpn_1.P2T.batch_norm.bias f4 [8]
0.0024452505 0.0038453306 0.0047640917 0.008611005 -0.0057489555 -0.012998491 0.005699404 0.0078033777
00000000: 7f40 203b f101 7c3b 191c 9c3b 2c15 0d3c
00000010: bc61 bcbb 9ff7 54bc 11c2 ba3b 7ab3 ff3b

gcpn_1.P2T.batch_norm.running_mean f4 [8]
1.0178183 -0.30652118 -0.77519953 1.185799 0.011281707 -1.2376066 -0.04645125 0.061556965
00000000: df47 823f 58f0 9cbe 7a73 46bf 43c8 973f
00000010: e9d6 383c e569 9ebf aa43 3ebd 2823 7c3d

gcpn_1.P2T.batch_norm.running_var f4 [8]
0.13255294 0.35797548 0.9945677 0.25280643 0.4194301 0.14709726 0.83335936 0.5477629
00000000: f5bb 073e 9048 b73e fd9b 7e3f d86f 813e
00000010: 8bbf d63e aaa0 163e 0a57 553f 303a 0c3f

gcpn_1.T2P.weight f4 [8, 8]
0.010095627 -0.016173966 0.08642701 0.2286805 0.31684485 0.23443562 0.35148746 -0.022717504
-0.32198933 -0.15628782 0.24941105 -0.010027749 -0.18252954 -0.2672763 -0.3256301 -0.29397956
-0.0767703 0.19602916 0.18927903 -0.340858 0.21932347 -0.28186715 -0.07903733 -0.1355965
-0.07473347 -0.08295503 -0.30760255 -0.30626947 -0.0766317 0.013662404 -0.1489901 0.13725056
-0.32648805 -0.0457302 0.30830798 -0.14800565 0.3071946 0.1424049 -0.31404468 0.22478686
-0.022058155 -0.14241603 0.29233956 -0.2757409 0.053045195 -0.07137421 0.26315212 0.10500379
0.16327181 0.14152645 -0.075519726 -0.0770356 -0.28573605 0.18772757 0.28459775 0.24210401
-0.2516406 0.024783365 -0.26153234 -0.19406605 -0.18839796 0.116882734 -0.22409873 -0.013142974
00000000: 2168 253c 447f 84bc a500 b13d 392b 6a3e
00000010: 7d39 a23e e40f 703e 2af6 b33e 0f1a babc
00000020: c9db a4be ea09 20be 9c65 7f3e 6e4b 24bc
00000030: 06e9 3abe 70d8 88be fdb8 a6be 7d84 96be
00000040: bf39 9dbd debb 483e 5dd2 413e f184 aebe
00000050: 5596 603e e450 90be 53de a1bd cfd9 0abe
00000060: dd0d 99bd 54e4 a9bd 157e 9dbe 5acf 9cbe
00000070: 15f1 9cbd 47d8 5f3c dc90 18be 698b 0c3e
00000080: 7129 a7be 974f 3bbd 8bda 9d3e cb8e 17be
00000090: 9c48 9d3e 97d2 113e 77ca a0be 872e 663e
000000a0: 4eb3 b4bc 82d5 11be 88ad 953e e92d 8dbe
000000b0: eb45 593d a42c 92bd e0bb 863e 3a0c d73d
000000c0: ba30 273e 4fec 103e 16aa 9abd d7c4 9dbd
000000d0: ff4b 92be a83b 403e ccb6 913e 1dea 773e
000000e0: 09d7 80be 7c06 cb3c 91e7 85be 40b9 46be
000000f0: 65eb 40be 3760 ef3d 237a 65be a155 57bc

gcpn_1.T2P.bias f4 [8]
0.016830783 0.22798009 -0.26638412 -0.2439131 -0.20650728 0.24660912 -0.12594655 0.29875454
00000000: b6e0 893c 9d73 693e 8063 88be 5bc4 79be
00000010: a576 53be 1a87 7c3e 22f8 00be 5bf6 983e

gcpn_1.T2P.batch_norm.weight f4 [8]
0.99672997 1.0084233 0.9971404 0.9962517 0.9943697 0.99986845 0.99959123 0.9960263
00000000: b229 7f3f 0414 813f 9844 7f3f 5a0a 7f3f
00000010: 038f 7e3f 61f7 7f3f 36e5 7f3f 94fb 7e3f

gcpn_1.T2P.batch_norm.bias f4 [8]
-0.011467358 0.012935695 -0.011033316 0.005632258 -0.0093950005 0.009052072 0.0067499755 -0.0152296275
00000000: 96e1 3bbc 3df0 533c 15c5 34bc ce8e b83b
00000010: 7ded 19bc 244f 143c e62e dd3b b085 79bc

gcpn_1.T2P.batch_norm.running_mean f4 [8]
1.2875253 -1.1422825 -0.5451397 -1.1780198 -0.25679144 0.7064714 0.6234993 -0.84980947
00000000: a1cd a43f 5036 92bf 468e 0bbf 5ac9 96bf
00000010: 2b7a 83be 4fdb 343f a69d 1f3f 1d8d 59bf

gcpn_1.T2P.batch_norm.running_var f4 [8]
85.94415 98.532196 29.76576 38.140972 21.366568 40.15189 53.680298 59.370735
00000000: 68e3 ab42 7c10 c542 4720 ee41 5b90 1842
00000010: bbee aa41 899b 2042 a0b8 5642 a27b 6d42

gcpn_2.P2P.weight f4 [16, 8]
0.13409019 0.046262942 -0.0013364874 -0.07862403 0.041096162 -0.074764386 -0.0010806869 0.0324369
-0.27578866 -0.19290471 0.2892123 -0.29477423 -0.028138723 0.33916318 0.12421782 0.006713052
-0.30844977 0.17746007 -0.24271859 -0.089728974 -0.11371106 -0.060991786 -0.0073050805 0.30888033
0.047127675 0.31192714 0.20796981 -0.22621362 0.16250989 -0.25197843 -0.14981781 0.105446525
0.09726198 0.28036448 -0.119512275 0.013498925 0.17786439 -0.34103635 0.26329556 -0.28631353
0.0014436753 -0.060229853 -0.19251171 0.05213024 0.2893423 -0.105083466 -0.21218272 -0.11731281
-0.3679178 0.17700905 -0.1500779 -0.23347594 -0.21065173 0.18939897 0.15981701 0.28987557
0.13083078 -0.11895695 -0.0875532 0.100273445 0.29211384 0.10025805 -0.16916814 -0.15867694
-0.33283308 0.09520404 -0.1890299 -0.32682037 0.30868077 -0.2330649 -0.05954488 0.0936152
0.022411654 -0.2440826 -0.2752095 0.2714477 0.069049895 0.29979587 -0.11214926 0.09491901
-0.07419886 -0.017030232 -0.2166801 0.10803531 0.12063939 -0.0011969358 -0.07555928 -0.22177227
0.2333425 -0.25220168 0.15316275 -0.11492277 -0.17855956 0.05393719 -0.19104506 0.08835318
0.07276629 -0.26672888 0.05223321 0.15287521 0.13869849 -0.04951973 -0.29155356 -0.047168136
0.12554643 -0.12664677 0.12972823 0.23469466 -0.18164937 0.009372829 0.15622757 0.02962483
0.018204587 0.05519953 -0.2873073 0.027339282 0.22884862 0.32037038 0.21482751 0.040359985
0.17456461 -0.18167269 -0.29624444 -0.30484924 0.34278736 0.21885926 -0.23922639 0.13513567
00000000: f04e 093e 367e 3d3d 132d afba a305 a1bd
00000010: 7354 283d 121e 99bd d6a5 8dba 8edc 043d
00000020: 2c34 8dbe d088 45be a213 943e a6ec 96be
00000030: 2e83 e6bc cca6 ad3e ea65 fe3d 29f9 db3b
00000040: 21ed 9dbe 18b8 353e 398b 78be d3c3 b7bd
00000050: 58e1 e8bd 86d2 79bd 755f efbb 9025 9e3e
00000060: f308 413d eab4 9f3e 0af6 543e 8ba4 67be
00000070: fe68 263e 5103 81be d769 19be 59f4 d73d
00000080: 4a31 c73d ef8b 8f3e dac2 f4bd 982a 5d3c
00000090: 1522 363e 519c aebe adce 863e b097 92be
000000a0: b439 bd3a 94b3 76bd ca21 45be 8586 553d
000000b0: ad24 943e 0036 d7bd 6d46 59be b341 f0bd
000000c0: b95f bcbe dc41 353e 05ae 19be 5114 6fbe
000000d0: 16b5 57be cef1 413e 12a7 233e 926a 943e
000000e0: 81f8 053e b49f f3bd 184f b3bd 2a5c cd3d
000000f0: f28f 953e 1854 cd3d 6a3a 2dbe 357c 22be
00000100: 1969 aabe 56fa c23d 0e91 41be 0055 a7be
00000110: 680b 9e3e 91a8 6ebe 55e5 73bd 53b9 bf3d
00000120: a598 b73c caf0 79be 42e8 8cbe 31fb 8a3e
00000130: 086a 8d3d d87e 993e 83ae e5bd e664 c23d
00000140: 92f5 97bd fc82 8bbc 63e1 5dbe 9e41 dd3d
00000150: c911 f73d 80e2 9cba d3be 9abd 4518 63be
00000160: 56f1 6e3e 9420 81be b2d6 1c3e a15c ebbd
00000170: 51d8 36be 3eed 5c3d 51a1 43be 83f2 b43d
00000180: 7e06 953d b090 88be 7ef2 553d 528b 1c3e
00000190: fa06 0e3e 33d5 4abd 8246 95be 6033 41bd
000001a0: 3e8f 003e b1af 01be 7ad7 043e cc53 703e
000001b0: 4b02 3abe 7f90 193c 1ffa 1f3e c5af f23c
000001c0: c921 953c e718 623d f119 93be a1f6 df3c
000001d0: 4b57 6a3e 9607 a43e befb 5b3e 8350 253d
000001e0: 11c1 323e 6808 3abe 5aad 97be 3315 9cbe
000001f0: d381 af3e a41c 603e c3f7 74be 0161 0a3e

gcpn_2.P2P.bias f4 [16]
0.2679023 0.35003453 0.30857655 0.27181256 -0.0822495 -0.124167584 0.29080683 0.19679064
-0.2137854 0.31893697 0.17453055 0.19317576 -0.218374 0.09961241 -0.12474362 0.2765977
00000000: 7e2a 893e ba37 b33e bffd 9d3e 042b 8b3e
00000010: 6d72 a8bd 934b febd a2e4 943e 7c83 493e
00000020: 8fea 5abe b54b a33e 23b8 323e decf 453e
00000030: 6f9d 5fbe 9701 cc3d 9579 ffbd 379e 8d3e

gcpn_2.P2P.batch_norm.weight f4 [16]
0.9985115 0.99392194 0.9964988 1.0021408 0.9957062 1.0015361 0.98601705 0.9977825
0.99833727 1.0032215 0.9942785 1.0003378 0.98935765 0.9970533 1.0052787 1.0059636
00000000: 739e 7f3f ab71 7e3f 8c1a 7f3f 2646 803f
00000010: 9ae6 7e3f 5632 803f 9d6b 7c3f ad6e 7f3f
00000020: 0893 7f3f 9069 803f 0989 7e3f 120b 803f
00000030: 8b46 7d3f e33e 7f3f f9ac 803f 6ac3 803f

gcpn_2.P2P.batch_norm.bias f4 [16]
-0.01061259 0.005837906 -0.011002301 0.005618453 -0.00016643092 -0.0066708867 -0.013618739 -0.009134299
-0.006864227 0.00074292684 -0.0073276428 0.0017041904 -0.0025320153 -0.011445282 8.9861605e-05 0.01968739
00000000: 6ee0 2dbc e84b bf3b ff42 34bc 001b b83b
00000010: f683 2eb9 7497 dabb 2221 5fbc 07a8 15bc
00000020: 4fed e0bb fac0 423a b91c f0bb 245f df3a
00000030: 2bf0 25bb fe84 3bbc 1574 bc38 7347 a13c

gcpn_2.P2P.batch_norm.running_mean f4 [16]
0.14707547 1.5500903 0.41636938 -0.37291983 -1.3302735 -1.5348047 1.4683958 -0.62278974
-1.5853194 0.4385148 -0.65177137 0.9322219 -1.0052179 0.73009515 0.075340465 -0.10620524
00000000: f49a 163e 5c69 c63f 5e2e d53e 59ef bebe
00000010: 6746 aabf 7b74 c4bf 65f4 bb3f 266f 1fbf
00000020: bfeb cabf 0385 e03e 7dda 26bf 18a6 6e3f
00000030: fbaa 80bf 84e7 3a3f 1a4c 9a3d 2282 d9bd

gcpn_2.P2P.batch_norm.running_var f4 [16]
1.812691 7.6940675 42.24351 9.858771 1.7987604 1.6846406 18.33836 11.162252
21.60143 7.5686417 2.1230571 11.79655 2.0154932 3.1871028 35.30684 27.591345
00000000: 4206 e83f cd35 f640 5bf9 2842 87bd 1d41
00000010: c83d e63f 4ea2 d73f f6b4 9241 9698 3241
00000020: bbcf ac41 5032 f240 2be0 0740 abbe 3c41
00000030: d7fd 0040 7ef9 4b40 343a 0d42 13bb dc41

gcpn_2.T2T.weight f4 [16, 8]
-0.059292383 0.13410322 0.06438459 0.16647471 -0.109790534 0.17114362 -0.24529056 0.082834624
-0.23721932 -0.3644938 -0.2971045 0.27636766 0.17254117 0.3266315 0.27418438 -0.31850266
-0.24077712 -0.03597367 -0.2348905 0.24652632 -0.27447265 -0.17038521 -0.34162956 -0.19729124
0.2906716 0.28975344 0.2478997 0.28080967 0.30464384 -0.08676106 0.15291564 0.3237915
0.12716359 0.34182906 0.1726405 0.23105666 -0.15329443 0.17051335 0.03580657 -0.08194943
-0.19945438 -0.19320324 -0.26900122 0.24050947 0.25318703 -0.03982168 -0.20546524 0.272558
0.24119087 0.017332729 -0.18815108 0.3426239 0.12612748 -0.2824129 0.320189 0.25315082
-0.1293575 0.1950201 -0.2000731 -0.060076885 0.29810175 0.017621046 -0.24962859 -0.12582108
-0.118195266 -0.057482585 0.025251709 0.3075723 0.025229083 -0.22854371 0.0010339067 0.1668818
0.18224499 -0.32590374 -0.068226285 -0.26674426 -0.1494441 0.12084534 -0.25271043 0.11278731
0.30573446 0.036745258 -0.2425241 -0.11868051 0.071288586 -0.27529925 0.16941756 -0.31078634
-0.34730464 -0.3547806 -0.061004274 0.22873245 -0.31411925 0.30334732 -0.13049418 0.11288504
0.020087905 -0.31910008 0.30222043 0.18449509 0.35100484 0.18097672 -0.22454458 0.29305997
0.01182862 0.14286268 -0.28325093 -0.10696046 -0.3368114 -0.14458385 0.07745344 -0.28854352
0.11067945 0.1829843 0.05517042 -0.24712998 -0.26791903 -0.11122753 0.1632231 0.3377419
0.20477621 -0.040417943 0.11299524 -0.3417693 -0.31447896 0.15508449 -0.21682133 0.1624685
00000000: 92dc 72bd 5b52 093e 11dc 833d 5978 2a3e
00000010: dcd9 e0bd 4640 2f3e 732d 7bbe 33a5 a93d
00000020: 9fe9 72be ee9e babe 151e 98be 1080 8d3e
00000030: a2ae 303e 3e3c a73e e561 8c3e c812 a3be
00000040: 478e 76be 2159 13bd 2387 70be 6571 7c3e
00000050: ae87 8cbe 7679 2ebe 12ea aebe b706 4abe
00000060: e8d2 943e 905a 943e 6bd9 7d3e 49c6 8f3e
00000070: 47fa 9b3e c8af b1bd eb95 1c3e 00c8 a53e
00000080: 2c37 023e 3804 af3e acc8 303e 1e9a 6c3e
00000090: 37f9 1cbe 0d9b 2e3e e9a9 123d 1ad5 a7bd
000000a0: c53d 4cbe 12d7 45be 87ba 89be 1d48 763e
000000b0: bba1 813e 0f1c 23bd 7b65 52be b98c 8b3e
000000c0: bdfa 763e 5efd 8d3c adaa 40be 666c af3e
000000d0: 9027 013e 6c98 90be d0ef a33e fc9c 813e
000000e0: 4b76 04be 59b3 473e f6df 4cbe 2e13 76bd
000000f0: cba0 983e 035a 903c a39e 7fbe 3ed7 00be
00000100: 5c10 f2bd dc72 6bbd acdc ce3c 1e7a 9d3e
00000110: 39ad ce3c 5d07 6abe 2784 873a 10e3 2a3e
00000120: 6e9e 3a3e dbdc a6be 39ba 8bbd b492 88be
00000130: e007 19be c37d f73d 4363 81be 08fd e63d
00000140: 3a89 9c3e 3282 163d 3d58 78be c40e f3bd
00000150: c0ff 913d 06f4 8cbe cc7b 2d3e 631f 9fbe
00000160: ead1 b1be cea5 b5be 9edf 79bd d738 6a3e
00000170: 3dd4 a0be 5750 9b3e 44a0 05be 4630 e73d
00000180: 648f a43c 1661 a3be a3bc 9a3e 48ec 3c3e
00000190: e8b6 b33e f651 393e 04ef 65be f50b 963e
000001a0: d4cc 413c 984a 123e 4406 91be 160e dbbd
000001b0: 8b72 acbe ca0d 14be e99f 9e3d fabb 93be
000001c0: e8ab e23d 3d60 3b3e 61fa 613d a40f 7dbe
000001d0: af2c 89be 42cb e3bd f523 273e 82ec ac3e
000001e0: dbb0 513e 498d 25bd 0c6a e73d 63fc aebe
000001f0: 6303 a1be 78ce 1e3e 6906 5ebe 245e 263e

gcpn_2.T2T.bias f4 [16]
-0.24922368 -0.16912706 -0.2921647 0.18518785 -0.04325938 0.27112037 0.22127692 0.19498268
0.012265716 -0.11140486 -0.076135926 0.04288476 0.17579027 -0.2461252 0.2953524 -0.038861122
00000000: 7e34 7fbe a52f 2dbe 9d96 95be e2a1 3d3e
00000010: bf30 31bd 4ad0 8a3e 6b96 623e 8aa9 473e
00000020: 24f6 483c 3b28 e4bd 27ed 9bbd eea7 2f3d
00000030: 5d02 343e 3f08 7cbe 6e38 973e d72c 1fbd

gcpn_2.T2T.batch_norm.weight f4 [16]
0.9938388 0.9840501 1.0105618 0.9960752 0.98765796 0.9956244 1.0092545 0.99893
1.010964 1.006408 0.99258655 1.0175472 1.0035998 0.9826132 0.99635345 0.9927086
00000000: 386c 7e3f b5ea 7b3f 175a 813f c9fe 7e3f
00000010: 27d7 7c3f 3ee1 7e3f 402f 813f e0b9 7f3f
00000020: 4567 813f fad1 803f 271a 7e3f fd3e 823f
00000030: f575 803f 8a8c 7b3f 0511 7f3f 2722 7e3f

gcpn_2.T2T.batch_norm.bias f4 [16]
-0.009340308 -0.015465627 0.012861432 -0.018422173 -0.009739409 -0.0003262796 -0.015485338 0.0058923275
0.021412112 0.00830766 -0.0055523985 0.011540494 -0.010914283 -0.016228495 0.0029359611 0.0021027955
00000000: 1708 19bc 8b63 7dbc c1b8 523c 19ea 96bc
00000010: 0b92 1fbc 8210 abb9 37b6 7dbc 6d14 c13b
00000020: 7468 af3c da1c 083c e5f0 b5bb 5714 3d3c
00000030: d2d1 32bc 9ff1 84bc 4169 403b 0ecf 093b

gcpn_2.T2T.batch_norm.running_mean f4 [16]
1.5937757 -3.7881815 -16.139666 23.68495 9.538234 -0.9599002 12.173287 -3.809817
2.7775836 -8.478827 -4.505882 -7.596496 10.161973 -12.153473 4.365855 -3.813251
00000000: d800 cc3f 9171 72c0 091e 81c1 c77a bd41
00000010: 9b9c 1841 05bc 75bf c9c5 4241 0bd4 73c0
00000020: eec3 3140 47a9 07c1 2f30 90c0 7f16 f3c0
00000030: 7197 2241 a074 42c1 16b5 8b40 4e0c 74c0

gcpn_2.T2T.batch_norm.running_var f4 [16]
17.873695 19.230341 245.72954 144.92091 26.898884 52.601635 41.42117 123.28698
20.096981 21.16431 170.50291 109.58066 99.472084 121.481155 70.18056 34.602962
00000000: 54fd 8e41 bdd7 9941 c3ba 7543 c1eb 1043
00000010: ea30 d741 1368 5242 47af 2542 ef92 f642
00000020: 9ec6 a041 8250 a941 bf80 2a43 4c29 db42
00000030: b5f1 c642 5af6 f242 725c 8c42 6f69 0a42

gcpn_2.P2T.weight f4 [16, 16]
-0.19761275 -0.1377626 0.2108119 0.2357879 -0.22306705 0.1867928 0.11524306 0.15559638
0.20031865 -0.13270007 0.06957287 0.10748123 -0.06982904 0.0845475 -0.06391771 0.16762118
-0.06547077 -0.08338755 0.038800426 0.117895156 -0.12772141 0.034488928 0.124284126 -0.012498187
0.07646439 -0.07183262 0.0754934 -0.17544685 -0.13694285 -0.13965124 0.22816758 -0.060014877
-0.008167411 -0.12145176 0.24888581 0.2384181 -0.18213993 -0.2063607 -0.19191186 -0.0074812085
-0.06484356 -0.16072413 -0.09121884 0.039100382 -0.13352282 0.068752155 -0.05483113 -0.12731946
0.029992655 0.21354806 -0.16179174 -0.0014858568 -0.09361703 0.24338146 -0.22361566 -0.23929171
0.24784657 -0.15164544 0.061218847 -0.027598249 -0.0629147 -0.067227736 0.16303933 0.014240621
-0.23293456 -0.13889827 -0.08676275 0.13450353 -0.16167727 0.24070519 -0.058277782 -0.0396919
0.19311 0.12944648 0.20208828 0.15347683 -0.068788625 -0.15940955 -0.012658013 0.21566018
-0.07981343 -0.2446046 0.101566546 0.24859166 -0.0704906 -0.19521838 -0.23017804 0.06638322
-0.0017797902 -0.12430112 0.05409197 0.090120696 0.20616922 0.19030675 -0.042828687 -0.21444926
-0.23638341 0.20840044 0.12256011 0.109679945 -0.23367432 0.2288335 0.24467802 0.21113494
-0.19063565 -0.10601699 -0.17244782 0.23675849 -0.10593777 -0.11163358 0.10996784 -0.13138193
-0.118532866 -0.017767629 -0.036809728 -0.18475343 0.21821602 -0.09721124 0.07175884 0.22797868
0.11765988 0.043522395 0.21504098 0.022031577 -0.106956564 0.23431583 0.066635355 -0.23609665
-0.08618934 -0.16923404 0.21682434 -0.03740721 -0.22972055 -0.010789404 0.14774707 0.06175947
0.071645394 0.0121912025 0.08370792 -0.068380065 -0.084650904 -0.23717514 -0.20589982 0.09401235
-0.15215485 0.030276556 0.09028557 0.009785893 -0.17060933 0.24439205 -0.13044767 0.20476833
-0.1829146 -0.04797818 0.14650305 -0.10499702 0.2079432 -0.16344576 -0.20727415 -0.10929614
0.04108939 0.23690921 -0.12804529 0.087430365 -0.056281555 -0.051042285 0.17329437 -0.18964818
0.022604877 0.2374175 -0.026237272 0.18765979 -0.08201191 0.2048319 -0.23813047 -0.033156782
-0.041700374 0.06777407 0.10269881 0.1928691 -0.03405383 0.002827462 0.17238432 -0.06872715
0.2451926 -0.1754282 -0.017236238 -0.015106332 0.111536704 0.15785375 -0.0520732 -0.20694177
0.119106375 0.054015577 0.10435648 -0.14866497 0.13753131 0.23569433 0.022716641 -0.24272496
0.18536526 -0.19286227 0.050259624 0.049048144 -0.114852324 0.08812535 -0.24556656 0.04527443
-0.16162239 -0.033639573 0.03709924 0.20202859 -0.11253113 0.16940483 -0.024296451 -0.11989094
-0.2239923 -0.21460044 0.25184044 -0.0720882 -0.0035093306 0.07177447 0.17692994 0.21613267
0.19415285 -0.18311447 -0.060224883 -0.1321 -0.15305774 0.071314685 0.2151564 -0.19891153
0.13869001 -0.14392132 -0.06512138 0.19949403 -0.04118054 0.0047520264 -0.19065045 0.20126696
-0.019654356 -0.17460333 0.058800854 -0.17566748 -0.20561942 0.01980963 0.18632896 -0.049618088
0.1073401 0.23170872 0.16028218 -0.12660599 -0.008262765 -0.07330079 -0.188195 0.025171304
00000000: ff5a 4abe a411 0dbe 13df 573e 6272 713e
00000010: b06b 64be 9d46 3f3e 8e04 ec3d a854 1f3e
00000020: 5520 4d3e 87e2 07be 397c 8e3d 1e1f dc3d
00000030: 8702 8fbd 3d27 ad3d 4ae7 82bd e3a4 2b3e
00000040: 8a15 86bd 18c7 aabd 32ed 1e3d 0473 f13d
00000050: 67c9 02be 4344 0d3d ad88 fe3d 32c5 4cbc
00000060: 5d99 9c3d fb1c 93bd 499c 9a3d 57a8 33be
00000070: bf3a 0cbe bc00 0fbe c3a4 693e 29d2 75bd
00000080: 9bd0 05bc b3bb f8bd ecdb 7e3e e023 743e
00000090: e482 3abe 3850 53be 8b84 44be ed24 f5bb
000000a0: b3cc 84bd de94 24be f1d0 babd b927 203d
000000b0: 35ba 08be eecd 8c3d 9b96 60bd 0860 02be
000000c0: 28b3 f53c 58ac 5a3e bcac 25be 15c1 c2ba
000000d0: 49ba bfbd fd38 793e 81fb 64be e308 75be
000000e0: 7ecb 7d3e f148 1bbe 9dc0 7a3d b915 e2bc
000000f0: 6cd9 80bd b2ae 89bd c8f3 263e 7e51 693c
00000100: 6686 6ebe 593b 0ebe abb0 b1bd 4bbb 093e
00000110: ba8e 25be 6c7b 763e afb4 6ebd f993 22bd
00000120: a1be 453e 9e8d 043e 3bf0 4e3e 0829 1d3e
00000130: 0de1 8cbd 423c 23be 8e63 4fbc 06d6 5c3e
00000140: 3975 a3bd a179 7abe 1f02 d03d d08e 7e3e
00000150: 605d 90bd 54e7 47be cbb3 6bbe edf3 873d
00000160: d947 e9ba 9691 febd 8b8f 5d3d 3391 b83d
00000170: 061e 533e c6df 423e 226d 2fbd 9698 5bbe
00000180: 7e0e 72be ed66 553e cc00 fb3d e19f e03d
00000190: 5248 6fbe 5453 6a3e e08c 7a3e c233 583e
000001a0: fe35 43be 701f d9bd 2996 30be d170 723e
000001b0: e7f5 d8bd 25a0 e4bd d236 e13d fc88 06be
000001c0: 5cc1 f2bd 6b8d 91bc ccc5 16bd 0130 3dbe
000001d0: 0574 5f3e b016 c7bd 4cf6 923d 3e73 693e
000001e0: aaf7 f03d 8a44 323d b433 5c3e 917b b43c
000001f0: 0b0c dbbd 7df0 6f3e 1e78 883d 52c3 71be
00000200: 0984 b0bd b04b 2dbe 3307 5e3e 4d38 19bd
00000210: dd3b 6bbe 0ac6 30bc 024b 173e 7ff7 7c3d
00000220: d2ba 923d 9cbd 473c 0f6f ab3d d90a 8cbd
00000230: 745d adbd 0ade 72be 67d7 52be 8c89 c03d
00000240: 7bce 1bbe 8a06 f83c a4e7 b83d 0355 203c
00000250: 36b4 2ebe e941 7a3e 1394 05be caae 513e
00000260: f74d 3bbe c584 44bd e504 163e ad08 d7bd
00000270: 10ef 543e 535e 27be ad3f 54be a8d6 dfbd
00000280: 594d 283d 5498 723e 4e1e 03be b10e b33d
00000290: 7d87 66bd b711 51bd 1474 313e 2233 42be
000002a0: dd2d b93c 931d 733e 8cef d6bc e329 403e
000002b0: dcf5 a7bd 74bf 513e 79d8 73be 68cf 07bd
000002c0: 03ce 2abd 22cd 8a3d c153 d23d 7a7f 453e
000002d0: 077c 0bbd f14c 393b 8485 303e d2c0 8cbd
000002e0: c513 7b3e 73a3 33be 0333 8dbc 8c80 77bc
000002f0: 5b6d e43d 6aa4 213e b54a 55bd 8be8 53be
00000300: 0bee f33d 703f 5d3d dab8 d53d a13b 18be
00000310: 02d5 0c3e db59 713e 4018 ba3c e48c 78be
00000320: 64d0 3d3e b07d 45be 09dd 4d3d b5e6 483d
00000330: b237 ebbd 107b b43d cd75 7bbe ae71 393d
00000340: 5780 25be a6c9 09bd 5ff5 173d 95e0 4e3e
00000350: b976 e6bd 7678 2d3e 5a09 c7bc 6289 f5bd
00000360: 3d5e 65be 38c0 5bbe 3bf1 803e faa2 93bd
00000370: ccfc 65bb 7efe 923d 1f2d 353e e251 5d3e
00000380: 01d0 463e 5c82 3bbe 5eae 76bd 3945 07be
00000390: 2bbb 1cbe 6f0d 923d f651 5c3e 77af 4bbe
000003a0: c104 0e3e 1c60 13be 5c5e 85bd 2a48 4c3e
000003b0: edac 28bd e3b6 9b3b df39 43be ed18 4e3e
000003c0: 2c02 a1bc 37cb 32be 2ad9 703d 2de2 33be
000003d0: e68d 52be ce47 a23c 05cd 3e3e 563c 4bbd
000003e0: 20d5 db3d 0d45 6d3e 0321 243e 00a5 01be
000003f0: 8c60 07bc b91e 96bd 31b6 40be 0d34 ce3c

gcpn_2.P2T.bias f4 [16]
0.18933798 0.21263054 0.022240316 0.05752287 -0.12086741 0.18902442 -0.10230361 -0.17401728
0.03919941 0.1501634 -0.22359766 0.2283898 0.09359625 -0.18212442 -0.055954523 0.21089925
00000000: d1e1 413e d2bb 593e 5331 b63c 1a9d 6b3d
00000010: 5589 f7bd 9e8f 413e 8e84 d1bd 9631 32be
00000020: 8f8f 203d 6fc4 193e c9f6 64be 04df 693e
00000030: 64af bf3d d37e 3abe 9230 65bd f9f5 573e

gcpn_2.P2T.batch_norm.weight f4 [16]
1.0228919 0.9925723 1.0039666 0.99873656 1.0230824 0.9951629 0.9962787 1.0054953
0.99215525 0.99639666 0.99500084 0.9874566 0.98614895 1.0109303 0.9959889 1.0094001
00000000: 1fee 823f 3819 7e3f fa81 803f 33ad 7f3f
00000010: 5df4 823f ffc2 7e3f 1f0c 7f3f 12b4 803f
00000020: e3fd 7d3f da13 7f3f 60b8 7e3f f5c9 7c3f
00000030: 4274 7c3f 2a66 813f 21f9 7e3f 0634 813f

gcpn_2.P2T.batch_norm.bias f4 [16]
0.0077070305 -0.007582188 0.002424744 0.0064612296 0.001634427 0.001167146 0.0026177657 -0.010642309
0.017584365 -0.01563022 -0.010620709 0.005016504 0.0011854538 -0.000119458455 0.026660627 0.0054538082
00000000: 428b fc3b 0174 f8bb 74e8 1e3b b9b8 d33b
00000010: 453a d63a ecfa 983a d28e 2b3b 145d 2ebc
00000020: 160d 903c f20a 80bc 7b02 2ebc 7c61 a43b
00000030: 3b61 9b3a c585 fab8 6367 da3c dcb5 b23b

gcpn_2.P2T.batch_norm.running_mean f4 [16]
-0.88539326 -1.6828233 -1.0397693 -0.62507063 -1.2419337 0.031171983 -0.49053624 -0.21661453
-2.0972238 -0.5767203 0.110427216 -0.9118896 -0.6223477 -0.7725407 -0.19539745 -1.540541
00000000: 22a9 62bf c166 d7bf 2917 85bf a104 20bf
00000010: aff7 9ebf 635c ff3c 9127 fbbe 33d0 5dbe
00000020: ea38 06c0 f1a3 13bf aa27 e23d 9971 69bf
00000030: 2e52 1fbf 3ac5 45bf 4516 48be 7330 c5bf

gcpn_2.P2T.batch_norm.running_var f4 [16]
1.678572 0.50660354 4.033251 0.5118622 0.70560294 3.964075 1.0074469 2.4385884
2.3694322 3.3787918 1.3674126 3.2068577 1.2340027 0.3364443 2.3846703 1.6019613
00000000: 73db d63f c5b0 013f 6410 8140 6709 033f
00000010: 65a2 343f 68b3 7d40 05f4 803f d511 1c40
00000020: c7a4 1740 203e 5840 6007 af3f 283d 4d40
00000030: cdf3 9d3f 6d42 ac3e 709e 1840 110d cd3f

gcpn_2.T2P.weight f4 [16, 16]
-0.18120173 -0.071794175 0.08740564 -0.21309488 0.1369316 0.14364292 0.1661118 -0.14625601
0.2555532 -0.14414418 0.2534525 -0.23010387 -0.22160861 0.15605165 0.02224161 0.018264072
-0.1401008 -0.100131474 -0.068832934 -0.24939732 0.005610589 0.04605259 -0.010032052 0.080463834
0.24093302 0.068669684 -0.098324515 -0.092509046 -0.1545922 -0.1742068 -0.04280102 -0.02995449
0.120608464 -0.09472843 0.20522515 -0.17685872 0.0021654807 0.23685397 0.24432941 -0.14134388
0.059013292 0.039950956 -0.11311239 -0.08645037 0.068176515 -0.17057338 0.041451808 0.10932295
-0.11059253 0.1950398 -0.014773019 0.10572021 0.24518268 -0.07339574 0.1366221 -0.08909132
-0.036233816 -0.036019955 -0.0032490199 -0.11691958 0.045083664 0.027635645 0.14999132 -0.06999559
0.01981583 -0.092325546 -0.20638585 0.09998989 0.01383147 -0.10164028 -0.09047097 0.062355205
-0.050518233 0.16118442 0.020953445 0.096737206 0.10393038 -0.06444482 0.108931586 0.18786137
0.010113352 0.03710241 0.012550193 0.17472152 -0.11318706 -0.12494374 0.118308425 -0.21539131
0.0109005235 -0.12455337 0.17237918 -0.22985676 0.15115526 0.2349507 0.047132626 -0.01784403
0.24430668 -0.10261865 -0.024699058 -0.11147368 -0.021895297 0.047892697 0.035334796 -0.04829544
-0.25372592 0.021571035 0.0012412455 0.032271516 0.18639849 0.26004827 -0.13804185 -0.012360797
-0.099341445 -0.22146441 -0.17923772 0.23004918 0.15649304 0.13027997 0.13436584 -0.20984508
0.028465448 0.2378826 -0.13593079 0.21910855 0.068944946 0.187019 -0.10387241 0.115490526
-0.22250125 -0.020176457 0.080876276 0.06941914 0.20538501 0.24327517 0.24710068 0.166448
0.17591748 -0.031662993 -0.18312897 -0.10185298 -0.055670578 -0.12812164 0.12880625 0.081452504
0.0429213 0.06553762 0.22569722 0.0962185 -0.21498396 -0.17851095 0.11127877 0.03849344
0.12267709 -0.24805851 -0.22487344 0.15956338 0.16597855 -0.22289997 0.10036874 -0.1889288
0.18032914 0.07676241 0.25201958 -0.2540484 -0.25041813 0.16372849 0.2064639 0.14508763
0.16491027 -0.21261264 0.1831081 -0.2432557 0.052883077 -0.15948872 -0.10220419 0.03986491
-0.10452134 -0.030403057 -0.22772288 -0.2378755 0.098457895 -0.11093089 -0.15907334 -0.09671314
-0.21201846 -0.19360375 0.15807071 0.12571003 0.030875217 -0.1259937 0.08281526 0.011177129
-0.18627505 0.05011399 0.22608991 -0.256445 -0.25748065 0.030166896 0.1773989 -0.15507409
0.05666695 0.16047062 0.06049457 0.05271717 0.24993914 0.14603487 -0.14279339 0.024473792
0.120958835 0.21476722 -0.25321993 0.13382263 -0.0803409 -0.23852554 0.048325792 -0.14599366
0.033293173 -0.15949544 -0.20008792 -0.032337524 -0.092783466 0.15087265 0.010188485 0.18444708
0.043274872 -0.0743896 0.16346426 0.007689989 0.041773487 -0.088355824 0.0012585084 -0.0496393
-0.02631261 -0.20562226 -0.006538587 -0.22188456 -0.066506416 0.1377546 -0.15904869 -0.16869943
-0.055145953 -0.06621042 0.047399424 0.037037227 0.12703831 -0.1688452 -0.009372449 0.14619598
0.22302325 -0.016124716 -0.13222338 0.0777908 0.14147435 -0.15477094 -0.13964614 0.11892866
00000000: f28c 39be d308 93bd ba01 b33d 8b35 5abe
00000010: cc37 0c3e 2117 133e 3619 2a3e 23c4 15be
00000020: ded7 823e 889a 13be 87c4 813e 59a0 6bbe
00000030: 5eed 62be 01cc 1f3e 0934 b63c 899e 953c
00000040: 9676 0fbe bb11 cdbd 48f8 8cbd 0362 7fbe
00000050: 08d9 b73b a4a1 3c3d 7a5d 24bc 39ca a43d
00000060: 25b7 763e b1a2 8c3d 5d5e c9bd 6275 bdbd
00000070: 6b4d 1ebe 4463 32be 1f50 2fbd 1e63 f5bc
00000080: 9201 f73d fb00 c2bd 8b26 523e 741a 35be
00000090: bdea 0d3b d989 723e 7d31 7a3e 73bc 10be
000000a0: ecb7 713d 9da3 233d 78a7 e7bd e40c b1bd
000000b0: 21a0 8b3d caaa 2ebe 5fc9 293d b6e4 df3d
000000c0: 567e e2bd 83b8 473e 880a 72bc d683 d83d
000000d0: 2b11 7b3e 8150 96bd aae6 0b3e 8375 b6bd
000000e0: e969 14bd a989 13bd 82ed 54bb 8873 efbd
000000f0: a6a9 383d 2664 e23c 5397 193e d959 8fbd
00000100: cf54 a23c 2d15 bdbd d056 53be 80c7 cc3d
00000110: 649d 623c c728 d0bd d848 b9bd 2c68 7f3d
00000120: 35ec 4ebd 870d 253e 8fa6 ab3c 281e c63d
00000130: 73d9 d43d a5fb 83bd 8617 df3d bb5e 403e
00000140: 79b2 253c b2f8 173d 539f 4d3c 33ea 323e
00000150: 9ece e7bd 81e2 ffbd b04b f23d 8a8f 5cbe
00000160: 1c98 323c d615 ffbd 2b84 303e 925f 6bbe
00000170: 72c8 1a3e eb96 703e 240e 413d a52d 92bc
00000180: 882b 7a3e ba29 d2bd ae55 cabc 504c e4bd
00000190: c45d b3bc 222b 443d 38bb 103d 70d1 45bd
000001a0: 5de8 81be bdb5 b03c 4ab1 a23a 232f 043d
000001b0: 3fdf 3e3e 0c25 853e d85a 0dbe f184 4abc
000001c0: 8773 cbbd 91c7 62be 188a 37be 0392 6b3e
000001d0: b63f 203e 1d68 053e 3397 093e a1e1 56be
000001e0: 5f30 e93c 7f97 733e 7131 0bbe fe5d 603e
000001f0: 0233 8d3d e981 3f3e 0fbb d4bd 4c86 ec3d
00000200: 5ed7 63be 1949 a5bc 76a2 a53d 9f2b 8e3d
00000210: 7350 523e 201d 793e f607 7d3e 5871 2a3e
00000220: b623 343e 0eb1 01bd 2986 3bbe 4c98 d0bd
00000230: d506 64bd 5232 03be c9e5 033e 92d0 a63d
00000240: 3fce 2f3d 9638 863d 2c1d 673e 340e c53d
00000250: c124 5cbe 93cb 36be 20e6 e33d 4cab 1d3d
00000260: 203e fb3d 0d03 7ebe 3945 66be 9564 233e
00000270: 48f6 293e e43f 64be 208e cd3d 8d76 41be
00000280: 34a8 383e 9c35 9d3d b608 813e a212 82be
00000290: ce36 80be 71a8 273e 466b 533e da91 143e
000002a0: 3dde 283e 21b7 59be b180 3b3e 0618 79be
000002b0: ed9b 583d 0351 23be 6e50 d1bd 6349 233d
000002c0: 490f d6bd d50f f9bc 3030 69be a395 73be
000002d0: 4ba4 c93d bc2f e3bd 1fe4 22be 8a11 c6bd
000002e0: 5e1b 59be 1040 46be 4add 213e 21ba 003e
000002f0: 06ee fc3c 7e04 01be 0c9b a93d 4720 373c
00000300: e3be 3ebe 5444 4d3d 1d84 673e c24c 83be
00000310: 81d4 83be 9120 f73c 0fa8 353e becb 1ebe
00000320: 9b1b 683d 6952 243e 27c9 773d f6ed 573d
00000330: 0cf0 7f3e 2a8a 153e 6e38 12be 437d c83c
00000340: 44b9 f73d f0eb 5b3e 0ba6 81be cd08 093e
00000350: c589 a4bd 0a40 74be 44f1 453d 5d7f 15be
00000360: 6c5e 083d c652 23be d9e3 4cbe 5a74 04bd
00000370: 4205 bebd 5c7e 1a3e 9aed 263c b2df 3c3e
00000380: fe40 313d 9359 98bd 2d63 273e 4efc fb3b
00000390: ad1a 2b3d e6f3 b4bd 89f4 a43a 9452 4bbd
000003a0: 8b8d d7bc a48e 52be a541 d6bb b535 63be
000003b0: 8434 88bd 8b0f 0d3e a9dd 22be 8bbf 2cbe
000003c0: b9e0 61bd 5499 87bd e625 423d 59b4 173d
000003d0: 5516 023e c2e5 2cbe e68e 19bc 66b4 153e
000003e0: 3560 643e fb17 84bc 9165 07be c850 9f3d
000003f0: a7de 103e 467c 1ebe 66ff 0ebe df90 f33d

gcpn_2.T2P.bias f4 [16]
-0.018166833 -0.2365092 -0.1443987 0.09916046 -0.084873244 0.17198871 0.19569817 0.036688875
-0.020807888 -0.07979336 -0.012378894 0.045383066 -0.18966544 -0.059524965 -0.20791253 0.15268944
00000000: 9cd2 94bc 782f 72be 41dd 13be a414 cb3d
00000010: 06d2 adbd cf1d 303e 1a65 483e 1347 163d
00000020: 4e75 aabc b36a a3bd d8d0 4abc 98e3 393d
00000030: a837 42be 73d0 73bd 06e7 54be 9f5a 1c3e

gcpn_2.T2P.batch_norm.weight f4 [16]
0.9940758 1.0048716 1.0040135 1.0121437 0.9916711 0.99221486 1.0124699 0.99790406
1.0056623 1.001056 0.99098337 1.0163107 1.0001302 0.9910919 1.0109766 1.0049154
00000000: c07b 7e3f a29f 803f 8483 803f ed8d 813f
00000010: 28de 7d3f cb01 7e3f 9d98 813f a476 7f3f
00000020: 8bb9 803f 9a22 803f 16b1 7d3f 7816 823f
00000030: 4404 803f 33b8 7d3f ae67 813f 11a1 803f

gcpn_2.T2P.batch_norm.bias f4 [16]
0.0065182066 -0.001338602 0.0041309325 0.014971383 0.0026223427 -0.011331008 0.0047095343 -0.013485572
0.0145024145 -0.005630275 -0.0022338808 0.015754394 -0.0049701054 -0.0035815355 0.0020068083 0.01353752
00000000: ae96 d53b 0874 afba c65c 873b 884a 753c
00000010: 9cdb 2b3b b1a5 39bc 7052 9a3b 97f2 5cbc
00000020: 899b 6d3c 2b7e b8bb 4d66 12bb 5c0f 813c
00000030: 44dc a2bb 32b8 6abb a884 033b 79cc 5d3c

gcpn_2.T2P.batch_norm.running_mean f4 [16]
0.30886963 -1.0825313 0.29433373 0.4871901 0.17712958 0.46012747 0.24724962 0.34636572
0.54219824 -0.2965023 0.58141214 -0.85080737 0.22284761 -0.47590044 -1.0005962 0.16110444
00000000: 2924 9e3e 6390 8abf e9b2 963e fb70 f93e
00000010: 7561 353e d495 eb3e 012f 7d3e d956 b13e
00000020: 81cd 0a3f 26cf 97be 6dd7 143f 83ce 59bf
00000030: 2a32 643e 39a9 f3be 8913 80bf 90f8 243e

gcpn_2.T2P.batch_norm.running_var f4 [16]
44.843334 39.242077 26.645844 12.356234 30.744646 9.753041 4.679975 38.901794
40.60528 11.907449 51.372704 58.394894 34.233673 11.586663 39.839306 19.170246
00000000: 935f 3342 e3f7 1c42 b02a d541 22b3 4541
00000010: 09f5 f541 750c 1c41 5bc2 9540 709b 1b42
00000020: cf6b 2242 e984 3e41 a67d 4d42 5f94 6942
00000030: 48ef 0842 f962 3941 735b 1f42 aa5c 9941

gcpn_3.P2P.weight f4 [64, 16]
-0.17032026 0.21540551 -0.08026425 -0.14303847 0.115824506 0.04268973 0.17527598 0.100011334
-0.2527308 0.14170808 -0.059016556 -0.10585762 0.15627335 0.17550239 -0.22172245 -0.029790612
0.20115529 0.09340973 0.21622926 -0.10127007 -0.1432878 0.20551012 0.103657916 0.2352783
-0.104186825 -0.16117384 -0.026943475 -0.24541356 0.10252023 0.17055573 0.055998288 -0.028271677
0.10795962 -0.17950802 0.24500433 -0.2429421 -0.22708024 -0.058077283 0.21398006 0.036530174
0.09900394 -0.18075952 0.08864702 -0.036009204 0.108885646 0.18455687 0.08425547 -0.020042894
-0.020324789 -0.16735895 -0.08819048 0.1607252 -0.10737205 0.1438575 -0.1040499 -0.06839765
0.004563823 -0.23073946 -0.004208021 -0.025261339 -0.024921438 -0.05981243 0.18918572 0.17770217
-0.16558161 0.11481964 -0.20662326 -0.20227154 0.07568125 0.010839897 -0.10740033 -0.23504269
-0.10917004 0.07420754 -0.24104543 -0.22515896 0.031017987 -0.18256459 -0.21473375 -0.10321647
-0.055359423 -0.23130026 -0.16791318 0.0130632715 -0.23126005 -0.04299234 -0.1768772 -0.17514537
0.11422701 -0.17881793 -0.18966992 0.12725261 0.027666125 0.22599696 -0.057617877 -0.11670912
-0.039431974 -0.007531733 0.19197077 -0.2623432 -0.0113933105 0.10176589 -0.13163318 -0.12518871
0.12429102 -0.23688918 0.05636703 -0.21264854 0.11227 -0.219628 0.14987056 -0.23011233
-0.20351355 0.0025623618 0.20674007 -0.21503468 -0.11454951 0.2190401 -0.049885914 0.10151009
-0.23000538 -0.06577419 -0.12116306 0.2083089 0.106951974 -0.19280168 0.043588143 0.00044760565
-0.10901077 -0.14608318 -0.08155586 0.1930682 -0.1708047 -0.19429937 -0.07893771 -0.0011925552
0.06704786 0.012540311 -0.058654305 -0.15395547 -0.041087188 -0.09513595 0.19477758 -0.24054885
-0.15377899 -0.20607817 -0.04797222 0.19586466 0.22240146 -0.21715808 -0.0086984215 0.14711697
0.1081278 0.20483431 -0.0069993604 -0.15240002 0.17469281 -0.08037766 0.12648502 -0.05959737
0.101237535 0.22813292 0.23994502 -0.23625965 -0.15550332 -0.10839248 -0.1687228 0.24454805
-0.010776968 -0.1533335 -0.10240933 -0.16310525 0.09408241 -0.21070306 -0.2223214 -0.23394185
0.118775345 0.13322522 -0.15883689 0.064596735 0.17454636 0.041580796 -0.052888006 0.014392251
-0.027685558 0.12168831 -0.17237209 0.13722631 0.14637718 -0.14860655 0.20917001 0.241175
-0.09471858 -0.0842355 0.1280953 -0.20217523 0.10658931 0.064574175 0.15667991 -0.2155837
-0.2051169 0.113662384 0.09467013 -0.23248667 -0.12724519 -0.23556544 -0.19243842 -0.105705544
0.20355535 -0.054504577 0.13130194 0.24013282 0.106186725 -0.22541626 0.1255599 0.084799506
0.1865761 -0.2606457 0.14149442 0.20408957 -0.2404361 0.02570651 0.2144295 -0.1945842
0.08158832 0.12404448 0.067092665 0.23772751 0.21243224 0.20411183 -0.031336773 0.21298937
-0.23593506 -0.13063996 -0.05314403 -0.07167093 0.22849528 0.12924746 0.16299029 0.17583531
-0.19512914 -0.02540569 0.03206367 0.06602816 0.12223045 -0.09746776 -0.07384242 0.20627996
-0.069061436 -0.17541468 0.16361713 0.17336027 -0.08496243 -0.05170835 -0.17411552 -0.21263738
00000000: 6f68 2ebe 4393 5c3e 9561 a4bd ad78 12be
00000010: 6635 ed3d 6ddb 2e3d 8c7b 333e bed2 cc3d
00000020: ee65 81be ec1b 113e 58bb 71bd e1cb d8bd
00000030: 1f06 203e e6b6 333e 360b 63be 710b f4bc
00000040: a7fb 4d3e 9a4d bf3d 346b 5d3e af66 cfbd
00000050: 09ba 12be 3f71 523e 9a4a d43d cbec 703e
00000060: e75f d5bd c10a 25be 90b8 dcbc b14d 7bbe
00000070: 20f6 d13d 29a6 2e3e 765e 653d 019a e7bc
00000080: ef19 dd3d f3d0 37be 6ae2 7a3e d0c5 78be
00000090: b987 68be 72e2 6dbd 971d 5b3e aaa0 153d
000000a0: 94c2 ca3d 0619 39be 928c b53d 637e 13bd
000000b0: 70ff de3d 7afc 3c3e 228e ac3d ff30 a4bc
000000c0: 2c80 a6bc 2560 2bbe 369d b4bd 2695 243e
000000d0: e1e5 dbbd 614f 133e 1d18 d5bd 1114 8cbd
000000e0: 1f8c 953b f746 6cbe 70e3 89bb def0 cebc
000000f0: 0b28 ccbc e1fd 74bd e7b9 413e 8ff7 353e
00000100: 3a8e 29be 8f26 eb3d 0c95 53be 4520 4fbe
00000110: c5fe 9a3d d399 313c b4f4 dbbd 08af 70be
00000120: 8b94 dfbd 1ffa 973d 9dd4 76be 1290 66be
00000130: 6f19 fe3c 36f2 3abe 2ae3 5bbe 2863 d3bd
00000140: 90c0 62bd fad9 6cbe 6ff1 2bbe 5507 563c
00000150: 6fcf 6cbe bc18 30bd 4c1f 35be 4f59 33be
00000160: daef e93d 0c1c 37be d538 42be 824e 023e
00000170: 12a4 e23c bf6b 673e b900 6cbd 3105 efbd
00000180: 6c83 21bd c1cc f6bb fc93 443e d951 86be
00000190: 02ab 3abc a36a d03d d9ca 06be 7831 00be
000001a0: 4a8c fe3d 1493 72be 1de1 663d 8ac0 59be
000001b0: d0ed e53d 2ae6 60be ab77 193e 91a2 6bbe
000001c0: db65 50be 4ced 273b abb3 533e 0d32 5cbe
000001d0: ef98 eabd 0c4c 603e 2c55 4cbd 86e4 cf3d
000001e0: 8886 6bbe 9eb4 86bd 5724 f8bd ee4e 553e
000001f0: a309 db3d ce6d 45be 7b89 323d 9dac ea39
00000200: 0a41 dfbd d496 15be c206 a7bd acb3 453e
00000210: 6de7 2ebe 6af6 46be 18aa a1bd 834f 9cba
00000220: 6350 893d e075 4d3c 7f3f 70bd 81a6 1dbe
00000230: 0a4b 28bd a3d6 c2bd c673 473e 7052 76be
00000240: 3d78 1dbe 2806 53be 857e 44bd bf90 483e
00000250: 35bd 633e b05e 5ebe d383 0ebc d5a5 163e
00000260: 1c72 dd3d 16c0 513e e45a e5bb c00e 1cbe
00000270: ace2 323e 0b9d a4bd 4a85 013e 5f1c 74bd
00000280: a055 cf3d ad9b 693e 26b4 753e 0dee 71be
00000290: 433c 1fbe e0fc ddbd abc5 2cbe ce6a 7a3e
000002a0: e191 30bc 7503 1dbe fcbb d1bd 1005 27be
000002b0: 47ae c03d 8bc2 57be 39a8 63be 748e 6fbe
000002c0: 7d40 f33d 316c 083e 23a6 22be 4b4b 843d
000002d0: 48bc 323e a050 2a3d 18a1 58bd 7acd 6b3c
000002e0: d3cc e2bc b837 f93d 4f82 30be 0e85 0c3e
000002f0: e6e3 153e 512c 18be aa30 563e 94f6 763e
00000300: d1fb c1bd a983 acbd 6a2b 033e 0607 4fbe
00000310: 7f4b da3d 773f 843d b370 203e f9c1 5cbe
00000320: 2a0a 52be d3c7 e83d 6ae2 c13d fc10 6ebe
00000330: 904c 02be 1138 71be 940e 45be 267c d8bd
00000340: d070 503e 3140 5fbd 0474 063e 61e5 753e
00000350: 6d78 d93d 85d3 66be c692 003e 5dab ad3d
00000360: ce0d 3f3e 5a73 85be eae3 103e dbfc 503e
00000370: e234 76be 7596 d23c 6893 5b3e 1541 47be
00000380: c717 a73d 080b fe3d e167 893d d76e 733e
00000390: d687 593e b102 513e fd5a 00bd e319 5a3e
000003a0: f698 71be 7bc6 05be 8ead 59bd 35c8 92bd
000003b0: abfa 693e 7259 043e ede6 263e 2c0e 343e
000003c0: efcf 47be 981f d0bc 3255 033d c639 873d
000003d0: f553 fa3d 2d9d c7bd b23a 97bd 0e3b 533e
000003e0: 1570 8dbd e89f 33be 408b 273e 5b85 313e
000003f0: c800 aebd 23cc 53bd 574b 32be 9dbd 59be

gcpn_3.P2P.bias f4 [64]
0.062193155 0.2427312 -0.23913217 -0.09660211 -0.16872303 -0.12115403 0.049101856 0.15285754
-0.1891605 0.16194165 0.20861016 -0.12359986 0.043878887 -0.12706129 0.053453445 -0.11448037
-0.09842969 -0.16841441 -0.20816796 0.19945079 -0.031772617 -0.006556852 -0.122747175 0.17443672
-0.14297676 -0.10181252 -0.19453856 -0.20917596 0.22314394 -0.19482078 -0.03436021 -0.07274149
0.09207798 0.06751201 -0.19302118 0.22420211 -0.24848902 0.025984421 -0.02128378 -0.060234636
0.17122568 0.21106485 0.029711435 -0.08998037 0.18512675 0.15791956 0.044738706 -0.07010597
0.011529296 0.22298013 0.026066046 -0.049037807 -0.21174979 -0.13372326 0.1801268 -0.006912821
-0.016307654 0.09742541 -0.16452901 -0.017690817 -0.0700451 0.13068472 0.2026784 0.15757617
00000000: 40be 7e3d 878e 783e 10df 74be 54d7 c5bd
00000010: bbc5 2cbe 9b1f f8bd 071f 493d b086 1c3e
00000020: 4ab3 41be 08d4 253e e79d 553e ec21 fdbd
00000030: 59ba 333d 5b1c 02be 00f2 5a3d af74 eabd
00000040: 8195 c9bd d474 2cbe fb29 55be d43c 4c3e
00000050: 0124 02bd dcda d6bb df62 fbbd 8a9f 323e
00000060: 8068 12be 1583 d0bd 1e35 47be 3932 56be
00000070: d87f 643e 197f 47be 4bbd 0cbd 7ef9 94bd
00000080: 6193 bc3d bd43 8a3d 58a7 45be 3d95 653e
00000090: e873 7ebe 48dd d43c 525b aebc 98b8 76bd
000000a0: c955 2f3e 6221 583e 6565 f33c a147 b8bd
000000b0: de91 3d3e aab5 213e ef3f 373d b893 8fbd
000000c0: 5fe5 3c3c e754 643e 7688 d53c dedb 48bd
000000d0: f0d4 58be c0ee 08be 2973 383e f284 e2bb
000000e0: a197 85bc f986 c73d 4b7a 28be 55ec 90bc
000000f0: ce73 8fbd 37d2 053e ed8a 4f3e a65b 213e

gcpn_3.P2P.batch_norm.weight f4 [64]
0.995598 0.9913875 0.9942444 1.0003839 1.002974 1.012985 1.002678 0.9949136
1.0010117 1.0010202 1.0030572 0.99552244 1.0064198 1.0154265 1.0016493 0.9919251
1.0030975 1.0025645 0.99140394 0.99133164 0.9991865 1.0046829 0.994655 0.99746996
1.000434 1.0030564 0.99732023 1.0000705 0.9942629 1.0046239 1.0001004 1.000542
1.0045322 0.987281 1.0019877 0.99422646 0.99106663 1.0051639 1.0104536 0.999456
1.0052422 0.9840619 1.0086169 1.0017805 1.0041856 0.99574095 1.0029479 0.9926394
0.9952444 1.0109521 1.0049616 0.9992058 1.0062541 1.0065966 0.9923412 1.0038078
0.98326916 1.0010412 0.9990563 1.0013087 0.9980656 0.990637 0.99093765 0.9901616
00000000: 83df 7e3f 92cb 7d3f cd86 7e3f 940c 803f
00000010: 7461 803f 7ea9 813f c157 803f a8b2 7e3f
00000020: 2721 803f 6e21 803f 2e64 803f 8fda 7e3f
00000030: 5dd2 803f 7ff9 813f 0b36 803f ceee 7d3f
00000040: 8065 803f 0954 803f a6cc 7d3f e9c7 7d3f
00000050: b0ca 7f3f 7399 803f b6a1 7e3f 315a 7f3f
00000060: 390e 803f 2764 803f 6150 7f3f 4f02 803f
00000070: 0388 7e3f 8497 803f 4a03 803f c311 803f
00000080: 8394 803f 73be 7c3f 2241 803f a085 7e3f
00000090: 8bb6 7d3f 36a9 803f 8b56 813f 59dc 7f3f
000000a0: c7ab 803f 7beb 7b3f 5c1a 813f 583a 803f
000000b0: 2789 803f e1e8 7e3f 9960 803f 9e1d 7e3f
000000c0: 56c8 7e3f e166 813f 95a2 803f f4cb 7f3f
000000d0: efcc 803f 28d8 803f 130a 7e3f c67c 803f
000000e0: 87b7 7b3f 1e22 803f 27c2 7f3f e22a 803f
000000f0: 3a81 7f3f 639a 7d3f 17ae 7d3f 3b7b 7d3f

gcpn_3.P2P.batch_norm.bias f4 [64]
-0.008373415 -0.009429886 -0.0062809545 0.0032333692 0.00061028334 0.023335395 0.00037169 -0.00013657198
0.0007066206 0.005780742 0.0019290553 0.0028033205 -0.007991916 0.014930916 0.0030120483 -0.009566617
0.0042775553 0.016385933 5.8720478e-05 -0.014594544 0.003811861 -0.0043206937 -0.011351055 -0.0029430834
0.0004913321 -0.0066822325 -0.0074200183 -0.0016726328 -0.016371522 0.008629635 0.009230132 0.01616723
-0.0021638058 -0.0031577765 0.0009548948 -0.011559337 -0.021265212 0.004341572 0.011751279 0.0001428625
0.0028275377 -0.008032526 0.0020979028 0.005810198 -0.010245805 -0.006905929 -0.003963997 0.019005543
0.00027047715 0.010701646 0.014437846 0.0011136296 0.017398354 -0.002832277 -0.007494604 0.0068170973
0.0018924526 0.00577784 -0.0018811446 0.0012646605 -0.0120286625 -0.015944347 -0.0048729167 -0.006237065
00000000: a630 09bc cf7f 1abc 77d0 cdbb efe6 533b
00000010: 6cfb 1f3a df29 bf3c 63df c239 c334 0fb9
00000020: 813c 393a 616c bd3b 5bd8 fc3a eab7 373b
00000030: 86f0 02bc cda0 743c c965 453b 4dbd 1cbc
00000040: bc2a 8c3b cb3b 863c a24a 7638 f41d 6fbc
00000050: 6ad0 793b 9b94 8dbb c7f9 39bc bfe0 40bb
00000060: bdcc 003a a1f6 dabb a023 f3bb 3e3c dbba
00000070: 921d 86bc 5063 0d3c fb39 173c 2471 843c
00000080: a3ce 0dbb b3f2 4ebb e851 7a3a 6063 3dbc
00000090: 6234 aebc bf43 8e3b 7088 403c 5ccd 1539
000000a0: 364e 393b db9a 03bc f87c 093b 7963 be3b
000000b0: 05de 27bc 224b e2bb 6be4 81bb 83b1 9b3c
000000c0: d4ce 8d39 f555 2f3c b78c 6c3c 35f7 913a
000000d0: fe86 8e3c b99d 39bb 4c95 f5bb f561 df3b
000000e0: 2c0c f83a 0954 bd3b bd90 f6ba f7c2 a53a
000000f0: de13 45bc b89d 82bc fdac 9fbb 4b60 ccbb

gcpn_3.P2P.batch_norm.running_mean f4 [64]
-0.7176734 0.05353567 0.31756002 -0.14793454 -0.54878205 1.0907421 0.117050886 0.051247176
0.06583555 -1.2503716 0.3251997 -0.5196043 -0.35611135 0.4445086 -0.78152347 -0.47798365
-1.1185862 -0.1356296 -0.9845924 -0.7156093 0.3595629 -0.7816302 0.51075184 -0.929475
-0.9925171 0.6093083 1.063962 0.5353793 0.71350086 -0.6734049 0.4411325 -1.604423
1.558663 -0.4484718 -0.5055509 0.18917577 -0.0665955 -1.534112 -0.6306778 -0.68436456
-0.2039255 0.469213 -0.32306638 -0.14788592 -0.32102925 -1.7549176 -1.293138 -0.1348451
-1.4067528 0.9628914 -0.45227396 0.39347503 -0.5368439 0.08582643 1.2997319 -1.05083
1.4098847 -0.3943048 -1.2187063 0.17762126 -0.081160426 0.7506072 0.7153854 -0.26962918
00000000: 72b9 37bf 3848 5b3d 3a97 a23e 277c 17be
00000010: fb7c 0cbf 709d 8b3f 60b8 ef3d 8fe8 513d
00000020: cad4 863d 2d0c a0bf 9380 a63e ca04 05bf
00000030: 3a54 b6be a296 e33e ec11 48bf 46ba f4be
00000040: d52d 8fbf 7ce2 0abe 3f0e 7cbf 2c32 37bf
00000050: a118 b83e eb18 48bf a2c0 023f 13f2 6dbf
00000060: 9a15 7ebf a1fb 1b3f e82f 883f 9e0e 093f
00000070: fea7 363f 4364 2cbf 1edc e13e bc5d cdbf
00000080: 4582 c73f 199e e5be c96b 01bf 4bb7 413e
00000090: 3963 88bd c85d c4bf 1a74 21bf 8432 2fbf
000000a0: d9d1 50be b03c f03e f568 a5be 686f 17be
000000b0: f25d a4be 24a1 e0bf 8c85 a5bf d514 0abe
000000c0: 7a10 b4bf 0d80 763f 7490 e7be 8f75 c93e
000000d0: 9a6e 09bf c4c5 af3d 9d5d a63f 9981 86bf
000000e0: 1a77 b43f 52e2 c9be 91fe 9bbf 59e2 353e
000000f0: 7037 a6bd cb27 403f 7f23 373f d60c 8abe

gcpn_3.P2P.batch_norm.running_var f4 [64]
4.771532 30.023834 35.326344 4.494761 53.88888 47.937275 51.89598 20.55196
19.82541 36.610695 40.790783 36.22377 24.900957 6.1787534 70.4389 2.359432
6.409304 6.3785753 12.445889 29.922949 15.953503 82.81403 11.215808 21.938194
10.943889 52.97444 22.228844 14.122775 17.814743 26.103172 14.800084 50.117718
34.91275 13.437326 7.8544736 2.9996564 22.99017 25.956228 2.5170674 16.990707
10.82743 13.57955 2.2028058 24.03257 3.6978083 42.09386 42.15887 3.833662
25.471142 7.548218 2.8403459 48.51712 24.406317 6.2224627 7.388676 17.049612
24.017818 6.1779532 36.179928 7.3303432 33.15654 15.976186 2.128132 19.965836
00000000: 64b0 9840 d030 f041 2d4e 0d42 15d5 8f40
00000010: 378e 5742 c5bf 3f42 7c95 4f42 6a6a a441
00000020: 719a 9e41 5a71 1242 c329 2342 24e5 1042
00000030: 2935 c741 59b8 c540 b8e0 8c42 ef00 1740
00000040: 0519 cd40 4a1d cc40 5d22 4741 3362 ef41
00000050: 8c41 7f41 c9a0 a542 f373 3341 6c81 af41
00000060: 2b1a 2f41 d4e5 5342 acd4 b141 e3f6 6141
00000070: 9884 8e41 4cd3 d041 25cd 6c41 8b78 4842
00000080: a8a6 0b42 4aff 5641 d957 fb40 5ffa 3f40
00000090: deeb b741 5ba6 cf41 a217 2140 f8ec 8741
000000a0: 273d 2d41 d645 5941 c5fa 0c40 b442 c041
000000b0: e4a8 6c40 1d60 2842 afa2 2842 b85a 7540
000000c0: e6c4 cb41 008b f140 3ac8 3540 8811 4242
000000d0: 2340 c341 6a1e c740 0970 ec40 9b65 8841
000000e0: 7e24 c041 cbb1 c540 3fb8 1042 2c92 ea40
000000f0: 4ca0 0442 759e 7f41 5133 0840 08ba 9f41
