dtefm_middle/resource/trained_memory/PPO_actor_lock_s.pth (torch, 289295 bytes, 104 tensors)

gcpn_1.P2P.weight f4 [8, 3]
0.29159093 -0.26101443 -0.115197055 0.2778834 -0.53833824 0.34969467 -0.11714096 0.29560134
0.08003084 -0.07965577 0.15077639 0.022133686 0.21273713 -0.22270238 -0.042447776 -0.05211111
0.08351998 0.0019713584 0.5083559 0.18663077 -0.20463777 -0.34899908 -0.09829872 -0.24774058
00000000: 684b 953e afa3 85be 6fec ebbd bc46 8e3e
00000010: 89d0 09bf 2e0b b33e 9ae7 efbd 0f59 973e
00000020: 36e7 a33d 9022 a3bd 2065 1a3e b451 b53c
00000030: c3d7 593e 180c 64be b8dd 2dbd 7672 55bd
00000040: 860c ab3d e831 013b 9d23 023f 231c 3f3e
00000050: 908c 51be 02b0 b2be d750 c9bd b5af 7dbe

gcpn_1.P2P.bias f4 [8]
-0.17920423 0.024559079 0.34480548 0.3141352 -0.5683829 0.35097057 0.1580765 0.54757416
00000000: 5081 37be 1f30 c93c 588a b03e 54d6 a03e
00000010: 8b81 11bf 6ab2 b33e cede 213e d22d 0c3f

gcpn_1.P2P.batch_norm.weight f4 [8]
0.993219 1.0105264 1.0006678 1.0006704 1.0042064 0.9925161 0.99815595 1.0006499
00000000: 9a43 7e3f ee58 813f e215 803f f815 803f
00000010: d689 803f 8915 7e3f 2687 7f3f 4c15 803f

gcpn_1.P2P.batch_norm.bias f4 [8]
-0.0044757775 0.012303009 0.00084279344 -0.00065450906 -0.001979445 -0.008752517 -0.007072715 0.0030265606
00000000: 8ba9 92bb 8f92 493c e9ee 5c3a 5c93 2bba
00000010: 94b9 01bb b866 0fbc 3cc2 e7bb 4359 463b

gcpn_1.P2P.batch_norm.running_mean f4 [8]
-0.49439695 -0.26200315 0.75211257 0.49697724 -0.8049742 0.4398444 0.45144936 0.050805096
00000000: 9921 fdbe 4725 86be 738a 403f cd73 fe3e
00000010: ca12 4ebf 4933 e13e 5f24 e73e 0119 503d

gcpn_1.P2P.batch_norm.running_var f4 [8]
0.15920678 0.5653264 0.20272225 0.050018802 0.10839454 0.014792202 0.30510852 0.17023152
00000000: 1a07 233e 3bb9 103f 6c96 4f3e 84e0 4c3d
00000010: f5fd dd3d fe5a 723c 2f37 9c3e 2c51 2e3e

gcpn_1.T2T.weight f4 [8, 3]
0.39199236 -0.5160801 -0.53653765 -0.26907316 0.5153982 -0.09677778 0.23892683 -0.2608924
0.5742452 -0.23997419 0.43720147 -0.0037328762 -0.30194765 0.2970591 -0.30793002 0.16147889
-0.17421246 -0.07389232 -0.548451 -0.28583857 0.3101248 -0.13866754 0.58892536 0.4476306
00000000: 39b3 c83e d31d 04bf 885a 09bf f5c3 89be
00000010: 23f1 033f 6e33 c6bd 3ca9 743e b093 85be
00000020: bc01 133f cbbb 75be dfd8 df3e 45a3 74bb
00000030: e298 9abe 2118 983e 01a9 9dbe b95a 253e
00000040: c064 32be db54 97bd 4967 0cbf 6f59 92be
00000050: aec8 9e3e ddfe 0dbe d0c3 163f d72f e53e

gcpn_1.T2T.bias f4 [8]
-0.030559538 -0.3877895 0.3496509 0.1800768 -0.37350634 0.3675786 0.3507514 0.5174348
00000000: ff57 fabc 588c c6be 7105 b33e 0d66 383e
00000010: 393c bfbe 4333 bc3e b095 b33e 9b76 043f

gcpn_1.T2T.batch_norm.weight f4 [8]
0.99725944 1.0091362 0.99740934 1.0043614 0.99790347 0.99150515 1.001931 1.0053103
00000000: 654c 7f3f 602b 813f 3856 7f3f ea8e 803f
00000010: 9a76 7f3f 48d3 7d3f 463f 803f 02ae 803f

gcpn_1.T2T.batch_norm.bias f4 [8]
-0.009383486 0.008412274 0.0077525796 0.0042535863 -0.0034539488 0.0023701163 -0.0005056496 0.010124261
00000000: 31bd 19bc a2d3 093c 5a09 fe3b ab61 8b3b
00000010: a55b 62bb f453 1b3b 928d 04ba 3ae0 253c

gcpn_1.T2T.batch_norm.running_mean f4 [8]
-0.015449187 -0.40666288 0.43685618 0.16576302 -0.45723975 0.39151293 0.12670663 0.6000648
00000000: 961e 7dbc 1e36 d0be 9dab df3e c8bd 293e
00000010: 541b eabe 6274 c83e 62bf 013e d99d 193f

gcpn_1.T2T.batch_norm.running_var f4 [8]
0.70662045 0.32684782 0.23521385 0.26131314 0.3798439 0.11347359 1.2171252 0.13969603
00000000: 14e5 343f 9958 a73e e6db 703e d6ca 853e
00000010: e67a c23e d764 e83d c2ca 9b3f 7a0c 0f3e

gcpn_1.P2T.weight f4 [8, 8]
-0.19760367 -0.059464112 -0.0069288206 0.05154778 -0.26801845 -0.25108302 0.1928662 -0.08345444
0.16803828 0.016603345 0.11242767 0.074145205 0.123947866 0.17179875 -0.33177087 0.18399131
-0.24737251 -0.27011973 0.01993068 -0.061899778 0.20849675 -0.20630819 -0.31307113 0.2568602
-0.05016162 0.20740454 0.11016738 -0.2690844 0.073885255 0.080640845 -0.23012811 -0.16930076
0.12914805 0.06789335 -0.14332189 -0.09962366 0.3320782 -0.057728123 0.2021922 0.14559689
-0.22958788 -0.30263954 0.3383565 0.017579116 0.24160305 0.07236437 0.1138301 0.2644356
0.33461416 -0.24191485 0.042613514 0.26350164 0.25485465 0.22008866 -0.2617145 -0.2477679
-0.20710038 0.045659315 0.35666862 -0.21900888 0.1948248 -0.19135931 -0.3281479 -0.08075351
00000000: 9e58 4abe a490 73bd 290b e3bb c423 533d
00000010: b739 89be f48d 80be b87e 453e 29ea aabd
00000020: 3a12 2c3e bd03 883c 7a40 e63d 71d9 973d
00000030: 61d8 fd3d 03ec 2f3e dfdd a9be 3868 3c3e
00000040: 384f 7dbe 224d 8abe aa45 a33c 9f8a 7dbd
00000050: 2c80 553e 7442 53be dc4a a0be 2e83 833e
00000060: 4576 4dbd db61 543e 6f9f e13d 6ec5 89be
00000070: 2751 973d 0727 a53d b4a6 6bbe 2e5d 2dbe
00000080: 633f 043e ab0b 8b3d f9c2 12be 7d07 ccbd
00000090: 2706 aa3e 5374 6cbd 790b 4f3e 5a17 153e
000000a0: 1619 6bbe 92f3 9abe 103d ad3e 1402 903c
000000b0: ca66 773e c533 943d c11f e93d 1a64 873e
000000c0: 8c52 ab3e 87b8 77be 828b 2e3d b0e9 863e
000000d0: 4f7c 823e ec5e 613e 71ff 85be deb6 7dbe
000000e0: 1f12 54be 4305 3b3d 459d b63e dd43 60be
000000f0: 2780 473e b2f3 43be 0003 a8be 1962 a5bd

gcpn_1.P2T.bias f4 [8]
0.19673496 0.3271815 -0.2213326 0.08356879 0.30204865 0.23724972 0.22318222 0.24983561
00000000: e474 493e 5584 a73e 03a5 62be 1d26 ab3d
00000010: 1fa6 9a3e 97f1 723e e189 643e e8d4 7f3e

gcpn_1.P2T.batch_norm.weight f4 [8]
0.99314076 0.9945245 1.0050056 0.991672 1.0055585 1.0026182 1.004841 1.0039352
00000000: 793e 7e3f 2899 7e3f 06a4 803f 37de 7d3f
00000010: 24b6 803f cb55 803f a19e 803f f380 803f

gcpn_1.P2T.batch_norm.bias f4 [8]
-0.0063232807 -0.0038759217 0.0056099724 -0.008140719 4.474213e-05 0.0029759225 0.0031844748 0.004762107
00000000: 8633 cfbb 2d03 7ebb dcd3 b73b a660 05bc
00000010: 7fa9 3b38 b207 433b 9fb2 503b 730b 9c3b

gcpn_1.P2T.batch_norm.running_mean f4 [8]
0.84956306 -0.047894575 -0.40600312 -0.5489465 -0.535676 1.1399729 0.25805914 -0.2200042
00000000: f77c 593f 1a2d 44bd a4df cfbe c287 0cbf
00000010: 1022 09bf a2ea 913f 5420 843e c848 61be

gcpn_1.P2T.batch_norm.running_var f4 [8]
0.49571383 0.501709 1.3345741 0.11989731 1.1675651 0.29979214 0.62639016 0.08132684
00000000: 34ce fd3e 0070 003f 53d3 aa3f b98c f53d
00000010: c672 953f 5b7e 993e 1b5b 203f b08e a63d

gcpn_1.T2P.weight f4 [8, 8]
0.22966047 0.08916051 -0.24226524 -0.29239312 -0.15941957 -0.04051718 -0.20881277 0.12761968
0.101621464 -0.07108648 0.12506022 0.12678127 0.22617665 0.22844426 -0.12491177 0.35185274
-0.041940726 -0.015517478 -0.33473775 -0.22842886 -0.20775667 -0.15036109 0.24848387 -0.11632229
-0.26024178 0.13803218 0.11548135 0.23119552 -0.18199095 0.07790859 -0.12993078 -0.07959893
-0.28222388 -0.162164 -0.10902285 0.14913934 0.0670161 0.08792171 0.35462606 0.3423545
0.23293304 0.0032659082 -0.24664573 0.27024952 -0.092698805 -0.032140125 -0.31226906 -0.07789159
-0.23890573 0.32454127 -0.30677748 -0.27086765 -0.013589087 -0.18209517 0.13336067 -0.12867855
-0.16519001 0.011611606 0.2521054 -0.2575368 0.1589903 0.22471906 0.34768745 -0.25128442
00000000: 1d2c 6b3e c999 b63d 6114 78be 8db4 95be
00000010: e23e 23be 58f5 25bd 04d3 55be bcae 023e
00000020: ea1e d03d ca95 91bd c90f 003e f3d2 013e
00000030: da9a 673e 4bed 693e bed1 ffbd 0b26 b43e
00000040: 0aca 2bbd 053d 7ebc bf62 abbe 41e9 69be
00000050: 2abe 54be 42f8 19be 8e72 7e3e 613a eebd
00000060: 693e 85be 4f58 0d3e 7c81 ec3d 85be 6c3e
00000070: d65b 3abe 8a8e 9f3d 930c 05be c404 a3bd
00000080: a67f 90be 520e 26be 5f47 dfbd fcb7 183e
00000090: bd3f 893d 4c10 b43d 8c91 b53e 1749 af3e
000000a0: 0086 6e3e d908 563b b390 7cbe 255e 8a3e
000000b0: dfd8 bdbd 5da5 03bd bbe1 9fbe a085 9fbd
000000c0: b4a3 74be 462a a63e f011 9dbe 2aaf 8abe
000000d0: c3a4 5ebc 2877 3abe b38f 083e 4fc4 03be
000000e0: 9227 29be 9b3e 3e3c f613 813e dddb 83be
000000f0: 5ace 223e c11c 663e 1704 b23e 5aa8 80be

gcpn_1.T2P.bias f4 [8]
0.08799158 -0.26147342 0.3010784 -0.1342522 0.21163791 0.013052181 -0.027191667 -0.011262661
00000000: ee34 b43d d8df 85be f326 9a3e 6979 09be
00000010: 9cb7 583e d1d8 553c 0fc1 debc 0687 38bc

gcpn_1.T2P.batch_norm.weight f4 [8]
1.0023634 1.0016004 0.9997251 0.99891955 0.99644905 1.0088394 0.993106 1.0076224
00000000: 724d 803f 7134 803f fced 7f3f 31b9 7f3f
00000010: 4917 7f3f a621 813f 323c 7e3f c5f9 803f

gcpn_1.T2P.batch_norm.bias f4 [8]
0.008999056 0.00042597856 -0.0039446885 0.0075569535 -0.005387967 0.0071783094 -0.010106611 0.0076005794
00000000: c770 133c e055 df39 7242 81bb 52a0 f73b
00000010: 8b8d b0bb 0638 eb3b 3396 25bc 480e f93b

gcpn_1.T2P.batch_norm.running_mean f4 [8]
0.03722592 0.19668543 0.028077947 -0.33622676 0.4098522 0.05482143 -0.42450094 -0.060025364
00000000: 357a 183d e867 493e b903 e63c ea25 acbe
00000010: 26d8 d13e 708c 603d 3058 d9be 28dd 75bd

gcpn_1.T2P.batch_norm.running_var f4 [8]
10.766547 43.4108 43.932373 3.6817775 21.136301 6.2941 55.15258 19.276634
00000000: c743 2c41 a9a4 2d42 c0ba 2f42 3ea2 6b40
00000010: 2517 a941 4469 c940 3e9c 5c42 8c36 9a41

gcpn_2.P2P.weight f4 [16, 8]
0.060763407 0.15809005 0.06134394 0.10352445 -0.32692876 0.25518936 0.30271673 0.2951541
0.25740713 -0.26041266 -0.13076492 0.31252432 -0.2680917 0.3138389 -0.2720167 -0.25162637
0.16916738 -0.25597277 -0.07256534 0.2516938 0.28439176 0.33075762 -0.06924776 -0.26726142
0.35040292 -0.07702105 -0.14291692 0.0832702 -0.24888548 0.23049681 0.22048569 -0.27922553
-0.281648 -0.03681607 0.152406 -0.0139800375 -0.18082228 0.01242376 -0.3295764 -0.25523075
-0.23582292 0.29103428 0.30467626 -0.110185586 0.021411197 0.15538505 0.043239154 -0.18602645
0.2093231 0.20594938 -0.02574271 -0.05005591 0.3169892 0.30048403 -0.20573263 0.353088
0.07888309 -0.22817226 0.18924467 -0.26704165 0.32273623 -0.23456566 0.08827265 0.11903814
0.08916198 0.30002305 -0.14333558 -0.14413142 -0.30346707 -0.006584997 -0.16993314 0.005030492
-0.065532304 0.10913132 0.31380972 0.097614095 -0.11845566 -0.17367648 -0.30754083 0.30061218
-0.058498923 0.065602556 0.008010072 -0.22216472 0.19742139 0.19926551 0.02213757 -0.20675823
-0.15589166 0.00903331 -0.20513831 -0.19370449 -0.046317942 -0.10952555 0.08465241 -0.09035242
-0.040697686 -0.14266632 -0.32100844 0.3113777 0.05812473 0.3133835 -0.05859554 -0.085980296
-0.32753456 -0.14125216 0.22862373 -0.35386416 -0.12712213 0.20638889 0.19615915 0.13643312
-0.064175725 -0.031634763 -0.06686311 -0.13658169 0.14653663 -0.12070065 -0.19236736 0.08356637
-0.25995213 -0.07018212 0.17289664 0.13286616 0.30260712 -0.2508475 -0.0016533948 -0.09653905
00000000: 0de3 783d 5ce2 213e c943 7b3d a004 d43d
00000010: 3563 a7be 2ea8 823e b0fd 9a3e 701e 973e
00000020: deca 833e cf54 85be 3de7 05be 3003 a03e
00000030: 5143 89be 7eaf a03e c645 8bbe 2cd5 80be
00000040: 373a 2d3e dd0e 83be 239d 94bd 02de 803e
00000050: cc9b 913e 1059 a93e c5d1 8dbd 7dd6 88be
00000060: 0368 b33e 36bd 9dbd d058 12be 9189 aa3d
00000070: d6db 7ebe 5b07 6c3e 00c7 613e a6f6 8ebe
00000080: 2b34 90be 73cc 16bd 5210 1c3e 870c 65bc
00000090: 7a29 39be 078d 4b3c 3dbe a8be 9bad 82be
000000a0: 907b 71be 7202 953e 87fe 9b3e fba8 e1bd
000000b0: 8966 af3c 421d 1f3e 8a1b 313d b87d 3ebe
000000c0: cb58 563e 65e4 523e 60e2 d2bc 6d07 4dbd
000000d0: 694c a23e 0bd9 993e 93ab 52be f3c7 b43e
000000e0: 758d a13d fda5 69be 5bc9 413e afb9 88be
000000f0: af3d a53e fb31 70be 4bc8 b43d 45ca f33d
00000100: 8e9a b63d 9f9c 993e 90c6 12be 3097 13be
00000110: 0960 9bbe f5c6 d7bb f402 2ebe d3d6 a43b
00000120: cd35 86bd 3e80 df3d abab a03e e6e9 c73d
00000130: e298 f2bd 3fd8 31be fe75 9dbe d7e9 993e
00000140: 919c 6fbd a25a 863d ad3c 033c 267f 63be
00000150: d528 4a3e 420c 4c3e d959 b53c 6eb8 53be
00000160: 10a2 1fbe 7300 143c c70f 52be 785a 46be
00000170: e2b7 3dbd ee4e e0bd 3e5e ad3d b10a b9bd
00000180: 9eb2 26bd 1f17 12be 385b a4be e66c 9f3e
00000190: 3214 6e3d cd73 a03e e001 70bd 7016 b0bd
000001a0: 9cb2 a7be 68a4 10be 571c 6a3e af2d b5be
000001b0: 4e2c 02be 9c57 533e f2dd 483e 20b5 0b3e
000001c0: 906e 83bd 7493 01bd 87ef 88bd 12dc 0bbe
000001d0: b30d 163e e731 f7bd f3fb 44be d824 ab3d
000001e0: 7218 85be a5bb 8fbd d10b 313e 110e 083e
000001f0: 52ef 9a3e 156f 80be b9b6 d8ba 44b6 c5bd

gcpn_2.P2P.bias f4 [16]
-0.19908036 -0.20087762 0.08781955 0.035666242 -0.17592481 -0.24863973 -0.29281238 0.34860122
-0.061745115 -0.083076134 -0.12627335 -0.17414643 -0.32623506 -0.20057173 0.21608172 0.076809116
00000000: b9db 4bbe ddb2 4dbe bcda b33d c416 123d
00000010: a225 34be 6a9b 7ebe 81eb 95be dc7b b23e
00000020: 72e8 7cbd d223 aabd cd4d 01be 7153 32be
00000030: 4808 a7be ad62 4dbe 8744 5d3e 194e 9d3d

gcpn_2.P2P.batch_norm.weight f4 [16]
0.9963155 0.9933454 0.9948792 0.9938393 1.0064552 1.0059574 1.0029637 1.0062436
0.99894184 1.0020206 1.007754 0.9926891 0.9917485 1.0084206 1.0052743 1.0052828
00000000: 880e 7f3f e24b 7e3f 67b0 7e3f 416c 7e3f
00000010: 86d3 803f 36c3 803f 1d61 803f 97cc 803f
00000020: a7ba 7f3f 3642 803f 15fe 803f df20 7e3f
00000030: 3be3 7d3f ed13 813f d4ac 803f 1bad 803f

gcpn_2.P2P.batch_norm.bias f4 [16]
-0.005611528 -0.0062995767 0.002649684 -0.002261998 0.0073684207 0.0011464165 -0.0056339214 0.008718759
-0.0063493326 0.003798746 0.0039436566 -0.009474772 -0.007978813 0.012682152 0.009438873 0.002715931
00000000: e9e0 b7bb ae6c cebb 52a6 2d3b 073e 14bb
00000010: cb72 f13b 5b43 963a c29c b8bb 20d9 0e3c
00000020: 100e d0bb 62f4 783b ca39 813b 133c 1bbc
00000030: 91b9 02bc cdc8 4f3c 81a5 1a3c c3fd 313b

gcpn_2.P2P.batch_norm.running_mean f4 [16]
0.015670454 1.3436705 1.5995235 1.8802557 0.6652494 1.203338 -0.6841187 -0.24583684
-0.11602968 -1.296738 1.1824138 -0.45507717 0.029806085 0.6085399 -0.6539297 -0.5624828
00000000: 535f 803c 65fd ab3f 30bd cc3f 38ac f03f
00000010: c94d 2a3f fb06 9a3f 6722 2fbf a7bc 7bbe
00000020: f8a0 edbd 83fb a5bf 5659 973f e0ff e8be
00000030: e42b f43c 45c9 1b3f f067 27bf dffe 0fbf

gcpn_2.P2P.batch_norm.running_var f4 [16]
6.9344563 20.198034 15.878416 16.92723 1.72486 2.785773 11.499914 5.031039
8.268905 9.283389 4.013209 0.2738921 1.8643087 2.025483 2.248299 6.4687
00000000: 11e7 dd40 9395 a141 fe0d 7e41 f86a 8741
00000010: 36c8 dc3f 1b4a 3240 a6ff 3741 46fe a040
00000020: 6f4d 0441 c388 1441 356c 8040 963b 8c3e
00000030: aba1 ee3f 83a1 0140 21e4 0f40 97ff ce40

gcpn_2.T2T.weight f4 [16, 8]
-0.12821679 -0.12853123 0.22478229 0.2529269 0.34327173 0.1007639 0.1695699 -0.027458254
-0.20155741 -0.35116675 0.21878555 -0.048468616 0.1474371 0.021481488 -0.32246792 -0.17637418
0.09916918 -0.07889415 -0.34547094 0.11400383 0.010995256 -0.11998372 0.14744127 0.06751545
-0.12666093 0.3155213 0.18068747 0.040515564 -0.06859014 -0.2991632 0.2740587 -0.09338272
-0.21872063 0.23864415 0.13522807 0.097103044 -0.06539595 -0.10026368 0.053584255 0.27921548
0.045294367 -0.15990697 0.35445473 0.012811577 0.28227568 0.0898388 0.3121895 0.20737186
-0.18770613 0.25327253 -0.0061276886 -0.27694517 -0.06891261 -0.32824585 -0.17607385 -0.24296944
0.24209264 -0.072037175 -0.053370353 0.17559429 0.15459155 -0.22458264 0.13754897 0.14891478
-0.2812578 0.31789675 -0.21738236 -0.12871525 -0.2816055 0.32104984 0.06840766 0.30577052
0.025740992 0.18577702 -0.12021763 -0.2791065 0.050584972 -0.04002327 -0.03957372 -0.17545494
0.0016844973 0.11087793 0.12063856 -0.27247712 0.18083213 0.03112919 0.24750441 0.25577885
-0.2739772 0.34016696 -0.3447963 0.20295615 0.024978824 0.1703781 -0.19342627 0.21582535
-0.17075881 -0.30819675 0.12198194 0.20230691 0.34193152 -0.029021794 0.33905923 0.23398277
-0.18008064 -0.26991257 0.1935321 -0.19374187 0.15840723 -0.30726814 0.25351635 0.10788921
-0.041548423 0.16936924 -0.24255572 -0.069659926 0.009517963 -0.20609038 -0.09257445 -0.15092054
0.33265826 0.3012989 0.31160572 0.2799096 -0.3476577 0.1236968 0.12340953 -0.25609702
00000000: 434b 03be b19d 03be 542d 663e a27f 813e
00000010: 50c1 af3e 4e5d ce3d bba3 2d3e 22f0 e0bc
00000020: 1165 4ebe 21cc b3be 5209 603e 0787 46bd
00000030: c0f9 163e f2f9 af3c 841a a5be 6f9b 34be
00000040: 3619 cb3d 4293 a1bd 91e1 b0be d77a e93d
00000050: 7225 343c 06ba f5bd d8fa 163e 8a45 8a3d
00000060: 67b3 01be 028c a13e 2306 393e a6f3 253d
00000070: fd78 8cbd eb2b 99be 6c51 8c3e 713f bfbd
00000080: 4df8 5fbe 225f 743e 3a79 0a3e f6dd c63d
00000090: 50ee 85bd 0b57 cdbd 2a7b 5b3d 55f5 8e3e
000000a0: 9686 393d a7be 23be 177b b53e a6e7 513c
000000b0: 7086 903e 68fd b73d 4dd7 9f3e 4a59 543e
000000c0: 0936 40be f0ac 813e c7ca c8bb c2cb 8dbe
000000d0: 0e22 8dbd d70f a8be b44c 34be fbcc 78be
000000e0: 22e7 773e 3a88 93bd df9a 5abd fdce 333e
000000f0: 3f4d 1e3e fef8 65be a3d9 0c3e 1e7d 183e
00000100: 0601 90be 5dc3 a23e 7b99 5ebe eecd 03be
00000110: 992e 90be a560 a43e 5119 8c3d f48d 9c3e
00000120: c6de d23c 553c 3e3e a934 f6bd 0ce7 8ebe
00000130: 3032 4f3d 71ef 23bd 0e18 22bd 76aa 33be
00000140: 5aca dc3a f813 e33d 5911 f73d 1f82 8bbe
00000150: 0f2c 393e a502 ff3c cc71 7d3e 72f5 823e
00000160: bd46 8cbe 5d2a ae3e 2489 b0be bdd3 4f3e
00000170: 64a0 cc3c 9977 2e3e 8911 46be 5201 5d3e
00000180: 66db 2ebe f7cb 9dbe abd1 f93d 8b29 4f3e
00000190: a611 af3e 1dbf edbc 2c99 ad3e 2e99 6f3e
000001a0: 0f67 38be fb31 8abe 472d 463e 4564 46be
000001b0: 8135 223e 4052 9dbe e5cc 813e 05f5 dc3d
000001c0: ae2e 2abd 216f 2d3e 8760 78be dda9 8ebd
000001d0: 3bf1 1b3c 5b09 53be ac97 bdbd ea8a 1abe
000001e0: 2f52 aa3e d943 9a3e c98a 9f3e 5050 8f3e
000001f0: 3100 b2be bf54 fd3d 23be fc3d 261f 83be

gcpn_2.T2T.bias f4 [16]
0.13724144 -0.19265367 0.055388168 0.1166214 0.3124729 -0.18849748 -0.27787536 0.3280573
0.14972284 0.17572068 0.12884253 -0.12416191 0.21092185 -0.30874535 0.048472527 0.15590325
00000000: 0589 0c3e 0147 45be b4de 623d 33d7 ee3d
00000010: 73fc 9f3e 7c05 41be ae45 8ebe 20f7 a73e
00000020: f250 193e 1ff0 333e 4cef 033e 9948 febd
00000030: e6fb 573e df13 9ebe 218b 463d 1aa5 1f3e

gcpn_2.T2T.batch_norm.weight f4 [16]
0.99351126 1.0015098 0.9920515 0.9998411 1.0101137 0.9958657 0.9929959 1.0026141
1.0043361 0.9927881 1.0014392 1.0026488 0.9971713 0.99417937 1.0054289 0.99255896
00000000: c156 7e3f 7931 803f 16f7 7d3f 96f5 7f3f
00000010: 684b 813f 0ef1 7e3f fb34 7e3f a955 803f
00000020: 168e 803f 5c27 7e3f 292f 803f cc56 803f
00000030: 9e46 7f3f 8a82 7e3f e5b1 803f 5818 7e3f

gcpn_2.T2T.batch_norm.bias f4 [16]
-0.010762436 0.0005749282 -0.007032858 -0.0045675067 0.009457471 0.005792373 -0.005258566 -0.004731483
0.0043337587 -0.0053947624 0.0063517205 0.00521479 -0.001383685 -0.0056908433 0.0005352064 -0.00055834895
00000000: ee54 30bc c7b6 163a e473 e6bb 06ab 95bb
00000010: 82f3 1a3c f2cd bd3b 0c50 acbb 8e0a 9bbb
00000020: 3402 8e3b 8cc6 b0bb 1822 d03b d4e0 aa3b
00000030: c45c b5ba 417a babb 184d 0c3a 2a5e 12ba

gcpn_2.T2T.batch_norm.running_mean f4 [16]
8.538709 -8.024175 -1.770939 2.4147065 4.4018655 12.918058 -11.550881 5.5663733
1.1526937 -3.6334972 8.298663 0.050234575 7.536361 -2.7946694 -7.226057 10.432924
00000000: 8d9e 0841 0563 00c1 21ae e2bf 8d8a 1a40
00000010: 15dc 8c40 5eb0 4e41 69d0 38c1 bb1f b240
00000020: 788b 933f 388b 68c0 53c7 0441 c5c2 4d3d
00000030: df29 f140 dddb 32c0 dc3b e7c0 42ed 2641

gcpn_2.T2T.batch_norm.running_var f4 [16]
29.989134 21.744442 59.22528 29.653715 39.064648 81.60172 91.01748 20.38581
42.754948 9.68486 15.046779 96.746956 39.440983 31.987444 73.25826 181.16339
00000000: bfe9 ef41 9ef4 ad41 b0e6 6c42 cf3a ed41
00000010: 3342 1c42 1534 a342 f308 b642 2416 a341
00000020: 1105 2b42 30f5 1a41 9bbf 7041 717e c142
00000030: 91c3 1d42 49e6 ff41 3b84 9242 d429 3543

gcpn_2.P2T.weight f4 [16, 16]
0.17554517 -0.116600946 -0.16919915 0.097033724 -0.19103228 -0.20016511 -0.22987218 -0.12764059
-0.041971706 -0.15051566 -0.103530355 -0.2145341 0.15822369 -0.059305295 -0.16663219 0.05942626
-0.18095827 0.16771717 0.13679491 -0.2530727 -0.20190172 -0.17147028 -0.13852346 0.03099282
-0.24749695 -0.18026404 0.107278004 -0.07801006 -0.10568591 -0.20548573 0.10074756 0.0120352525
-0.10388111 -0.15639342 0.0562896 0.063698485 0.10863422 0.073342085 -0.041535415 -0.19481952
0.15227796 -0.0060936837 -0.16653937 0.20454036 0.14600338 -0.20829567 -0.12354775 -0.07651005
-0.14352342 0.11662939 -0.17674471 0.2323584 -0.107255675 0.13914505 0.00063416833 -0.108509496
0.16501132 -0.18822294 -0.13724539 0.027656026 0.19475879 -0.112822585 -0.16165571 -0.16460826
-0.11615753 -0.077968314 -0.047920864 -0.13273224 0.08590754 0.012649754 -0.17165524 -0.14695476
0.045720376 -0.013643777 0.1863714 -0.045688726 -0.19309737 -0.18404905 -0.08360908 -0.049739435
0.025246333 -0.05073137 0.097594604 -0.07744785 0.188655 0.06450945 -0.077618375 0.22002664
0.059990324 -0.17555472 -0.13280123 0.14982907 0.120750934 0.19217595 -0.021485725 0.17888826
0.119629264 0.07525319 -0.054731674 0.24036694 0.04672375 -0.06499247 -0.007187973 0.24898088
0.16288841 -0.021820335 0.24576715 0.10763682 -0.13319628 -0.23119478 0.14356725 0.2380083
-0.14387736 0.101398855 0.008915994 -0.05392631 -0.06853529 0.06922525 0.056143746 0.16991262
0.092670634 0.112295814 0.22292264 0.08195737 0.03663489 -0.08725899 0.18155827 0.034317207
0.1559608 0.24588044 -0.052827746 0.17821376 -0.044324376 0.23263657 0.19448128 -0.09356634
0.0056690797 -0.11351168 -0.097393215 -0.052196972 0.0049894373 -0.09218418 -0.23648737 -0.14515004
-0.025194008 -0.083455585 0.18485916 0.19957551 0.15758939 0.119050905 -0.19223589 0.23504844
-0.21586712 -0.09375335 -0.16643284 0.09270327 -0.21086577 -0.12413153 -0.16042821 -0.15212
-0.123683035 0.24023703 -0.012507018 0.07848221 -0.2538749 0.23154876 -0.061884236 -0.22816993
0.16472197 -0.076438695 0.23581646 -0.16559455 -0.22462362 -0.186993 0.09993743 -0.02159129
-0.22692916 0.04810654 -0.02043539 0.093673185 -0.12586871 -0.17776373 0.17045918 -0.12589228
0.18002596 0.20082116 -0.1776872 -0.11020296 0.0285067 -0.23547414 0.07246175 -0.11067802
-0.10660004 -0.19507906 0.11220805 -0.16168095 -0.20261025 -0.06503762 -0.13478698 -0.24489513
0.10561967 -0.091825396 0.17194012 0.17210162 -0.16158229 -0.14723405 -0.088228576 0.14119433
-0.0036599115 -0.08931668 0.15844151 0.23939297 0.1855116 -0.1840278 -0.044787932 -0.04466801
0.21845175 -0.12326523 -0.13785338 -0.0019571737 -0.059030358 0.098683946 0.03728773 -0.1469798
0.17864116 0.15147412 0.05684964 -0.22907898 0.11276939 0.16478938 0.064278685 -0.098522455
0.01384633 -0.10067971 0.23600754 0.24418546 -0.02781231 -0.17110574 0.14017268 0.12929319
0.12857442 -0.18133539 0.09036436 -0.10018298 -0.2163247 -0.17837827 0.09808888 0.099595994
-0.2259228 0.13835667 0.190769 0.18973961 0.14190614 -0.039525297 0.16277581 0.19687402
00000000: 1dc2 333e 7acc eebd 8b42 2dbe 9eb9 c63d
00000010: f79d 43be 15f8 4cbe 9d63 6bbe 37b4 02be
00000020: 86ea 2bbd c720 1abe b907 d4bd d4ae 5bbe
00000030: 6405 223e 1cea 72bd a1a1 2abe f368 733d
00000040: 204d 39be 0dbe 2b3e f713 0c3e bf92 81be
00000050: 53bf 4ebe e895 2fbe 18d9 0dbe a8e4 fd3c
00000060: d76f 7dbe 2397 38be 92b4 db3d bdc3 9fbd
00000070: db71 d8bd da6a 52be bd54 ce3d 822f 453c
00000080: 9fbf d4bd 9925 20be ec8f 663d 5a74 823d
00000090: 9e7b de3d 6034 963d 0a21 2abd c57e 47be
000000a0: c1ee 1b3e 86ad c7bb 4c89 2abe 0773 513e
000000b0: e981 153e 764b 55be 9a06 fdbd 4db1 9cbd
000000c0: cef7 12be 64db ee3d 91fc 34be 5cef 6d3e
000000d0: dda8 dbbd 0a7c 0e3e 513e 263a 3a3a debd
000000e0: baf8 283e 84bd 40be 0e8a 0cbe e48e e23c
000000f0: d96e 473e 870f e7bd 1389 25be 118f 28be
00000100: 00e4 edbd daad 9fbd ab48 44bd f6ea 07be
00000110: 4bf0 af3d ea40 4f3c 64c6 2fbe 4f7b 16be
00000120: 4a45 3b3d 268a 5fbc 25d8 3e3e 1a24 3bbd
00000130: 51bb 45be 5b77 3cbe 3d3b abbd 94bb 4bbd
00000140: 66d1 ce3c b2cb 4fbd aedf c73d fa9c 9ebd
00000150: c72e 413e 881d 843d 62f6 9ebd aa4e 613e
00000160: 6ab8 753d 9ec4 33be 0cfd 07be cb6c 193e
00000170: 444c f73d c6c9 443e d502 b0bc 7c2e 373e
00000180: 3000 f53d 581e 9a3d 522e 60bd c022 763e
00000190: 6761 3f3d c61a 85bd 1689 ebbb d8f4 7e3e
000001a0: 38cc 263e 8fc0 b2bc 62aa 7b3e b170 dc3d
000001b0: 9b64 08be 53be 6cbe 4b03 133e 73b8 733e
000001c0: 9654 13be 34aa cf3d 6414 123c d6e1 5cbd
000001d0: 3b5c 8cbd f8c5 8d3d fcf6 653d 93fd 2d3e
000001e0: 1aca bd3d 59fb e53d d545 643e 44d9 a73d
000001f0: 770e 163d d7b4 b2bd 69ea 393e 3390 0c3d
00000200: 30b4 1f3e 15c8 7b3e e861 58bd ab7d 363e
00000210: 7a8d 35bd 4838 6e3e 1a26 473e b69f bfbd
00000220: b0c3 b93b d078 e8bd 1876 c7bd 7ecc 55bd
00000230: 6f7e a33b 0fcb bcbd bf29 72be 36a2 14be
00000240: aa63 cebc c3ea aabd b84b 3d3e 865d 4c3e
00000250: 1d5f 213e f6d0 f33d 7cd9 44be 8ab0 703e
00000260: 450c 5dbe c201 c0bd 5f6d 2abe 36db bd3d
00000270: 32ed 57be ac38 febd 4b47 24be 58c5 1bbe
00000280: 884d fdbd b200 763e 3cea 4cbc 48bb a03d
00000290: e4fb 81be 1e1b 6d3e 537a 7dbd 61a5 69be
000002a0: e0ac 283e e48b 9cbd df79 713e 9e91 29be
000002b0: bc03 66be 187b 3fbe ffab cc3d 38e0 b0bc
000002c0: 1e60 68be 5d0b 453d 1e68 a7bc bad7 bf3d
000002d0: bae3 00be b207 36be da8c 2e3e e8e9 00be
000002e0: ba58 383e 10a4 4d3e a2f3 35be 17b2 e1bd
000002f0: e286 e93c 2220 71be d366 943d 28ab e2bd
00000300: 1f51 dabd cec2 47be 56cd e53d b18f 25be
00000310: 1079 4fbe 7232 85bd 9905 0abe cac5 7abe
00000320: 204f d83d f40e bcbd 1211 303e 683b 303e
00000330: d475 25be 86c4 16be 2fb1 b4bd 3f95 103e
00000340: 20db 6fbb aaeb b6bd 7e3e 223e 6e23 753e
00000350: c1f6 3d3e c971 3cbe 8d73 37bd cef5 36bd
00000360: d1b1 5f3e 7b72 fcbd 7029 0dbe ed43 00bb
00000370: d1c9 71bd cf1a ca3d 05bb 183d df81 16be
00000380: b5ed 363e 081c 1b3e 2bdb 683d ae93 6abe
00000390: a3f3 e63d 8cbe 283e 8ba4 833d 24c6 c9bd
000003a0: b8db 623c 2a31 cebd f6ab 713e c10b 7a3e
000003b0: a4d6 e3bc 5836 2fbe 6d89 0f3e 6f65 043e
000003c0: 03a9 033e fcaf 39be f310 b93d bc2c cdbd
000003d0: 3984 5dbe cba8 36be d3e2 c83d fcf8 cb3d
000003e0: 4e58 67be 5fad 0d3e f358 433e 1a4b 423e
000003f0: d84f 113e 47e5 21bd b4ae 263e 5899 493e

gcpn_2.P2T.bias f4 [16]
0.12713408 -0.17980948 -0.08734633 0.20204918 0.19000322 0.16053756 -0.098679125 -0.04799959
-0.18580817 -0.14673974 0.1937849 -0.20494333 -0.06410413 0.051970623 -0.15240918 0.05954485
00000000: 702f 023e fa1f 38be a2e2 b2bd fbe5 4e3e
00000010: 3490 423e f563 243e 4818 cabd 389b 44bd
00000020: 7f44 3ebe f142 16be 8c6f 463e aadc 51be
00000030: 0749 83bd 26df 543d 2711 1cbe 4de5 733d

gcpn_2.P2T.batch_norm.weight f4 [16]
1.0056378 0.99847996 0.9984108 0.99414194 1.0052865 0.9982567 1.0079654 1.0004216
1.0023576 1.006283 1.009278 1.0077186 0.9966755 0.9999819 0.9967557 1.0025218
00000000: bdb8 803f 629c 7f3f da97 7f3f 1680 7e3f
00000010: 3aad 803f c08d 7f3f 0305 813f d10d 803f
00000020: 414d 803f e2cd 803f 0630 813f ecfc 803f
00000030: 2026 7f3f d0fe 7f3f 622b 7f3f a252 803f

gcpn_2.P2T.batch_norm.bias f4 [16]
0.007292608 -0.002648135 -0.0025706298 -0.0073092817 0.0076992395 0.0062632426 0.008515004 0.0033561809
0.006857053 0.002867686 0.009322302 0.003615986 -0.003504548 -0.0034477992 0.0029842546 0.0019562773
00000000: d4f6 ee3b 558c 2dbb 0378 28bb b382 efbb
00000010: e749 fc3b e33b cd3b 8482 0b3c 5ff3 5b3b
00000020: 21b1 e03b caef 3b3b 92bc 183c 2efa 6c3b
00000030: 8fac 65bb 79f4 61bb 7c93 433b e334 003b

gcpn_2.P2T.batch_norm.running_mean f4 [16]
-1.2317586 -0.86797464 -0.42266282 -0.90369344 -0.39589828 0.32898158 0.6722195 0.91130346
-1.0233438 -1.24124 -0.11039483 -0.06244339 0.07954753 -0.6507498 0.7864445 1.5473152
00000000: 44aa 9dbf 9633 5ebf 4367 d8be 7458 67bf
00000010: 2eb3 cabe 4670 a83e 9416 2c3f 2f4b 693f
00000020: eefc 82bf f4e0 9ebf af16 e2bd a4c4 7fbd
00000030: d1e9 a23d 8a97 26bf 6d54 493f 6d0e c63f

gcpn_2.P2T.batch_norm.running_var f4 [16]
1.22522 2.3657355 0.6355882 0.85686696 0.2622052 0.9800262 0.9314357 0.9188347
1.3952813 1.6224068 0.5981071 1.7641253 0.64656204 0.5632206 0.5983139 1.6843663
00000000: 02d4 9c3f 3668 1740 e9b5 223f a25b 5b3f
00000010: c33f 863e ffe2 7a3f 9272 6e3f c038 6b3f
00000020: 9498 b23f 07ab cf3f 8c1d 193f dcce e13f
00000030: 1785 253f 3a2f 103f 1a2b 193f 5199 d73f

gcpn_2.T2P.weight f4 [16, 16]
-0.03387455 0.10831282 -0.1946683 0.03329196 -0.22745344 0.15479058 0.24625155 -0.08581108
0.033637166 -0.12563615 -0.16099918 -0.12645045 -0.11308259 0.05213406 -0.03306305 0.021244315
-0.18360606 -0.14889559 -0.20558238 -0.1708505 0.21665597 0.1011251 -0.23313779 -0.03368211
0.027894234 0.14406207 0.23884274 0.06882125 0.18553953 -0.07988862 0.0027827444 -0.14761208
0.05845893 0.2288701 0.14674175 0.23700853 -0.12272868 -0.032280535 0.04979934 0.19846569
-0.2397401 -0.12351837 0.031931955 -0.14768575 0.089554735 -0.018564403 -0.0711165 0.13491313
0.18241122 0.23754162 0.11476759 -0.00052287476 0.20680542 0.19538835 -0.13157135 0.10797299
0.034638774 -0.106458716 -0.061040968 -0.05694732 -0.17981291 -0.076604106 0.087896764 0.17789793
0.01572462 -0.24320805 0.13645068 -0.07205047 0.22251555 -0.24571066 -0.056282025 0.18832052
0.11007632 -0.1189872 -0.2206173 -0.004898463 0.090035975 -0.20226966 -0.21155809 -0.008380439
-0.0500215 0.16254163 -0.24421881 -0.04748979 -0.1990767 -0.03339373 -0.124157935 0.0823985
-0.2088021 -0.20047499 -0.13490827 -0.21466333 0.15698904 -0.035503197 -0.1350761 0.17857254
-0.05524209 0.12926544 -0.0729291 -0.20579998 0.054044627 0.158378 -0.24405128 0.02499514
0.054194883 0.03129198 -0.0025677115 -0.07553319 -0.20056099 0.04411948 -0.15753746 -0.20818226
-0.08050246 -0.17155266 0.06754278 0.1691358 0.20018797 -0.15462917 0.13256663 0.175147
0.008131972 0.09595631 0.14974296 0.19841848 0.12795246 0.09968289 -0.090006 -0.13613491
-0.11723018 0.20742461 -0.05814614 0.013826738 -0.23366223 -0.010530106 -0.06469968 -0.15893367
0.19815512 -0.19725892 -0.033509582 -0.016714547 -0.23363103 0.153816 -0.07365995 0.11093877
0.13940196 0.22405249 0.0710346 0.18572713 0.22728232 0.05147641 -0.05053513 -0.07243163
0.037867524 0.09781248 -0.24364494 0.17793226 0.037048124 -0.22517736 0.073877096 0.15926209
0.09455356 0.20452206 0.0011941344 -0.21397443 -0.005511791 0.18467541 -0.11739883 0.1085271
0.05184198 -0.039173864 -0.0025526423 0.10512307 -0.16772528 0.15881838 0.1656708 0.1494839
0.2513084 -0.012387576 -0.16793641 0.019443505 -0.06638776 0.093370795 0.21422394 -0.12931451
0.017830895 0.24916376 -0.1915476 -0.039706133 0.24882965 0.17733178 0.08239816 -0.107513174
-0.021912066 -0.21950226 -0.23108181 -0.22798848 0.24511237 0.20141178 0.10575294 -0.05580693
0.22031356 -0.062407296 0.17866617 -0.0034960175 -0.111316875 -0.06809867 -0.04542769 -0.22717638
0.07425817 -0.06898814 0.12145434 0.1660726 -0.032433074 0.12496772 0.056646157 0.17463177
-0.15365733 -0.01976826 -0.08046138 0.22013974 -0.21749827 -0.13672778 0.034375075 0.22372383
0.1708122 -0.24457076 -0.18135563 0.24183905 0.027211789 -0.20679961 -0.08199263 0.112957634
-0.053828266 -0.19192919 -0.15094106 -0.12903413 -0.008917605 0.09856579 0.12668484 -0.113963924
-0.042806447 -0.19478571 0.1851587 0.24717012 0.24261358 0.0986665 -0.05437326 -0.008477974
0.0917506 -0.2209371 0.017434273 -0.20301095 -0.25159183 -0.012083776 -0.08333292 -0.15916352
00000000: 0ac0 0abd 1dd3 dd3d 2057 47be 265d 083d
00000010: 8ee9 68be 6c81 1e3e 5e29 7c3e b8bd afbd
00000020: 20c7 093d c3a6 00be f8dc 24be 3a7c 01be
00000030: d897 e7bd 868a 553d 1f6d 07bd 8f08 ae3c
00000040: 3a03 3cbe 1678 18be 3084 52be 6ff3 2ebe
00000050: 10db 5d3e ad1a cf3d acbb 6ebe 41f6 09bd
00000060: 7382 e43c 0285 133e 3193 743e 28f2 8c3d
00000070: 13fe 3d3e a59c a3bd b45e 363b 9f27 17be
00000080: a272 6f3d ec5c 6a3e 7843 163e 5db2 723e
00000090: 2d59 fbbd 9838 04bd 65fa 4b3d 973a 4b3e
000000a0: 6e7e 75be 33f7 fcbd 15cb 023d ef3a 17be
000000b0: 7968 b73d 6014 98bc 87a5 91bd ab26 0a3e
000000c0: 02ca 3a3e 1c3e 733e 450b eb3d 8811 09ba
000000d0: cdc4 533e e213 483e a4ba 06be f120 dd3d
000000e0: 63e1 0d3d 0707 dabd 1806 7abd 9841 69bd
000000f0: e020 38be 9de2 9cbd 3803 b43d e02a 363e
00000100: ebd0 803c 880b 79be bab9 0b3e 328f 93bd
00000110: 1edb 633e 939b 7bbe fb87 66bd 18d7 403e
00000120: b26f e13d 90af f3bd 80e9 61be 4983 a0bb
00000130: c864 b83d c71f 4fbe afa2 58be 1c4e 09bc
00000140: 58e3 4cbd 5071 263e 7f14 7abe a784 42bd
00000150: c3da 4bbe ddc7 08bd 8446 febd 8bc0 a83d
00000160: 38d0 55be 5149 4dbe 6525 0abe b4d0 5bbe
00000170: bcc1 203e cd6b 11bd 6451 0abe b8db 363e
00000180: 8845 62bd 295e 043e da5b 95bd 3bbd 52be
00000190: e65d 5d3d d82d 223e 94e8 79be 9cc2 cc3c
000001a0: 74fb 5d3d 052c 003d 0d47 28bb 25b1 9abd
000001b0: dc5f 4dbe a1b6 343d 8051 21be bb2d 55be
000001c0: 79de a4bd 80ab 2fbe de53 8a3d ef31 2d3e
000001d0: 13fe 4c3e 1c57 1ebe 8cbf 073e bc59 333e
000001e0: f63b 053c be84 c43d 3856 193e 372e 4b3e
000001f0: f805 033e 8b26 cc3d 1155 b8bd f366 0bbe
00000200: 6016 f0bd 1e67 543e a62a 6ebd 8b89 623c
00000210: 2745 6fbe 7786 2cbc 4481 84bd 82bf 22be
00000220: 2de9 4a3e 3efe 49be 5841 09bd f2ec 88bc
00000230: f93c 6fbe f181 1d3e 07db 96bd de33 e33d
00000240: 63bf 0e3e 046e 653e 977a 913d 412f 3e3e
00000250: b2bc 683e eed8 523d edfd 4ebd 0957 94bd
00000260: fa1a 1b3d e951 c83d 0f7e 79be e033 363e
00000270: c6bf 173d e594 66be e04c 973d 9a15 233e
00000280: 4ca5 c13d 3b6e 513e 8084 9c3a 1d1c 5bbe
00000290: 419c b4bb 8d1b 3d3e cc6e f0bd 7543 de3d
000002a0: 4258 543d c674 20bd 3b4a 27bb c44a d73d
000002b0: 2dc0 2bbe 49a1 223e 9ba5 293e 4f12 193e
000002c0: 7fab 803e 42f5 4abc 86f7 2bbe fc47 9f3c
000002d0: 4ef6 87bd 3039 bf3d 855d 5b3e 066b 04be
000002e0: 1912 923c c924 7f3e 0e25 44be e6a2 22bd
000002f0: 33cd 7e3e 7696 353e 5ec0 a83d de2f dcbd
00000300: ef80 b3bc 33c5 60be b6a0 6cbe d075 69be
00000310: bdfe 7a3e e43e 4e3e ff94 d83d cf95 64bd
00000320: e199 613e cb9e 7fbd 44f4 363e 711d 65bb
00000330: 1afa e3bd 5177 8bbd 6312 3abd eda0 68be
00000340: ab14 983d a749 8dbd 0ebd f83d f00e 2a3e
00000350: 8bd8 04bd 13ef ff3d cd05 683d acd2 323e
00000360: 5958 1dbe 0cf1 a1bc f0c8 a4bd 506c 613e
00000370: deb7 5ebe 5e02 0cbe e1cc 0c3d dc17 653e
00000380: 65e9 2e3e c270 7abe 4ab5 39be a8a4 773e
00000390: 42eb de3c 47c3 53be c1eb a7bd 5556 e73d
000003a0: 077b 5cbd 1689 44be 4b90 1abe 8621 04be
000003b0: 251b 12bc dcdc c93d acb9 013e eb65 e9bd
000003c0: d055 2fbd e875 47be 3e9a 3d3e 2a1a 7d3e
000003d0: b26f 783e a911 ca3d 7fb6 5ebd 33e7 0abc
000003e0: bde7 bb3d 563d 62be 52d2 8e3c 1ae2 4fbe
000003f0: a5d0 80be 08fb 45bc 73aa aabd c3fb 22be

gcpn_2.T2P.bias f4 [16]
0.042592395 0.013285013 0.037689455 -0.139311 -0.24436516 0.0048351907 -0.10189826 -0.084912665
0.1856925 0.041118428 0.11478183 -0.07024682 -0.19820333 0.05092059 -0.16446595 0.030461052
00000000: 5d75 2e3d 62a9 593c 4260 1a3d 8ba7 0ebe
00000010: dc3a 7abe 8570 9e3b 09b0 d0bd b1e6 adbd
00000020: 2d26 3e3e cc6b 283d bc12 eb3d 91dd 8fbd
00000030: d0f5 4abe 1c92 503d c369 28be 7589 f93c

gcpn_2.T2P.batch_norm.weight f4 [16]
1.0081915 1.0067105 0.9988176 1.0042201 0.99558944 0.98855335 1.0056906 0.9996237
1.0080299 1.0044463 1.0010887 0.9931493 1.0038458 0.99663043 0.9937307 0.9965721
00000000: 6b0c 813f e4db 803f 83b2 7f3f 498a 803f
00000010: f3de 7e3f d511 7d3f 78ba 803f 57e7 7f3f
00000020: 2007 813f b291 803f ad23 803f 083f 7e3f
00000030: 057e 803f 2c23 7f3f 2365 7e3f 591f 7f3f

gcpn_2.T2P.batch_norm.bias f4 [16]
0.00624549 0.0103532495 -0.0031497285 0.0037190379 0.0016941754 -0.0059483424 0.0056014857 -0.0017550904
0.011600547 4.2263582e-05 0.003288342 -0.003932184 0.004031077 0.0058076023 0.0062585454 -0.001689164
00000000: f8a6 cc3b ada0 293c ad6b 4ebb 1abb 733b
00000010: 180f de3a 50ea c2bb ab8c b73b 100b e6ba
00000020: 3810 3e3c 2d44 3138 3981 573b 8dd9 80bb
00000030: 2017 843b b34d be3b 7c14 cd3b f066 ddba

gcpn_2.T2P.batch_norm.running_mean f4 [16]
-0.2189458 -0.06357191 0.15603654 0.18813263 -0.54474247 -0.75938267 -0.43740478 0.44102982
-0.068458036 0.28529286 0.47540498 0.1608675 -0.17926836 0.27313727 -0.43416512 0.021492919
00000000: 5433 60be fd31 82bd 0bc8 1f3e d7a5 403e
00000010: 3e74 0bbf e766 42bf 85f3 dfbe a9ce e13e
00000020: ba33 8cbd e811 923e 4868 f33e 73ba 243e
00000030: 2092 37be a6d8 8b3e e44a debe eb11 b03c

gcpn_2.T2P.batch_norm.running_var f4 [16]
24.23353 11.439189 28.264212 38.730526 26.391293 59.25679 37.868275 46.74724
34.057148 37.50256 44.315674 27.624157 19.58206 26.633623 25.83651 30.664606
00000000: 45de c141 eb06 3741 1b1d e241 0fec 1a42
00000010: 5e21 d341 f406 6d42 1d79 1742 2cfd 3a42
00000020: 853a 0842 9f02 1642 4043 3142 46fe dc41
00000030: 0fa8 9c41 a911 d541 2cb1 ce41 1d51 f541

gcpn_3.P2P.weight f4 [64, 16]
-0.18904479 0.19266455 -0.1756626 0.21781282 0.17894207 0.19124974 0.15118487 0.0515541
-0.008674892 -0.005504923 -0.099142395 -0.22731015 0.22817667 0.012101401 0.11277847 0.009165354
0.07355137 -0.16117382 -0.19209856 0.19677912 0.087764725 0.118514165 -0.2486775 0.017107757
-0.2283646 -0.021995641 -0.008315445 -0.16982874 -0.25398374 0.009496501 0.2234997 0.22110188
-0.14951257 -0.046000466 -0.20750964 -0.18789363 -0.073594384 0.24313831 -0.067739844 0.01475097
0.23773618 0.04981425 0.2074044 0.16564319 0.22993892 0.0490809 -0.2039561 -0.216229
-0.13519298 0.21296662 0.1367924 0.0690274 -0.18411466 -0.17782497 0.19742042 -0.026251325
-0.25355294 -0.03617479 -0.064938575 -0.00038216764 0.10927359 0.0908064 -0.19579448 0.002508111
-0.12345329 0.16842371 0.12788892 0.14258409 0.22805497 0.1257616 -0.24426718 0.063878335
-0.1741574 0.03769695 0.007866743 0.24963135 -0.17173447 -0.2397673 -0.06308064 0.039929427
0.18348187 0.20347428 0.19825074 0.07721939 -0.06615483 -0.047679365 -0.1362075 0.047654737
-0.17882855 0.08256402 0.15980181 0.21315698 -0.24383955 0.20990086 -0.15248565 -0.018992195
0.23032616 0.13263874 -0.077277586 0.15080036 -0.24889034 0.19847919 0.2472294 -0.016770804
0.04487934 -0.057808466 -0.15273151 -0.113553606 -0.024608353 -0.20002843 -0.20729546 0.019002654
-0.16563001 -0.13763176 0.00084105186 -0.12889561 0.23027033 -0.09508543 -0.14307532 -0.061041404
-0.20700333 0.1309326 0.21545997 -0.14249244 -0.09447234 0.23297684 -0.1835005 0.06890379
-0.19895276 -0.22260837 0.0017898447 -0.13739413 0.13320735 -0.07492272 0.0075242124 -0.13166371
0.10862096 0.23434535 -0.03298981 -0.1536781 -0.24275552 0.24301514 0.10090968 0.102724135
0.049168218 0.13179693 0.08195362 0.11960242 0.15609364 0.0298057 0.22191659 0.14684343
0.00085703394 -0.117518604 0.014512783 0.1884222 0.1652182 -0.10687671 -0.062348805 0.100439675
0.09185371 0.23612194 0.12733585 0.07681169 0.055047613 -0.23278217 -0.091188155 0.025484035
-0.17792654 -0.21972977 0.16803198 0.08761024 -0.20584835 0.015128545 0.150453 0.13926303
0.22396113 -0.093313225 0.11328961 -0.20590945 -0.029494878 -0.15823255 -0.054163147 0.14566012
0.11955765 -0.13013102 -0.06489609 -0.046852197 -0.09503849 -0.13920657 0.18700698 0.17516287
0.21137445 -0.13884792 0.186463 -0.07972853 -0.068312034 -0.06433209 -0.01105992 -0.10860902
0.033436835 -0.16404419 0.11031195 -0.20708235 -0.093802646 -0.16994683 0.16951722 0.16417444
-0.19378315 -0.13988644 0.22152048 0.07836205 0.16736339 -0.1973905 0.11460386 0.15663926
-0.053087793 -0.0064620217 0.18665981 0.0664552 0.07035367 0.007054798 -0.10775548 -0.15434843
0.25411987 -0.023464406 0.22428164 0.20343961 -0.13612239 0.021149965 -0.06605948 -0.010596159
0.16507055 0.13339275 -0.13929492 -0.11779005 -0.1826493 -0.21060118 0.15856367 -0.16383058
0.008249131 -0.004394504 0.042829994 -0.01189834 0.12537208 0.03042816 0.18356912 0.05214534
0.0005498689 0.03979642 0.16980484 0.039100762 0.17570613 -0.02158426 0.002754146 0.20414144
00000000: f594 41be db49 453e e6e0 33be 530a 5f3e
00000010: 973c 373e f9d6 433e 35d0 1a3e 642a 533d
00000020: 2221 0ebc a462 b4bb 2b0b cbbd fec3 68be
00000030: 25a7 693e f444 463c 66f8 e63d 482a 163c
00000040: 1aa2 963d c00a 25be 7cb5 44be 7780 493e
00000050: febd b33d 8eb7 f23d 51a5 7ebe 9125 8c3c
00000060: 69d8 69be 3430 b4bc 813d 08bc 96e7 2dbe
00000070: 280a 82be 3697 1b3c 1bdd 643e 8868 623e
00000080: d319 19be fc6a 3cbd 687d 54be 3067 40be
00000090: a7b8 96bd 40f9 783e 30bb 8abd 0dae 713c
000000a0: 1d71 733e 070a 4c3d d261 543e 5e9e 293e
000000b0: 1c75 6b3e 0e09 493d ded9 50be 236b 5dbe
000000c0: 0770 0abe ec13 5a3e 4f13 0c3e 3d5e 8d3d
000000d0: 8e88 3cbe c017 36be 9428 4a3e 050d d7bc
000000e0: b1d1 81be 042c 14bd 84fe 84bd ac5d c8b9
000000f0: d5ca df3d b5f8 b93d 597e 48be 1f5f 243b
00000100: 14d5 fcbd 4477 2c3e 50f5 023e 9001 123e
00000110: 3e87 693e a6c7 003e 2d21 7abe a5d2 823d
00000120: 5156 32be 1e68 1a3d 83e3 003c 5c9f 7f3e
00000130: 29db 2fbe 8f85 75be 6c30 81bd 0a8d 233d
00000140: ace2 3b3e 905b 503e 3e02 4b3e 3325 9e3d
00000150: 2f7c 87bd 704b 43bd fb79 0bbe 9d31 433d
00000160: d51e 37be 5317 a93d 16a3 233e d345 5a3e
00000170: 13b1 79be 40f0 563e 3325 1cbe 8595 9bbc
00000180: 9fda 6b3e 73d2 073e b643 9ebd 696b 1a3e
00000190: 1cdd 7ebe 213e 4b3e b429 7d3e ed62 89bc
000001a0: 66d3 373d 92c8 6cbd a665 1cbe cb8e e8bd
000001b0: 7597 c9bc 41d4 4cbe 4345 54be 74ab 9b3c
000001c0: ea9a 29be 57ef 0cbe 097a 5c3a 36fd 03be
000001d0: fccb 6b3e 26bc c2bd 5682 12be 8d06 7abd
000001e0: aef8 53be 3213 063e 8aa1 5c3e 8ae9 11be
000001f0: b77a c1bd 7b91 6e3e 8ee7 3bbe 6e1d 8d3d
00000200: 46ba 4bbe 73f3 63be 3999 ea3a 0cb1 0cbe
00000210: 8267 083e 1571 99bd ab8d f63b dad2 06be
00000220: aa74 de3d 3af8 6f3e 5320 07bd cb5d 1dbe
00000230: e794 78be f6d8 783e bca9 ce3d 0861 d23d
00000240: 9d64 493d c6f5 063e 4dd7 a73d 1df2 f43d
00000250: 03d7 1f3e 152b f43c 1a3e 633e 205e 163e
00000260: 93aa 603a 98ad f0bd 06c7 6d3c c0f1 403e
00000270: f62e 293e 2de2 dabd 7661 7fbd 51b3 cd3d
00000280: cc1d bc3d f3c9 713e 5464 023e 734f 9d3d
00000290: 9b79 613d 735e 6ebe dbc0 babd e5c3 d03c
000002a0: 6032 36be d700 61be 9310 2c3e ff6c b33d
000002b0: e9c9 52be b8dd 773c 5a10 1a3e f89a 0e3e
000002c0: 1156 653e 011b bfbd 6204 e83d edd9 52be
000002d0: 3e9f f1bc b707 22be 2dda 5dbd ed27 153e
000002e0: a4da f43d 1141 05be 3ee8 84bd 17e8 3fbd
000002f0: 8aa3 c2bd 2b8c 0ebe c27e 3f3e e55d 333e
00000300: 8b72 583e 262e 0ebe 28f0 3e3e b648 a3bd
00000310: 2ee7 8bbd 8bc0 83bd ab34 35bc 686e debd
00000320: 10f5 083d 33fb 27be 3beb e13d 650d 54be
00000330: 9a1b c0bd 8b06 2ebe ec95 2d3e 581d 283e
00000340: 176f 46be 643e 0fbe 44d6 623e 487c a03d
00000350: 4f61 2b3e bc20 4abe 6eb5 ea3d 0b66 203e
00000360: 9672 59bd 5ebf d3bb c023 3f3e aa19 883d
00000370: 9615 903d ef2b e73b e8ae dcbd 840d 1ebe
00000380: 001c 823e 6d38 c0bc 16aa 653e 7952 503e
00000390: ab63 0bbe b142 ad3c 314a 87bd 839b 2dbc
000003a0: 4108 293e 1c98 083e 54a3 0ebe e93b f1bd
000003b0: 6b08 3bbe d6a7 57be 845e 223e 34c3 27be
000003c0: 5d27 073c c5ff 8fbb 816e 2f3d 41f1 42bc
000003d0: 8a61 003e 7a44 f93c 8bf9 3b3e 5a96 553d
000003e0: 1425 103a 9201 233d 52e1 2d3e 1f28 203d
000003f0: 4fec 333e 79d1 b0bc e77e 343b 740a 513e

gcpn_3.P2P.bias f4 [64]
-0.13986821 -0.0051747565 0.22122514 0.1900515 -0.18061337 -0.20926745 0.19874574 0.07245053
-0.19163144 0.21249245 -0.18018028 0.21559837 0.18066889 0.17828567 -0.04710961 0.019045068
-0.20999125 0.13853765 0.0134850815 0.18430787 -0.108838834 0.24156994 0.16773283 -0.06766423
0.071315214 -0.18102933 -0.16484551 -0.17373909 -0.14597636 0.0702513 -0.10725297 -0.085131586
0.17682908 0.04320809 -0.12336978 -0.068854734 -0.06637418 0.11633317 0.17711002 0.19972777
-0.16706829 -0.027187476 0.057238795 -0.09736253 0.16237046 -0.026846813 0.023267657 -0.2127216
0.18502387 -0.16537736 -0.0026432644 -0.20362419 0.19284569 0.015106296 0.111838944 -0.1966224
0.023174984 0.10061272 0.1747386 0.18358923 -0.044635642 -0.024902275 0.08389401 -0.09009404
00000000: 9d39 0fbe 0191 a9bb d888 623e dc9c 423e
00000010: b6f2 38be 354a 56be 0184 4b3e f260 943d
00000020: 083b 44be 9f97 593e 2e81 38be d2c5 5c3e
00000030: 4401 393e 8590 363e 02f6 40bd 6704 9c3c
00000040: f207 57be d0dc 0d3e 88f0 5c3c 34bb 3c3e
00000050: e5e6 debd 1c5e 773e 28c2 2b3e 8b93 8abd
00000060: b60d 923d c15f 39be 43cd 28be a9e8 31be
00000070: d47a 15be eadf 8f3d 72a7 dbbd 7859 aebd
00000080: af12 353e f7fa 303d 4ca9 fcbd b603 8dbd
00000090: 30ef 87bd 1640 ee3d 545c 353e 7085 4c3e
000000a0: f313 2bbe 45b8 debc 3a73 6a3d 0266 c7bd
000000b0: 7144 263e d9ed dbbc d09b be3c b1d3 59be
000000c0: e676 3d3e af58 29be 9e3a 2dbb dc82 50be
000000d0: 5779 453e 6680 773c d10b e53d 6257 49be
000000e0: 77d9 bd3c 0b0e ce3d adee 323e d1fe 3b3e
000000f0: ddd3 36bd dbff cbbc 9fd0 ab3d 3983 b8bd

gcpn_3.P2P.batch_norm.weight f4 [64]
1.0027692 1.0065057 0.99908036 1.0055022 0.99634796 1.0029962 1.0020776 0.99551594
1.0022985 0.99582386 0.9984044 0.99863535 1.0058553 1.0067532 0.9909371 0.9962896
0.99884754 0.99362445 1.0007737 0.99563026 0.9950272 0.9996863 1.0005025 1.004366
1.003115 1.000326 1.0045543 1.0055737 0.9948305 1.0006782 1.0042838 1.0014353
1.0026731 1.0038875 0.9958326 0.9956437 1.0031157 0.99996406 1.0029411 1.0035305
1.0050343 0.9944657 0.99767214 1.0002872 0.9940226 0.9982161 0.99669665 0.990399
1.010326 1.0037134 1.006735 1.0055329 1.0043474 1.0030123 1.0039475 1.0021483
1.0054634 0.9958019 0.99873656 0.9964918 1.0029825 1.0039266 1.0047983 0.9934795
00000000: be5a 803f 2ed5 803f bbc3 7f3f 4cb4 803f
00000010: a910 7f3f 2e62 803f 1444 803f 22da 7e3f
00000020: 514b 803f 50ee 7e3f 6e97 7f3f 91a6 7f3f
00000030: debf 803f 4add 803f 0eae 7d3f d60c 7f3f
00000040: 79b4 7f3f 2c5e 7e3f 5a19 803f a0e1 7e3f
00000050: 1aba 7e3f 71eb 7f3f 7710 803f 118f 803f
00000060: 1366 803f af0a 803f 3c95 803f a4b6 803f
00000070: 36ad 7e3f 3916 803f 5f8c 803f 082f 803f
00000080: 9857 803f 637f 803f e3ee 7e3f 81e2 7e3f
00000090: 1866 803f a5fd 7f3f 6060 803f b073 803f
000000a0: f7a4 803f 4e95 7e3f 7167 7f3f 6909 803f
000000b0: 4478 7e3f 178b 7f3f 8327 7f3f ca8a 7d3f
000000c0: 5d52 813f ae79 803f b1dc 803f 4db5 803f
000000d0: 758e 803f b562 803f 5a81 803f 6546 803f
000000e0: 06b3 803f e0ec 7e3f 33ad 7f3f 161a 7f3f
000000f0: bb61 803f ab80 803f 3b9d 803f ac54 7e3f

gcpn_3.P2P.batch_norm.bias f4 [64]
0.005838162 0.007481293 -0.0047533903 -0.00083029346 -0.007097369 -0.0050838892 0.0013646523 0.004210223
0.0033656205 -0.00784679 -0.00065289787 -0.0044825096 0.0064908047 0.0075405966 -0.0068112733 -0.0031182521
-0.0070614167 -0.007387699 -0.0011870225 -0.0022142087 -0.007402238 0.0010529319 0.0048186635 0.007462246
0.008894828 0.005057483 0.0068052346 0.008387713 -0.00897723 0.006764815 0.0010859725 0.0045546754
0.0047526113 0.0041820174 -0.0023609528 -0.0022069896 -0.0022719828 -0.00061161065 0.001471193 0.0006195925
0.0094430335 -0.002403279 -0.0018375854 0.0005117189 -0.0025584525 0.008062979 -0.0067731002 0.0014017269
0.010829831 0.0023014676 0.008227124 0.00046156676 0.008755488 0.0061211535 0.0024947417 0.0016959355
0.0067655398 -0.0054318774 -0.004470823 0.0004696024 0.00038123984 0.0030920652 0.0043458138 -0.0072020227
00000000: 0d4e bf3b a225 f53b 54c2 9bbb 0da8 59ba
00000010: 0c91 e8bb c196 a6bb 22de b23a e9f5 893b
00000020: be91 5c3b d38f 00bc 3c27 2bba 04e2 92bb
00000030: d1b0 d43b 1c17 f73b 1a31 dfbb 975b 4cbb
00000040: 7563 e7bb 8314 f2bb de95 9bba 421c 11bb
00000050: 798e f2bb 8802 8a3a e1e5 9d3b db85 f43b
00000060: 9dbb 113c 3eb9 a53b 72fe de3b 9e6c 093c
00000070: 3b15 13bc 62ab dd3b 3157 8e3a 633f 953b
00000080: cbbb 9b3b 4e09 893b 37ba 1abb 24a3 10bb
00000090: 8ce5 14bb 7f54 20ba 0cd5 c03a 266c 223a
000000a0: f4b6 1a3c 5580 1dbb 22db f0ba e024 063a
000000b0: b6ab 27bb 961a 043c e2f0 ddbb 26ba b73a
000000c0: 9a6f 313c 38d4 163b 0fcb 063c 71fe f139
000000d0: 2e73 0f3c f593 c83b d27e 233b 274a de3a
000000e0: 76b1 dd3b e4fd b1bb fb7f 92bb f834 f639
000000f0: 25e1 c739 3fa4 4a3b 5467 8e3b f2fe ebbb

gcpn_3.P2P.batch_norm.running_mean f4 [64]
0.85333985 -0.22935642 0.29265568 0.37341893 -0.79490876 -0.6623341 0.6831892 -0.1695478
-0.80082 0.9378464 -0.012861934 0.21482319 0.45128435 0.002902654 -0.60241497 0.70534265
-0.92125666 -0.21737683 -0.5405694 0.018417293 0.6166446 0.6022188 -0.08736081 -0.0033666312
0.79652935 -0.25384328 -0.44107652 -0.5965615 -0.021578077 0.4306375 0.11338223 0.08534718
-0.274248 0.18452555 0.41485846 0.33524877 0.16121711 -0.14367689 0.35417876 0.5318093
-0.5480978 -0.018773224 0.71332115 0.6595958 0.326775 -0.15985185 0.63038594 -0.22890174
0.25378212 -0.24769619 0.06409743 -0.13991863 0.03875391 -0.25828016 -0.67141956 -0.8264733
0.39498487 0.39109692 -0.1318819 -0.17790079 0.0059022484 -0.158426 -0.036855064 -0.2254666
00000000: 7b74 5a3f 69dc 6abe f7d6 953e c430 bf3e
00000010: 247f 4bbf ba8e 29bf 7de5 2e3f f09d 2dbe
00000020: 8a02 4dbf b416 703f dcba 52bc 9cfa 5b3e
00000030: be0e e73e 743a 3e3b de37 1abf 5691 343f
00000040: 7ad7 6bbf 0898 5ebe c262 0abf dddf 963c
00000050: 6cdc 1d3f 032b 1a3f 39ea b2bd b3a2 5cbb
00000060: 59e9 4b3f bff7 81be c8d4 e1be 41b8 18bf
00000070: 82c4 b0bc 857c dc3e f134 e83d 81ca ae3d
00000080: 3c6a 8cbe 44f4 3c3e 5468 d43e baa5 ab3e
00000090: 1916 253e 0920 13be eb56 b53e a724 083f
000000a0: 2350 0cbf 4eca 99bc 379c 363f 45db 283f
000000b0: 0e4f a73e 34b0 23be f960 213f 3865 6abe
000000c0: bbef 813e 12a4 7dbe 8345 833d d446 0fbe
000000d0: 6cbc 1e3d 4c3d 84be 27e2 2bbf c193 53bf
000000e0: 753b ca3e db3d c83e 0c0c 07be a02b 36be
000000f0: a667 c13b 6d3a 22be 56f5 16bd b7e0 66be

gcpn_3.P2P.batch_norm.running_var f4 [64]
22.608171 2.7678103 4.442885 5.565437 16.370687 56.27135 14.102293 5.760349
8.509999 6.0431247 7.771436 8.734154 12.353583 20.239908 3.99966 4.2448664
15.775165 10.382636 5.7888637 5.350847 8.790613 3.2742302 12.325017 8.179456
4.910383 7.5444016 13.153266 1.30132 7.185899 27.130836 3.7089283 4.796947
3.9689221 4.4298153 10.711591 8.450524 3.733338 8.315401 7.949224 2.9406374
6.3804455 12.524258 7.0213056 21.954937 6.111816 52.82714 3.9860835 7.571234
9.306177 7.738753 2.3327613 14.557615 5.900266 10.792568 4.7306666 5.622226
14.109971 12.874583 6.007123 15.604826 3.4211972 12.101988 28.533342 16.969597
00000000: 89dd b441 ce23 3140 1d2c 8e40 0f18 b240
00000010: 2bf7 8241 dd15 6142 fea2 6141 c754 b840
00000020: f528 0841 4761 c140 9baf f840 18bf 0b41
00000030: 47a8 4541 55eb a141 6efa 7f40 f2d5 8740
00000040: 1367 7c41 471f 2641 5f3e b940 233a ab40
00000050: 5aa6 0c41 fd8c 5140 4533 4541 0ddf 0241
00000060: dc21 9d40 bd6b f140 c773 5241 a791 a63f
00000070: e2f2 e540 f40b d941 155f 6d40 9780 9940
00000080: d202 7e40 0cc1 8d40 ad62 2b41 5935 0741
00000090: 03ef 6e40 e20b 0541 0b60 fe40 6733 3c40
000000a0: 9c2c cc40 5c63 4841 89ae e040 b6a3 af41
000000b0: ff93 c340 fe4e 5342 fe1b 7f40 8d47 f240
000000c0: 1ae6 1441 dda3 f740 f64b 1540 feeb 6841
000000d0: fbce bc40 5cae 2c41 9f61 9740 47e9 b340
000000e0: 71c2 6141 4bfe 4d41 5a3a c040 5ead 7941
000000f0: e5f4 5a40 bea1 4141 4944 e441 bcc1 8741
