dtefm_middle/resource/trained_memory/PPO_critic_lock.pth (torch, 115143 bytes, 79 tensors)

gcpn_1.P2P.weight f4 [8, 3]
-0.051970024 0.5385337 0.19774339 -0.089348584 -0.37087432 -0.18760559 -0.15932395 -0.5397603
0.49518684 0.22463605 -0.46990788 -0.491286 0.14809614 0.030583516 -0.41727123 -0.26504487
-0.06980325 -0.07677712 -0.28782976 0.3024714 -0.53503567 -0.28451326 -0.17137282 -0.4930007
00000000: 85de 54bd 58dd 093f 3e7d 4a3e 64fc b6bd
00000010: 3de3 bdbe ae1b 40be d125 23be bb2d 0abf
00000020: 2189 fd3e fe06 663e c497 f0be d789 fbbe
00000030: 84a6 173e 488a fa3c 93a4 d5be f6b3 87be
00000040: 02f5 8ebd 533d 9dbd 6c5e 93be 88dd 9a3e
00000050: 19f8 08bf b9ab 91be 5b7c 2fbe 966a fcbe

gcpn_1.P2P.bias f4 [8]
0.26755944 0.02547324 -0.04909237 -0.033909105 0.30237177 -0.17542645 -0.42429784 0.377449
00000000: 8dfd 883e 42ad d03c 1515 49bd 46e4 0abd
00000010: 79d0 9a3e fea2 33be 913d d9be ff40 c13e

gcpn_1.P2P.batch_norm.weight f4 [8]
0.98247296 1.0039543 0.99383616 1.0438292 0.9335742 0.9927664 0.9706602 1.0078546
00000000: 5983 7b3f 9381 803f 0c6c 7e3f 329c 853f
00000010: b8fe 6e3f f025 7e3f 307d 783f 6101 813f

gcpn_1.P2P.batch_norm.bias f4 [8]
-0.011162382 0.104277596 0.004762819 0.093617335 -0.057134178 -0.045643944 -0.047934216 -0.06362509
00000000: 6ce2 36bc 7e8f d53d 6c11 9c3b 72ba bf3d
00000010: 8705 6abd 25f5 3abd ab56 44bd df4d 82bd

gcpn_1.P2P.batch_norm.running_mean f4 [8]
0.91665596 -0.50050026 -0.18226795 -0.8149064 0.025444984 -0.3798508 -0.6721517 -0.27315482
00000000: f7a9 6a3f c920 00bf 73a4 3abe b59d 50bf
00000010: 0072 d03c ce7b c2be 2212 2cbf f3da 8bbe

gcpn_1.P2P.batch_norm.running_var f4 [8]
1.1041367 0.62278855 1.2605096 0.83523 0.06658356 0.1394885 0.33411816 0.3882582
00000000: 5a54 8d3f 126f 1f3f 6158 a13f a2d1 553f
00000010: f65c 883d 13d6 0e3e 8911 ab3e c7c9 c63e

gcpn_1.T2T.weight f4 [8, 3]
0.31206098 0.002126813 0.0219422 -0.19607733 -0.20727059 0.12456039 -0.49772796 -0.3895286
0.6493274 0.0317648 -0.074718416 -0.17391099 -0.5170949 -0.3074585 -0.55867505 0.04782014
-0.44382846 0.4082471 -0.012428031 -0.43412372 0.13826826 0.12936515 0.44669002 -0.5884355
00000000: 75c6 9f3e 0062 0b3b 21c0 b33c 7fc8 48be
00000010: be3e 54be 8519 ff3d 33d6 febe 4b70 c7be
00000020: 523a 263f cf1b 023d f805 99bd b915 32be
00000030: 5560 04bf 336b 9dbe 5405 0fbf 0ddf 433d
00000040: 7c3d e3be c405 d13e f19e 4bbc 7745 debe
00000050: 3296 0d3e 4c78 043e 8eb4 e43e b5a3 16bf

gcpn_1.T2T.bias f4 [8]
0.2917022 -0.21139592 0.16837302 0.13624334 0.044771325 -0.112828255 -0.10129333 0.14528963
00000000: fe59 953e 2c78 58be fa69 2c3e 6083 0b3e
00000010: 2362 373d 8012 e7bd e172 cfbd cec6 143e

gcpn_1.T2T.batch_norm.weight f4 [8]
1.0941389 1.0837063 1.1833643 0.8968659 1.1501218 0.96608955 1.0252482 0.92813694
00000000: be0c 8c3f e3b6 8a3f 7b78 973f 0199 653f
00000010: 3137 933f a551 773f 553b 833f 629a 6d3f

gcpn_1.T2T.batch_norm.bias f4 [8]
-0.045479745 -0.083435334 -0.021067753 0.08292957 -0.05107016 0.033177927 0.033806097 -0.039421774
00000000: f848 3abd 25e0 aabd 4896 acbc fad6 a93d
00000010: f22e 51bd 94e5 073d 4378 0a3d ba78 21bd

gcpn_1.T2T.batch_norm.running_mean f4 [8]
0.5561237 -0.40510726 -0.2787485 0.13871145 -0.47945142 -0.12476327 -0.1793628 0.29522622
00000000: 1f5e 0e3f 386a cfbe 20b8 8ebe 600a 0e3e
00000010: a87a f5be e383 ffbd e2aa 37be e427 973e

gcpn_1.T2T.batch_norm.running_var f4 [8]
0.9007594 0.34820682 2.2750297 0.011959673 2.4159224 0.031737965 0.008865401 0.15148728
00000000: 2b98 663f 2a48 b23e 169a 1140 81f2 433c
00000010: 799e 1a40 abff 013d 3040 113c 7b1f 1b3e

gcpn_1.P2T.weight f4 [8, 8]
-0.1909374 -0.27947387 -0.0100355 -0.3368331 -0.0150224585 0.30102092 -0.041767087 0.131182
-0.010332499 0.21268493 -0.26240903 0.25876045 0.19322315 -0.14307263 0.035339426 -0.16043
0.16109174 -0.3135736 0.33954877 -0.27458715 -0.16779798 0.083459735 -0.23764643 -0.12082441
-0.20458098 -0.15777962 -0.08280273 -0.26349378 0.32206172 -0.14065142 -0.091362014 -0.13895361
-0.03987597 0.013949218 0.3185659 -0.26042253 0.054727904 -0.07646874 -0.2939431 -0.23036925
-0.20383336 0.031650677 -0.1508577 0.28442284 -0.18054795 0.1729547 0.15337048 0.029224461
0.08179407 -0.40079337 0.28565484 -0.3807486 0.29517227 -0.32475424 -0.26567298 -0.13637428
0.19236024 -0.24853033 -0.07147772 -0.2306458 -0.1720875 -0.23371278 -0.11063245 0.09886942
00000000: 1885 43be 3317 8fbe f06b 24bc 6375 acbe
00000010: c220 76bc 6a1f 9a3e f713 2bbd 9354 063e
00000020: a449 29bc 14ca 593e 7a5a 86be 407c 843e
00000030: 4adc 453e a281 12be 13c0 103d c347 24be
00000040: 3cf5 243e b88c a0be 56d9 ad3e b096 8cbe
00000050: 3cd3 2bbe f0ec aa3d 9659 73be ca72 f7bd
00000060: ad7d 51be fb90 21be 7a94 a9bd a8e8 86be
00000070: 46e5 a43e ed06 10be 021c bbbd db49 0ebe
00000080: fc54 23bd 438b 643c 121b a33e 1a56 85be
00000090: 5e2a 603d a59b 9cbd b67f 96be ebe5 6bbe
000000a0: b1b9 50be 24a4 013d 717a 1abe df9f 913e
000000b0: 90e1 38be 091b 313e 270d 1d3e 2368 ef3c
000000c0: a683 a73d ca34 cdbe 5a41 923e 7bf1 c2be
000000d0: d220 973e 3046 a6be 4a06 88be b3a5 0bbe
000000e0: 15fa 443e bc7e 7ebe e962 92bd 6a2e 6cbe
000000f0: b537 30be 6752 6fbe 4493 e2bd 0d7c ca3d

gcpn_1.P2T.bias f4 [8]
0.37570065 0.10977455 -0.06292937 -0.033668067 0.25558612 -0.0075103673 0.25572476 -0.09850765
00000000: d65b c03e 7bd1 e03d 1de1 80bd 87e7 09bd
00000010: 2fdc 823e 8719 f6bb 5bee 823e 61be c9bd

gcpn_1.P2T.batch_norm.weight f4 [8]
0.8558094 0.9632502 0.87901616 0.9712203 0.9717309 1.04197 0.9950118 1.0650758
00000000: 5316 5b3f 9197 763f 3407 613f e5a1 783f
00000010: 5bc3 783f 465f 853f 18b9 7e3f 6754 883f

gcpn_1.P2T.batch_norm.bias f4 [8]
-0.22946331 -0.033835948 -0.058847614 -0.0060353135 -0.060880743 -0.15863092 0.021078926 0.050239645
00000000: 6ef8 6abe 9097 0abd 320a 71bd e1c3 c5bb
00000010: 165e 79bd 2570 22be b6ad ac3c 16c8 4d3d

gcpn_1.P2T.batch_norm.running_mean f4 [8]
0.4365762 0.7598467 -0.9210332 1.1336079 -0.71867245 -0.6701196 1.2920684 0.118685685
00000000: ea86 df3e 5085 423f d5c8 6bbf 101a 913f
00000010: ebfa 37bf f58c 2bbf 7f62 a53f 7b11 f33d

gcpn_1.P2T.batch_norm.running_var f4 [8]
0.58038527 1.2882999 3.5018935 1.0889091 1.6936694 0.75545806 2.9149053 1.729206
00000000: 2194 143f 03e7 a43f 061f 6040 6061 8b3f
00000010: 29ca d83f b365 413f cf8d 3a40 9f56 dd3f

gcpn_1.T2P.weight f4 [8, 8]
0.34361333 0.18990983 0.21404004 0.29745433 0.23818853 -0.2568478 -0.012822497 0.33905524
-0.26146525 0.2314474 -0.33729362 0.34104192 -0.042528667 -0.3119722 -0.25258863 -0.16582392
0.124490246 -0.27492717 -0.29692143 -0.1409183 -0.023926876 0.114457026 0.029093573 -0.37874237
-0.32835034 0.29749838 -0.24019095 -0.3602098 -0.17827086 -0.16085346 0.04302765 0.14625394
-0.30003873 -0.32896706 -0.351884 0.023659095 -0.31205174 -0.1771669 0.06878333 -0.064883314
-0.3840242 -0.16338748 -0.25080326 0.17309026 -0.2870212 0.06301979 0.16301778 0.25278276
-0.06980183 0.31246665 0.08164557 0.24424131 -0.32511517 0.04855812 -0.23944968 -0.3382018
0.19164865 -0.027016502 -0.010545577 0.23865117 -0.18169704 -0.1475621 -0.27820453 -0.21921374
00000000: 16ee af3e b977 423e 502d 5b3e ef4b 983e
00000010: b2e7 733e 8e81 83be 7315 52bc a698 ad3e
00000020: c6de 85be 8c00 6d3e c0b1 acbe 0c9d ae3e
00000030: 8a32 2ebd d2ba 9fbe 4c53 81be bfcd 29be
00000040: bef4 fe3d 41c3 8cbe 1606 98be e34c 10be
00000050: 4c02 c4bc 7268 ea3d a555 ee3c 85ea c1be
00000060: 891d a8be b551 983e 9ef4 75be 6b6d b8be
00000070: a38c 36be c5b6 24be c33d 303d 98c3 153e
00000080: ad9e 99be 5f6e a8be 242a b4be b8d0 c13c
00000090: 3fc5 9fbe 3d6b 35be 46de 8c3d 8be1 84bd
000000a0: d29e c4be 0c4f 27be 4969 80be 933e 313e
000000b0: 71f4 92be 8510 813d 22ee 263e be6c 813e
000000c0: 43f4 8ebd a1fb 9f3e cb35 a73d 651a 7a3e
000000d0: 7f75 a6be e1e4 463d 4c32 75be c928 adbe
000000e0: 8b3f 443e b651 ddbc 5bc7 2cbc f960 743e
000000f0: ca0e 3abe 851a 17be d370 8ebe 9179 60be

gcpn_1.T2P.bias f4 [8]
0.33555365 -0.36698624 0.17373827 0.13684487 0.49608338 0.0872943 -0.26634258 -0.36512488
00000000: b0cd ab3e 9fe5 bbbe 72e8 313e 1021 0c3e
00000010: a4fe fd3e 5bc7 b23d 0e5e 88be a6f1 babe

gcpn_1.T2P.batch_norm.weight f4 [8]
1.0429574 1.0229355 0.9278449 0.9765292 0.9795437 1.0557444 1.0103657 0.99246716
00000000: a17f 853f 8def 823f 3e87 6d3f d1fd 793f
00000010: 60c3 7a3f a222 873f aa53 813f 5412 7e3f

gcpn_1.T2P.batch_norm.bias f4 [8]
-0.042709365 0.050960217 -0.034468614 -0.057445787 -0.0120746 -0.008940078 0.12155421 0.05744584
00000000: 04f0 2ebd a9bb 503d f62e 0dbd 464c 6bbd
00000010: 8bd4 45bc 6879 12bc 6af1 f83d 544c 6b3d

gcpn_1.T2P.batch_norm.running_mean f4 [8]
2.1205313 -1.6406734 -1.1399314 -0.68940806 -1.0674771 -0.08951334 -1.1934478 -1.2917616
00000000: c9b6 0740 9601 d2bf 46e9 91bf 0c7d 30bf
00000010: 17a3 88bf c552 b7bd e6c2 98bf 7258 a5bf

gcpn_1.T2P.batch_norm.running_var f4 [8]
141.06128 62.783806 57.884518 63.746075 96.5525 5.319334 32.218998 25.122261
00000000: b00f 0d43 9e22 7b42 bf89 6742 fbfb 7e42
00000010: e11a c142 fc37 aa40 41e0 0042 64fa c841

gcpn_2.P2P.weight f4 [16, 8]
0.030892245 -0.27869287 0.085500166 -0.111897275 -0.055052456 0.26676273 -0.044511337 -0.16913421
-0.21600142 -0.25090265 -0.23970637 -0.049831547 0.2543466 0.37054095 -0.2893401 0.08406572
-0.2103594 0.16594344 0.30111945 -0.2455546 0.20513164 -0.19956738 -0.27401882 -0.08054869
0.039409835 0.175998 -0.24984673 -0.20621233 0.052144848 0.4397933 0.015892642 0.14824046
-0.36316228 0.16223425 0.27631456 0.22360417 0.09953418 -0.25831446 0.20650113 0.20341994
-0.17536217 0.31150648 0.124431 0.32693684 0.23480807 -0.22618356 -0.016986178 -0.2769578
0.23863576 0.39254838 0.29270136 -0.36731172 -0.4710563 -0.18074532 -0.17366914 0.17101969
-0.010115825 -0.3731299 0.08738282 -0.17795482 0.2551006 0.25083482 0.22568938 -0.13265707
0.39620432 -0.13926244 -0.110981934 0.09405251 -0.17368375 0.002166018 0.026998453 0.15985605
0.106847614 -0.32344663 -0.01372997 -0.19178191 -0.27029437 0.11957624 0.3452838 0.09278309
0.23454796 -0.21601424 -0.2312758 -0.27808368 -0.31094688 -0.31686842 -0.30310187 0.34646663
-0.15891019 -0.08534103 -0.24803953 -0.24230732 0.062113993 -0.083084054 -0.15030946 -0.1566852
0.27101314 -0.29857224 0.32005522 0.24503262 -0.24654764 -0.07434826 -0.30754197 0.022942968
-0.20231701 0.22951141 0.18979357 0.14669316 -0.26749605 0.29822803 0.27760267 -0.3623355
-0.37151217 0.28841546 0.1250649 0.06691485 -0.21401033 0.03847117 0.11618105 -0.14843853
-0.12029312 0.14991285 -0.02032775 0.04618942 -0.31494778 -0.2750088 0.2507795 0.14710356
00000000: bc11 fd3c d5b0 8ebe b61a af3d 662a e5bd
00000010: af7e 61bd 2095 883e 8551 36bd 8531 2dbe
00000020: 7a2f 5dbe 5076 80be 9675 75be 2a1c 4cbd
00000030: b839 823e 8bb7 bd3e 6324 94be a62a ac3d
00000040: 7468 57be 14ed 293e 542c 9a3e aa72 7bbe
00000050: 070e 523e 645b 4cbe 324c 8cbe b6f6 a4bd
00000060: 356c 213d d238 343e d2d7 7fbe 5329 53be
00000070: d695 553d 962c e13e 4931 823c 59cc 173e
00000080: 68f0 b9be bc20 263e 1a79 8d3e 7ef8 643e
00000090: 93d8 cb3d cb41 84be 0875 533e 514d 503e
000000a0: 2492 33be c77d 9f3e aed5 fe3d 4464 a73e
000000b0: 8771 703e aa9c 67be 9926 8bbc 6acd 8dbe
000000c0: ef5c 743e 1afc c83e f4dc 953e 4810 bcbe
000000d0: 4b2e f1be 4d15 39be 53d6 31be c91f 2f3e
000000e0: d8bc 25bc e20a bfbe c4f5 b23d ca39 36be
000000f0: 8c9c 823e 6c6d 803e 1e1b 673e 41d7 07be
00000100: 4bdb ca3e d09a 0ebe 7f4a e3bd 9a9e c03d
00000110: 27da 31be c0f3 0d3b dc2b dd3c 4eb1 233e
00000120: ecd2 da3d cc9a a5be abf3 60bc 7a62 44be
00000130: 0664 8abe 63e4 f43d 0ac9 b03e 1005 be3d
00000140: 572d 703e d632 5dbe 90d3 6cbe fc60 8ebe
00000150: 6e34 9fbe 943c a2be 2b30 9bbe 1364 b13e
00000160: 5ab9 22be 47c7 aebd 13fe 7dbe 691f 78be
00000170: 3e6b 7e3d f927 aabd b9ea 19be 1672 20be
00000180: 3cc2 8a3e 76de 98be 47de a33e d5e9 7a3e
00000190: fc76 7cbe e743 98bd 2476 9dbe e4f2 bb3c
000001a0: 312c 4fbe 0a05 6b3e 3f59 423e bb36 163e
000001b0: 3ef5 88be 58b1 983e f021 8e3e 0a84 b9be
000001c0: d836 bebe 31ab 933e 0311 003e a70a 893d
000001d0: 8625 5bbe f293 1d3d 55f0 ed3d 4500 18be
000001e0: 3d5c f6bd c182 193e 6286 a6bc 1e31 3d3d
000001f0: d640 a1be f4cd 8cbe 2c66 803e 51a2 163e

gcpn_2.P2P.bias f4 [16]
-0.028789721 -0.07752986 0.1253893 -0.23917405 -0.053578135 0.004423723 0.11370763 0.26711607
0.11890429 -0.109406054 0.5586758 -0.4573198 0.055643976 0.023631288 0.471662 0.1435792
00000000: 6cd8 ebbc fac7 9ebd 0d66 003e 0bea 74be
00000010: bf74 5bbd e1f4 903b 8cdf e83d 70c3 883e
00000020: 1884 f33d 4810 e0bd 6105 0f3f d225 eabe
00000030: f0ea 633d 6796 c13c af7d f13e 6d06 133e

gcpn_2.P2P.batch_norm.weight f4 [16]
0.92642343 1.0279452 1.032961 0.8989888 0.95558786 0.9915693 0.95284224 0.9699762
0.9941537 0.97806376 1.0697756 1.0083073 0.9998806 1.1129253 0.9838611 1.0072838
00000000: 162a 6d3f b593 833f 1138 843f 2124 663f
00000010: 68a1 743f 7cd7 7d3f 78ed 733f 5c50 783f
00000020: db80 7e3f 6362 7a3f 68ee 883f 3710 813f
00000030: 2df8 7f3f 5674 8e3f 52de 7b3f adee 803f

gcpn_2.P2P.batch_norm.bias f4 [16]
-0.011625684 -0.033221267 0.12814115 -0.03539765 -0.031240592 -0.00958465 -0.083276115 0.12163142
-0.0950918 -0.019191714 0.053807005 -0.020569367 -0.029675083 0.100622945 -0.05531224 -0.051528066
00000000: a779 3ebc 0613 08bd 6f37 033e 20fd 10bd
00000010: 45ec ffbc f008 1dbc ab8c aabd e519 f93d
00000020: 7dbf c2bd f137 9dbc bc64 5c3d 1781 a8bc
00000030: 2919 f3bc 6713 ce3d 168f 62bd 180f 53bd

gcpn_2.P2P.batch_norm.running_mean f4 [16]
1.5378705 0.021770362 0.04120849 -0.64423853 -3.4510667 -1.2649784 1.5598675 0.28942087
1.2318723 0.38088757 2.743174 0.60225236 2.2935922 -0.34621474 -0.66051847 -1.0514657
00000000: f1d8 c43f c257 b23c 3cca 283d d1ec 24bf
00000010: 47de 5cc0 d0ea a1bf bda9 c73f f92e 943e
00000020: fead 9d3f b203 c33e 2a90 2f40 362d 1a3f
00000030: 37ca 1240 0f43 b1be bd17 29bf 6e96 86bf

gcpn_2.P2P.batch_norm.running_var f4 [16]
3.2833846 3.145913 11.566916 3.3680751 37.054993 16.096685 4.4678273 5.220572
19.009384 11.334 16.77051 1.2292745 4.659248 10.697824 26.64199 5.486401
00000000: f922 5240 a356 4940 1712 3941 8b8e 5740
00000010: 5038 1442 03c6 8041 71f8 8e40 ed0e a740
00000020: 3813 9841 1058 3541 012a 8641 de58 9d3f
00000030: 8f18 9540 492a 2b41 cc22 d541 9990 af40

gcpn_2.T2T.weight f4 [16, 8]
-0.020462466 0.29960027 -0.27864537 -0.043482013 -0.0058826874 0.16494775 -0.08059423 0.43629906
-0.3257407 0.22560117 -0.10888373 0.07674172 -0.035399627 0.039286975 0.29888546 0.05716686
-0.21920398 0.067468084 -0.022622738 -0.29779202 0.15428212 0.20647521 0.15163104 -0.2082984
-0.20360689 0.35226315 0.32647422 -0.13537969 0.041351512 0.0339702 0.24531832 -0.0992162
0.033436604 0.09317769 0.19898383 0.08384315 0.013999961 0.110307515 0.083244555 0.17155541
0.30137545 0.18639594 -0.41828412 -0.1916615 0.2331799 -0.2781255 -0.17493641 0.061245907
-0.19438984 -0.0941103 -0.37519377 -0.00857422 -0.2840782 -0.111957006 0.14332889 0.21071215
-0.17198123 0.17597535 -0.037733775 -0.046603214 0.48059323 -0.2992792 0.051232964 0.2149986
0.141666 -0.007969612 0.32648084 -0.2815166 -0.19626482 0.16733244 0.09613901 -0.2061081
0.30733317 0.36429277 0.22084135 0.24310692 0.19286402 -0.22407629 0.28665504 -0.10543036
0.18865292 0.22583672 0.4042216 -0.30657262 0.07595633 0.2979755 0.20144407 -0.13397212
0.100673 -0.1495991 0.3206289 -0.112310536 -0.13805003 0.27480876 -0.24771646 0.08639102
0.38300422 -0.3272203 0.0038278878 0.23297726 0.339844 -0.057967056 -0.26604706 0.05661581
0.008010063 0.29142454 -0.000713249 -0.2591161 -0.35749966 0.19717635 0.31233156 -0.32440534
-0.3278501 -0.18743676 0.2899356 -0.16905326 0.33162144 0.07331234 -0.19148122 0.1943275
0.120066546 0.3122055 0.15476899 -0.3373567 -0.10330116 -0.17434737 -0.0757749 -0.16550627
00000000: e7a0 a7bc 3565 993e 9baa 8ebe 321a 32bd
00000010: 8fc3 c0bb 10e8 283e 960e a5bd 9762 df3e
00000020: 7cc7 a6be fe03 673e 6ffe debd c32a 9d3d
00000030: 33ff 10bd 61eb 203d 8407 993e cc27 6a3d
00000040: 0277 60be b52c 8a3d 5253 b9bc 3278 98be
00000050: 22fc 1d3e 3d6e 533e 2b45 1b3e 2d4c 55be
00000060: 537e 50be d65b b43e a127 a73e f9a0 0abe
00000070: 3460 293d 5624 0b3d ba34 7b3e dd31 cbbd
00000080: d2f4 083d f2d3 be3d 6bc2 4b3e f5b5 ab3d
00000090: 1860 653c e8e8 e13d 1f7c aa3d 39ac 2f3e
000000a0: e24d 9a3e 94de 3e3e 5629 d6be ea42 44be
000000b0: b6c6 6e3e 7766 8ebe 8822 33be fddc 7a3d
000000c0: 210e 47be e7bc c0bd 6619 c0be e37a 0cbc
000000d0: b372 91be b749 e5bd cfc4 123e edc4 573e
000000e0: d91b 30be e232 343e bb8e 1abd 03e3 3ebd
000000f0: 5110 f63e 203b 99be a8d9 513d 9828 5c3e
00000100: e410 113e fa92 02bc 7f28 a73e f222 90be
00000110: a5f9 48be 3259 2b3e 87e4 c43d 000e 53be
00000120: c65a 9d3e 9584 ba3e 3c24 623e 05f1 783e
00000130: 257e 453e 4174 65be 73c4 923e dfeb d7bd
00000140: 3b2e 413e be41 673e 22f6 ce3e 16f7 9cbe
00000150: fe8e 9b3d 3f90 983e 5b47 4e3e fd2f 09be
00000160: a52d ce3d 8230 19be 7929 a43e 1103 e6bd
00000170: fd5c 0dbe bcb3 8c3e 62a9 7dbe c6ed b03d
00000180: 2119 c43e 6b89 a7be 4ddd 7a3b 9791 6e3e
00000190: 0800 ae3e dd6e 6dbd 5237 88be fbe5 673d
000001a0: a43c 033c 9935 953e 55f9 3aba deaa 84be
000001b0: 320a b7be 99e8 493e ece9 9f3e 7518 a6be
000001c0: f8db a7be 6cef 3fbe 7072 943e 4c1c 2dbe
000001d0: 49ca a93e c824 963d a713 44be cafd 463e
000001e0: 73e5 f53d 66d9 9f3e c37b 1e3e 04ba acbe
000001f0: 8f8f d3bd 1e88 32be df2f 9bbd 7a7a 29be

gcpn_2.T2T.bias f4 [16]
0.20965892 0.13651846 -0.009419518 0.13815542 -0.43866697 -0.19890943 0.06983511 -0.13143782
0.108502455 0.017965207 0.26582208 -0.06563244 0.017709667 -0.042166326 0.031720452 0.3263163
00000000: d4b0 563e 7fcb 0b3e 5254 1abc 9d78 0d3e
00000010: f598 e0be eaae 4bbe b605 8f3d a397 06be
00000020: 8936 de3d c52b 933c d519 883e 4d6a 86bd
00000030: dd13 913c 99b6 2cbd 4eed 013d ee12 a73e

gcpn_2.T2T.batch_norm.weight f4 [16]
0.99765754 0.92247707 0.8803656 0.91459787 0.9358952 1.0413114 1.1175225 1.0304104
1.0125237 1.0481908 1.2102339 1.0405941 1.007794 1.0275071 0.9349065 0.87247485
00000000: 7c66 7f3f 7527 6c3f a45f 613f 1623 6a3f
00000010: d496 6f3f b149 853f fa0a 8f3f 7de4 833f
00000020: 609a 813f 1e2b 863f f2e8 9a3f 3032 853f
00000030: 65ff 803f 5a85 833f 0856 6f3f 835a 5f3f

gcpn_2.T2T.batch_norm.bias f4 [16]
-0.0106661515 -0.12876861 -0.01952249 -0.0059459466 -0.050672453 0.0062737963 -0.033040196 -0.073611744
0.024301728 0.014960445 0.05770683 0.008671892 -0.0012167827 -0.027671374 -0.079621755 -0.03205056
00000000: 15c1 2ebc ebdb 03be a1ed 9fbc 37d6 c2bb
00000010: eb8d 4fbd 6b94 cd3b 2855 07bd c1c1 96bd
00000020: 6b14 c73c a81c 753c ff5d 6c3d 8d14 0e3c
00000030: 747c 9fba 14af e2bc bb10 a3bd 7347 03bd

gcpn_2.T2T.batch_norm.running_mean f4 [16]
6.7486463 5.117643 -2.2261481 8.153306 10.413613 -5.6252875 -6.926074 5.7470107
-0.14069125 16.303616 11.66707 0.7145273 3.060918 -2.094696 1.0223893 -4.636085
00000000: e9f4 d740 bbc3 a340 3679 0ec0 f173 0241
00000010: 299e 2641 5b02 b4c0 66a2 ddc0 83e7 b740
00000020: 5e11 10be ce6d 8241 52ac 3a41 43eb 363f
00000030: 15e6 4340 800f 06c0 a7dd 823f cf5a 94c0

gcpn_2.T2T.batch_norm.running_var f4 [16]
80.17126 71.724304 92.55133 97.79776 51.299904 8.863529 7.450497 84.82741
35.476578 139.92926 18.086412 87.77583 140.37756 71.493324 75.58905 96.73558
00000000: af57 a042 d872 8f42 481a b942 7498 c342
00000010: 1a33 4d42 04d1 0d41 796a ee40 a2a7 a942
00000020: 04e8 0d42 e4ed 0b43 f9b0 9041 3a8d af42
00000030: a860 0c43 95fc 8e42 982d 9742 9e78 c142

gcpn_2.P2T.weight f4 [16, 16]
-0.10557534 0.15165552 0.0018242934 -0.03139178 0.17929292 -0.25754517 -0.222177 -0.10835341
-0.16732694 0.01032346 -0.08303721 -0.24784765 0.12633654 -0.20351282 -0.0047228206 -0.010985064
0.24929854 0.040198803 0.066473685 0.06841659 -0.1724226 -0.16071218 0.09758017 0.11729602
-0.105013534 -0.1799108 -0.22480415 -0.001030998 -0.1711918 0.2902548 -0.05332907 0.09008847
0.027004788 -0.065061316 0.036250856 0.006736681 0.1158474 0.05448855 0.17442773 -0.042751953
0.114967905 0.2538735 0.10500286 0.18088382 0.05291338 0.14764631 -0.021636607 0.24721603
-0.015312856 0.10078201 0.07125331 -0.14710224 -0.06778534 -0.19235206 0.027262727 0.20070025
0.014618745 0.15806955 -0.15623371 -0.1640813 0.07099091 -0.14157142 0.11094832 -0.22018547
0.091892585 -0.20505428 -0.03388863 -0.16414078 -0.0009094453 -0.27033925 0.061941136 -0.21734077
0.17599693 0.27517608 0.14827871 0.12352123 -0.004923492 -0.36865002 0.04781931 0.012641953
0.1824529 -0.13388461 -0.008692239 0.05780893 0.25828907 0.18575017 -0.134758 -0.15637875
-0.14931488 0.090313256 -0.024973921 0.050635714 -0.25901318 0.30054194 0.21204966 -0.10445137
-0.1214238 0.07961498 -0.16059662 0.12604587 -0.12480576 -0.21711408 0.0011260462 0.09924927
-0.008489596 0.06487123 -0.17919214 0.13356684 0.14648995 0.32500923 0.19078964 -0.19058456
0.16495556 0.13857205 0.041323435 -0.010608132 0.06926437 -0.2146553 0.12405013 -0.1607737
0.15730453 -0.113046125 -0.32161087 0.04804098 -0.17685159 -0.20945321 -0.17888466 -0.29486892
-0.19292703 0.11504801 0.2988965 -0.039942283 0.047001496 -0.11058383 -0.23355275 -0.22740838
0.09137332 0.14025867 -0.20065905 -0.076065436 -0.078958414 0.24958818 0.23103072 0.1917845
0.16181499 -0.11063955 0.26818648 -0.23838182 0.03992035 0.08096026 -0.035000015 0.02589484
0.23506878 -0.17101194 0.17062642 -0.1368448 -0.12714045 -0.14952312 -0.1063546 0.33283383
0.02075136 -0.03412575 -0.16256124 -0.0020907223 -0.1179903 0.16304109 -0.09320709 0.0043668267
0.046298202 -0.16015254 0.14344166 -0.32824665 0.0132229505 0.14006881 -0.03815878 0.18573157
0.26572296 0.056793064 0.14788163 -0.01687118 0.082324795 -0.08919371 0.011230518 0.020969236
0.053497598 0.25607035 -0.13032983 -0.02377108 0.333109 0.2512882 0.22827302 -0.19312897
-0.052781776 0.32163966 0.016582804 0.042109914 -0.22089714 0.09608373 0.06681841 -0.008801235
-0.10447828 0.021460703 -0.28983378 -0.059200678 -0.19231716 0.12564383 -0.12170648 0.102193624
-0.115685545 -0.13302161 0.3500509 0.09803042 -0.16647619 -0.08785651 0.31888255 -0.15315937
-0.032131344 -0.14744909 0.046398185 0.27118337 0.2083211 -0.15230447 0.03970701 -0.029757569
0.043374013 -0.0944471 -0.13154466 0.22069176 0.026903333 -0.160383 -0.2950485 -0.099770054
0.14518219 -0.06853458 0.025520895 0.07116864 0.07747318 0.16077942 0.18839109 -0.31599754
-0.08477778 0.038386922 0.26011845 0.028052416 0.009227238 0.015839228 0.066253476 -0.32771602
-0.28081146 -0.0126116425 0.14966314 0.33390337 -0.16126326 -0.024193147 0.2658422 0.17695293
00000000: e237 d8bd 964b 1b3e 211d ef3a ab94 00bd
00000010: 9098 373e f6dc 83be 5e82 63be 65e8 ddbd
00000020: c157 2bbe bb23 293c 6a0f aabd c6cb 7dbe
00000030: 5e5e 013e aa65 50be e4c1 9abb b3fa 33bc
00000040: 1e48 7f3e 80a7 243d 5b23 883d ff1d 8c3d
00000050: 8d8f 30be bc91 24be 1dd8 c73d e538 f03d
00000060: 5611 d7bd 893a 38be 0f33 66be 8d22 87ba
00000070: e74c 2fbe 479c 943e 956f 5abd 4e80 b83d
00000080: 2539 dd3c de3e 85bd c77b 143d 60bf dc3b
00000090: 6741 ed3d 632f 5f3d 2f9d 323e ac1c 2fbd
000000a0: 4b74 eb3d b5fb 813e bd0b d73d 9c39 393e
000000b0: b3bb 583d 9830 173e 413f b1bc 3326 7d3e
000000c0: c6e2 7abc cc66 ce3d 41ed 913d f8a1 16be
000000d0: 0ad3 8abd f0f7 44be 1556 df3c 5e84 4d3e
000000e0: 7683 6f3c fcdc 213e bbfb 1fbe ee04 28be
000000f0: af63 913d 19f8 10be df38 e33d 4d78 61be
00000100: 2e32 bc3d c0f9 51be cece 0abd 8514 28be
00000110: d767 6eba e869 8abe fdb5 7d3d 948e 5ebe
00000120: 8a38 343e e1e3 8c3e 60d6 173e b3f8 fc3d
00000130: 3f55 a1bb b2bf bcbe 2ede 433d 3220 4f3c
00000140: efd4 3a3e 0c19 09be e569 0ebc 0ec9 6c3d
00000150: 773e 843e 4b35 3e3e 00fe 09be c021 20be
00000160: 00e6 18be 28f6 b83d 1c96 ccbc 6567 4f3d
00000170: 609d 84be a2e0 993e 8c23 593e 9aea d5bd
00000180: 0bad f8bd 2e0d a33d 7173 24be 2b12 013e
00000190: 2a9a ffbd 2753 5ebe d797 933a 3443 cb3d
000001a0: f217 0bbc 35db 843d 257e 37be bfc5 083e
000001b0: 7601 163e 9c67 a63e 5c5e 433e 9928 43be
000001c0: 1cea 283e d5e5 0d3e c342 293d bbcd 2dbc
000001d0: 7ada 8d3d 99ce 5bbe ff0d fe3d dca1 24be
000001e0: 7014 213e ba84 e7bd 2eaa a4be 9ec6 443d
000001f0: 9518 35be e77a 56be 8a2d 37be 0ff9 96be
00000200: aa8e 45be 4b9e eb3d f608 993e 859a 23bd
00000210: a484 403d c679 e2bd 7428 6fbe bedd 68be
00000220: ef21 bb3d f89f 0f3e 9179 4dbe 32c8 9bbd
00000230: f3b4 a1bd 0b94 7f3e 5193 6c3e 2863 443e
00000240: d4b2 253e fd96 e2bd bd4f 893e 5d1a 74be
00000250: 8583 233d 7ece a53d 2d5c 0fbd 6a21 d43c
00000260: dfb5 703e c11d 2fbe b1b8 2e3e 0b21 0cbe
00000270: 1b31 02be 971c 19be 71d0 d9bd 3269 aa3e
00000280: c2fe a93c 71c7 0bbd 7476 26be 8004 09bb
00000290: e6a4 f1bd 3ef4 263e 5ce3 bebd 9917 8f3b
000002a0: 2fa3 3d3d 07ff 23be 5fe2 123e f20f a8be
000002b0: 13a5 583c 336e 0f3e 624c 1cbd 6b30 3e3e
000002c0: d70c 883e d89f 683d 486e 173e 6e35 8abc
000002d0: e799 a83d 31ab b6bd 3500 383c adc7 ab3c
000002e0: 4c20 5b3d a71b 833e 2f75 05be 91bb c2bc
000002f0: 438d aa3e d9a8 803e 67c0 693e 9ac3 45be
00000300: b431 58bd f4ad a43e a9d8 873c 727b 2c3d
00000310: dc32 62be 8cc7 c43d 17d8 883d 0e33 10bc
00000320: b5f8 d5bd 5bce af3c 1865 94be 697c 72bd
00000330: caee 44be c7a8 003e 3f41 f9bd e44a d13d
00000340: 8bec ecbd d136 08be df39 b33e 2cc4 c83d
00000350: bc78 2abe 1dee b3bd 9344 a33e cfd5 1cbe
00000360: 289c 03bd e5fc 16be 060c 3e3d 8cd8 8a3e
00000370: 2052 553e b4f5 1bbe d1a3 223d 25c6 f3bc
00000380: f3a8 313d 7b6d c1bd a5b3 06be 05fd 613e
00000390: 6164 dc3c 713b 24be 9910 97be 3e54 ccbd
000003a0: a4aa 143e dc5b 8cbd 3211 d13c ddc0 913d
000003b0: 42aa 9e3d 5ca3 243e 98e9 403e 6eca a1be
000003c0: f99f adbd 9b3b 1d3d 3f2e 853e 2ece e53c
000003d0: d72d 173c 45c1 813c e7af 873d 65ca a7be
000003e0: 85c6 8fbe 10a1 4ebc 4b41 193e 62f5 aa3e
000003f0: 3222 25be b530 c6bc 781c 883e 2633 353e

gcpn_2.P2T.bias f4 [16]
0.056588165 -0.34000158 0.3440456 -0.52025497 -0.1971288 0.049006727 0.34661308 -0.04518955
-0.3023017 0.037684154 -0.18198451 -0.16973805 0.14784667 0.18800168 -0.067758165 0.097916074
00000000: fec8 673d b014 aebe bf26 b03e 6e2f 05bf
00000010: 22dc 49be 47bb 483d 4577 b13e ad18 39bd
00000020: 4ac7 9abe b35a 1a3d 265a 3abe d0cf 2dbe
00000030: 1e65 173e 8383 403e cbc4 8abd 3988 c83d

gcpn_2.P2T.batch_norm.weight f4 [16]
0.90802413 1.0314407 1.0860369 0.997392 0.9364193 0.98929036 0.97976273 1.032839
0.9725283 0.9934325 0.91536987 0.9957906 1.1188161 0.91300404 0.99295086 0.95141053
00000000: 4574 683f 4006 843f 4203 8b3f 1555 7f3f
00000010: 2db9 6f3f 2242 7d3f bbd1 7a3f 1134 843f
00000020: 9df7 783f 9851 7e3f ae55 6a3f 22ec 7e3f
00000030: 5e35 8f3f a2ba 693f 0732 7e3f a48f 733f

gcpn_2.P2T.batch_norm.bias f4 [16]
-0.042982794 -0.0877191 -0.094775096 0.0076921796 -0.04686016 -0.062410668 0.033990007 0.0060474724
-0.04476585 -0.077942304 0.015565005 -0.062181782 -0.06915168 -0.037955675 0.013726399 -0.0620878
00000000: ba0e 30bd 12a6 b3bd 7219 c2bd ae0e fc3b
00000010: 70f0 3fbd 54a2 7fbd 1b39 0b3d e029 c63b
00000020: 655c 37bd 37a0 9fbd 5d04 7f3c 53b2 7ebd
00000030: 659f 8dbd 6977 1bbd b1e4 603c c74f 7ebd

gcpn_2.P2T.batch_norm.running_mean f4 [16]
-0.65490144 -0.79700106 0.87239915 0.15774663 1.1476127 -1.3784719 0.48589262 -0.36045337
-2.3154168 0.051203284 -0.39961267 -0.21700752 -0.77085084 -0.27311364 0.061600573 -1.8367561
00000000: 9fa7 27bf 4308 4cbf 8d55 5f3f 5588 213e
00000010: f9e4 923f c471 b0bf ebc6 f83e 588d b8be
00000020: ca2f 14c0 89ba 513d 089a ccbe 3837 5ebe
00000030: 7b56 45bf 8dd5 8bbe e250 7c3d d31a ebbf

gcpn_2.P2T.batch_norm.running_var f4 [16]
0.9817821 0.40682742 1.0684717 0.60065305 2.4000244 2.1978414 0.7328235 0.77184445
3.50821 0.8516305 0.5286114 2.0133376 0.9955916 1.2148914 1.2131304 2.6683044
00000000: 1256 7b3f af4b d03e aec3 883f 66c4 193f
00000010: 009a 1940 6fa9 0c40 529a 3b3f 9997 453f
00000020: 8386 6040 7504 5a3f 1453 073f 86da 0040
00000030: 17df 7e3f 9081 9b3f db47 9b3f 80c5 2a40

gcpn_2.T2P.weight f4 [16, 16]
0.18351968 0.22166446 -0.16127281 -0.040461678 0.005409102 -0.105180986 0.22912458 -0.1954581
-0.01289916 0.13028568 0.17905706 0.17191331 0.16826776 0.19986176 -0.16215855 -0.032145873
-0.078770384 -0.0076673813 0.1281919 0.11184906 0.021276366 0.19172704 0.08555287 -0.23620823
0.26547763 -0.18470806 0.11167027 0.13938937 0.14261214 0.12370379 -0.1862066 -0.013158536
0.050490297 0.19051132 -0.051623765 0.024334341 0.035911914 0.06040247 0.16430287 0.0055491305
-0.1024321 -0.26992247 -0.20757024 -0.14994968 0.17680751 0.019520318 0.017457243 0.07250652
0.017652689 -0.011631549 -0.22263715 -0.24423054 -0.015563594 -0.19206002 -0.101338364 -0.21651265
0.0886595 -0.3643047 0.14159185 0.14504844 0.031233596 -0.31869808 0.0720279 0.10762988
0.0152345095 0.21544218 -0.1612347 -0.25994545 0.040311527 -0.0039342744 -0.19355594 -0.27362263
-0.08769579 -0.26701418 0.03445218 -0.04304951 -0.25466555 0.13769351 0.18932721 -0.07090174
0.08415139 -0.22185928 0.08974971 -0.28847036 0.14380269 -0.042481963 -0.11406607 -0.29645577
0.1311167 0.21768244 -0.047362704 -0.029022446 0.14870727 -0.07829468 -0.20592974 0.17876256
0.09595904 0.28060764 0.07791306 -0.076939546 -0.17348623 -0.07979875 0.046878815 0.16005953
-0.10016283 -0.23317784 -0.18103011 -0.15563089 0.17198244 -0.12682238 -0.095755056 0.2561694
-0.2872315 -0.16183902 -0.13499665 -0.23967135 0.12283102 0.11251654 -0.25730625 0.013504049
-0.039004203 -0.12995905 -0.19793811 0.028579377 -0.26368594 0.023349266 -0.0200082 0.1064091
0.2986647 0.13871942 -0.03265063 0.23055163 0.23076916 0.18533193 0.092360735 -0.15211217
-0.12667842 -0.07579865 0.19165546 0.16857885 0.21435699 0.030007439 0.04543826 0.25583377
0.2278302 -0.12892056 -0.119850904 -0.08253329 -0.10751356 0.14889148 -0.10931252 0.1676609
-0.060227882 0.021508679 -0.29075533 -0.12207274 -0.014141436 0.1257126 -0.07299557 0.042348247
-0.087378256 0.038539052 -0.17992544 -0.17501314 0.015935592 0.21935938 0.14045565 -0.08335504
0.10330604 -0.29434288 -0.14219187 -0.04711196 0.145 -0.14737952 -0.11366182 -0.21744208
0.11601833 -0.2575012 0.12929662 0.07513667 0.20155329 0.07808804 0.100747794 0.070136726
0.19996908 -0.07899465 -0.06708027 0.089897506 0.08983106 0.073208176 0.09071166 0.106263384
0.19636576 0.0022016307 -0.16993825 0.12136719 -0.27478448 0.1400425 0.08598052 0.1416841
0.029723313 -0.291187 -0.2590037 0.08340472 -0.14832394 -0.05062184 -0.1474822 -0.01168097
0.11266497 -0.07599297 0.19519487 0.08006625 -0.011314324 0.29355842 0.245586 0.19225149
0.25549388 -0.035337314 0.02267647 -0.21186732 -0.08127075 0.098821424 0.20175195 -0.07890692
-0.16081323 0.24736802 0.06890948 -0.27331814 0.08917638 0.027320936 0.058245234 -0.16540939
-0.07505139 -0.26275122 -0.0051303436 -0.07115387 -0.16963021 -0.09533205 0.10623824 0.12573943
0.12935123 -0.19336373 -0.088432424 -0.08089981 -0.06415081 -0.06345129 0.20553985 -0.084118426
0.08068553 0.07464392 0.010691412 -0.11205577 -0.22230226 0.18358041 0.13692997 0.24786958
00000000: 95ec 3b3e 02fc 623e b324 25be 25bb 25bd
00000010: d63e b13b 2169 d7bd a29f 6a3e 2b26 48be
00000020: 0057 53bc 9c69 053e bc5a 373e 0b0a 303e
00000030: 624e 2c3e 90a8 4c3e e40c 26be 64ab 03bd
00000040: 5e52 a1bd a83e fbbb bd44 033e 1f11 e53d
00000050: c64b ae3c 1854 443e 5836 af3d 92e0 71be
00000060: afec 873e 1c24 3dbe 62b3 e43d 16bc 0e3e
00000070: eb08 123e 6a58 fd3d f1ac 3ebe e696 57bc
00000080: eace 4e3d 6615 433e 7173 53bd d058 c73c
00000090: 5f18 133d 9568 773d 033f 283e 7bd5 b53b
000000a0: ecc7 d1bd 4733 8abe 4b8d 54be 698c 19be
000000b0: 070d 353e 13e9 9f3c 7e02 8f3c 4c7e 943d
000000c0: 5f9c 903c 4192 3ebc fefa 63be 9217 7abe
000000d0: 72fe 7ebc 62ab 44be 7d8a cfbd 7eb5 5dbe
000000e0: 1d93 b53d 2586 babe 74fd 103e 9487 143e
000000f0: 99dd ff3c 652c a3be 5d83 933d 0e6d dc3d
00000100: 2a9a 793c e09c 5c3e b61a 25be 9217 85be
00000110: b31d 253d 16eb 80bb 8733 46be 4418 8cbe
00000120: da99 b3bd 15b6 88be bb1d 0d3d af54 30bd
00000130: 8663 82be 87ff 0c3e fede 413e ee34 91bd
00000140: 9057 ac3d 142f 63be b2ce b73d 63b2 93be
00000150: 0341 133e 9101 2ebd 799b e9bd 0dc9 97be
00000160: 7543 063e 25e8 5e3e 65ff 41bd 7bc0 edbc
00000170: b846 183e f658 a0bd 3fdf 52be 880d 373e
00000180: 2c86 c43d ceab 8f3e e290 9f3d 7b92 9dbd
00000190: 60a6 31be 876d a3bd 0004 403d a5e6 233e
000001a0: 2b22 cdbd 2cc6 6ebe f55f 39be b45d 1fbe
000001b0: 2a1c 303e badd 01be 3a1b c4bd a328 833e
000001c0: 0210 93be 21b9 25be 903c 0abe 686c 75be
000001d0: d48e fb3d 126f e63d a5bd 83be 1640 5d3c
000001e0: dfc2 1fbd fc13 05be 4ab0 4abe 4c1f ea3c
000001f0: d801 87be f646 bf3c 3de8 a3bc 04ed d93d
00000200: 94ea 983e 770c 0e3e abbc 05bd ba15 6c3e
00000210: c04e 6c3e a7c7 3d3e a027 bd3d 4bc3 1bbe
00000220: fdb7 01be 533c 9bbd 5441 443e ef9f 2c3e
00000230: 6680 5b3e 29d2 f53c 781d 3a3d a5fc 823e
00000240: 524c 693e c003 04be 6474 f5bd 3707 a9bd
00000250: 1230 dcbd 0277 183e 3edf dfbd 4daf 2b3e
00000260: 83b1 76bd f832 b03c e2dd 94be 4601 fabd
00000270: 7bb1 67bc ceba 003e b47e 95bd 5b75 2d3d
00000280: 5ff3 b2bd 20db 1d3d 603e 38be a536 33be
00000290: 5c8b 823c bf9f 603e 9bd3 0f3e 0cb6 aabd
000002a0: 1e92 d33d 1cb4 96be bf9a 11be 78f8 40bd
000002b0: e17a 143e a8ea 16be 87c7 e8bd 23a9 5ebe
000002c0: 059b ed3d 33d7 83be 5566 043e 41e1 993d
000002d0: fc63 4e3e 9fec 9f3d dc54 ce3d d8a3 8f3d
000002e0: b2c4 4c3e f2c7 a1bd 6161 89bd 2f1c b83d
000002f0: 59f9 b73d 2bee 953d 09c7 b93d 9ea0 d93d
00000300: 1b14 493e 3c49 103b 4b04 2ebe 5c8f f83d
00000310: 8db0 8cbe 4d67 0f3e 8e16 b03d a315 113e
00000320: 4e7e f33c 7616 95be 229c 84be 18d0 aa3d
00000330: 3be2 17be d958 4fbd 9305 17be 8a61 3fbc
00000340: e4bc e63d 34a2 9bbd 2ae1 473e c6f9 a33d
00000350: b75f 39bc 4a4d 963e e57a 7b3e 93dd 443e
00000360: 18d0 823e dcbd 10bd 01c4 b93c bff3 58be
00000370: 4771 a6bd e362 ca3d 1098 4e3e f499 a1bd
00000380: 39ac 24be 0b4e 7d3e 6a20 8d3d 5bf0 8bbe
00000390: 1ba2 b63d 28d0 df3c 8e92 6e3d 1461 29be
000003a0: 8bb4 99bd 5487 86be 711c a8bb 1fb9 91bd
000003b0: 8bb3 2dbe 733d c3bd 6f93 d93d d6c1 003e
000003c0: a674 043e 2401 46be 0f1c b5bd cdae a5bd
000003d0: 8061 83bd c0f2 81bd 0a79 523e 4846 acbd
000003e0: 753e a53d e9de 983d 082b 2f3c 7f7d e5bd
000003f0: 34a3 63be 81fc 3b3e 5f37 0c3e 86d1 7d3e

gcpn_2.T2P.bias f4 [16]
-0.17064264 0.29425484 0.0037555615 -0.22639796 -0.28289074 -0.1645704 0.0555793 -0.3446263
0.24944597 -0.3701182 -0.021744328 0.47466308 0.30803695 0.052487135 0.16487077 -0.26603252
00000000: f2bc 2ebe 92a8 963e de1f 763b ded4 67be
00000010: 0ed7 90be 2585 28be 1fa7 633d dc72 b0be
00000020: c46e 7f3e 2280 bdbe 2921 b2bc 0a07 f33e
00000030: 05b7 9d3e c0fc 563d e2d3 283e 6a35 88be

gcpn_2.T2P.batch_norm.weight f4 [16]
0.91767204 0.9590164 1.090633 1.0799457 0.9881074 0.9014828 1.0155411 1.0115924
0.808369 0.99331534 1.0240563 0.95494455 1.073779 0.97562873 1.0117495 1.0500387
00000000: 8eec 6a3f 1982 753f dd99 8b3f a93b 8a3f
00000010: 9bf4 7c3f 94c7 663f 40fd 813f dc7b 813f
00000020: 45f1 4e3f ea49 7e3f 4714 833f 3f77 743f
00000030: 9771 893f cec2 793f 0281 813f ab67 863f

gcpn_2.T2P.batch_norm.bias f4 [16]
-0.10369452 -0.019850677 -0.0061510615 0.05112869 0.047662076 -0.12328683 -0.040005412 0.02503741
-0.08414617 0.03937717 0.04102123 -0.069247924 -0.017365495 0.09003757 -0.004147834 -0.026196912
00000000: cb5d d4bd e39d a2bc d88e c9bb 516c 513d
00000010: 4f39 433d ce7d fcbd b7dc 23bd 411b cd3c
00000020: d454 acbd f549 213d e105 283d dbd1 8dbd
00000030: 1542 8ebc 9e65 b83d 8eea 87bb e89a d6bc

gcpn_2.T2P.batch_norm.running_mean f4 [16]
0.6617676 0.77553594 -0.12589787 -1.5282564 -1.4785069 -0.96138513 -0.3465548 -1.9203255
2.0054274 -1.0787324 -1.1521248 1.5985734 -0.47266427 1.4416084 -0.52331406 -0.119375035
00000000: 9a69 293f 8689 463f 5feb 00be e89d c3bf
00000010: b73f bdbf 561d 76bf a16f b1be 3acd f5bf
00000020: ec58 0040 e713 8abf d378 93bf 0e9e cc3f
00000030: 0d01 f2be a086 b83f e9f7 05bf e67a f4bd

gcpn_2.T2P.batch_norm.running_var f4 [16]
68.40923 39.404198 20.38103 99.49304 72.292946 84.68167 28.481014 149.68921
207.6063 26.443571 60.798664 91.71068 48.14592 70.27655 44.582108 12.192765
00000000: 87d1 8842 e69d 1d42 590c a341 70fc c642
00000010: fd95 9042 045d a942 1ed9 e341 70b0 1543
00000020: 369b 4f43 6f8c d341 d531 7342 de6b b742
00000030: 6c95 4042 988d 8c42 1454 3242 9115 4341

gcpn_3.P2P.weight f4 [64, 16]
-0.12470569 0.16654196 0.043502524 -0.1544922 -0.088811815 0.03843446 -0.05621691 -0.06804451
0.04087293 -0.17499419 0.15953146 -0.059356768 0.10456404 -0.2405653 0.2836659 -0.23258118
0.11216698 -0.17272085 -0.19500372 -0.33339438 -0.0040106447 0.011342563 -0.13735606 -0.05034869
-0.039372966 0.003414559 -0.024009509 -0.19076225 -0.03854459 0.1778603 -0.0654976 -0.21063402
-0.22313546 -0.17659141 0.10206736 -0.13713077 -0.23747806 -0.023879234 0.24476136 0.26810983
-0.13540392 0.17117167 -0.028596302 0.20926765 0.30390406 0.14086443 0.078203596 -0.0033337828
0.04038204 -0.12952794 -0.21549387 -0.120750785 -0.0022815806 -0.07138784 0.12502009 0.15655471
0.0410595 0.022207463 -0.0024330271 -0.20176406 -0.16117857 0.11632343 -0.22193097 0.10350476
-0.051243246 -0.08951521 0.34791544 0.16941018 0.024195986 -0.010322028 0.01883896 0.28990832
0.03407837 -0.026374698 -0.0052439333 0.02316737 0.32626605 -0.20130688 -0.024615625 0.10299622
-0.06427772 0.14589934 -0.31238163 0.012313187 -0.1607241 0.26074675 -0.030526597 0.24430127
-0.12964028 -0.31701005 0.056219414 0.114192575 0.14831655 0.07249272 0.08432251 -0.060763214
-0.11476117 -0.21958148 -0.05448104 0.10400305 -0.075493306 -0.03671973 -0.16251515 -0.25465274
-0.15913916 -0.07862027 -0.21238889 0.12780404 -0.1580273 0.034374304 0.34765494 0.09633023
0.11167483 0.028584816 0.054636758 -0.21405743 0.15174665 0.038180728 0.027761465 0.067637324
0.14819744 0.010973128 -0.18238884 0.042304408 -0.21384002 -0.053756606 -0.15365598 0.29753637
-0.17579108 0.24234201 0.1707572 0.1276029 0.20858285 -0.2806011 0.1744857 -0.19258945
0.1873228 -0.16769135 0.16074237 -0.13448046 0.028026856 0.2579959 0.12176595 0.31588683
-0.18351555 -0.27706254 -0.04805988 0.098759435 0.058563642 0.012175044 -0.11663039 0.018789608
0.16494115 0.032565296 -0.14782731 -0.024658844 -0.18280786 -0.16824673 0.029605828 -0.267207
-0.10266855 0.10365329 0.18846613 0.27034703 -0.052769545 -0.040601913 0.19693951 0.018228672
-0.1927157 -0.104526095 -0.014628806 0.14680192 0.28604105 0.27537584 -0.08443384 -0.17660798
0.047335405 -0.40719756 0.13974045 0.20760557 -0.20827979 0.10445972 -0.113681644 -0.05029504
0.092545815 -0.12002094 0.16146892 0.064866774 0.1269537 -0.11752092 -0.08162116 0.16161862
0.10945559 -0.023630684 -0.36327052 -0.09621014 0.034144353 0.1288699 0.108153135 0.14486358
-0.008950694 0.06385173 -0.046519347 -0.1985477 -0.005693161 0.1536956 0.16303705 0.21161465
0.10519511 0.052096423 -0.19598778 0.031364635 -0.051331874 0.09414748 0.2077879 -0.037264638
-0.16033861 0.015454001 -0.14714624 0.028532391 0.13505873 0.1819989 -0.022327852 0.38384175
-0.033302687 0.0757175 -0.14694701 -0.2151491 -0.25532818 -0.25729677 -0.17110468 0.07246773
0.05537642 -0.16817822 -0.09186384 0.1668161 -0.16261354 -0.12997094 -0.1426257 0.082933344
0.13695015 0.03799248 0.2672318 -0.033842083 -0.014866287 -0.20070513 0.0006816754 0.08039022
0.10946255 0.13100967 -0.004917614 -0.18901762 0.10443781 0.04247703 0.15964341 -0.0718852
00000000: b265 ffbd fa89 2a3e b42f 323d 3433 1ebe
00000010: f8e2 b5bd 746d 1d3d b443 66bd ec5a 8bbd
00000020: 606a 273d ad31 33be 375c 233e 1520 73bd
00000030: ac25 d63d c056 76be a83c 913e c329 6ebe
00000040: cdb7 e53d bcdd 30be 0eaf 47be abb2 aabe
00000050: ba6b 83bb 28d6 393c 11a7 0cbe 6e3a 4ebd
00000060: 8c45 21bd cbc6 5f3b 97af c4bc 2e57 43be
00000070: efe0 1dbd 0321 363e 9b23 86bd 72b0 57be
00000080: 9f7d 64be 61d4 34be b108 d13d 026c 0cbe
00000090: 732d 73be 629e c3bc b9a2 7a3e b145 893e
000000a0: 53a7 0abe a047 2f3e cb42 eabc 424a 563e
000000b0: 5099 9b3e c43e 103e 3529 a03d 987b 5abb
000000c0: a367 253d f9a2 04be 6daa 5cbe 304c f7bd
000000d0: 9286 15bb ca33 92bd 4405 003e e14f 203e
000000e0: 022e 283d 6dec b53c 6c73 1fbb 3d9b 4ebe
000000f0: ff0b 25be fa3a ee3d df41 63be 4efa d33d
00000100: 70e4 51bd c053 b7bd f921 b23e dd79 2d3e
00000110: a936 c63c b91d 29bc 2a54 9a3c dd6e 943e
00000120: c395 0b3d c00f d8bc 4dd5 abbb 7fc9 bd3c
00000130: 580c a73e 6423 4ebe b5a6 c9bc afef d23d
00000140: 0aa4 83bd a366 153e 7cf0 9fbe 40bd 493c
00000150: dc94 24be 9980 853e ea12 fabc 1d2a 7a3e
00000160: 6cc0 04be 244f a2be 5446 663d ccdd e93d
00000170: 4be0 173e 1077 943d 48b1 ac3d d9e2 78bd
00000180: e807 ebbd f8d9 60be 8327 5fbd 8dff d43d
00000190: 3c9c 9abd 6d67 16bd 5f6a 26be d861 82be
000001a0: 60f5 22be aa03 a1bd 797c 59be 10df 023e
000001b0: e9d1 21be 12cc 0c3d d4ff b13e c948 c53d
000001c0: c6b5 e43d b42a ea3c cbca 5f3d df31 5bbe
000001d0: 7963 1b3e 6563 1c3d 036c e33c 7085 8a3d
000001e0: 12c1 173e a2c8 333c 24c4 3abe 6347 2d3d
000001f0: e1f8 5abe e32f 5cbd fe57 1dbe b056 983e
00000200: 9402 34be 8128 783e fada 2e3e 56aa 023e
00000210: be96 553e f3aa 8fbe 61ac 323e 2b36 45be
00000220: 8cd1 3f3e 48b7 2bbe a699 243e 3fb5 09be
00000230: 9498 e53c 0a18 843e 6d60 f93d ebbb a13e
00000240: 80eb 3bbe 24db 8dbe 70da 44bd 6342 ca3d
00000250: 6ee0 6f3d d679 473c eadb eebd aaec 993c
00000260: 55e6 283e 3063 053d 0b60 17be 5801 cabc
00000270: fc31 3bbe df48 2cbe ec87 f23c 5bcf 88be
00000280: e443 d2bd 2d48 d43d 44fd 403e ed6a 8a3e
00000290: e124 58bd 314e 26bd 83aa 493e 4c54 953c
000002a0: 4457 45be c711 d6bd a9ad 6fbc 3e53 163e
000002b0: f973 923e 10fe 8c3e a6eb acbd b9d8 34be
000002c0: c5e2 413d 337c d0be 1f18 0f3e 8e96 543e
000002d0: 4c47 55be faee d53d ecd1 e8bd 2c02 4ebd
000002e0: a988 bd3d 8acd f5bd 1c58 253e dfd8 843d
000002f0: 2700 023e cfae f0bd ff28 a7bd 5a7f 253e
00000300: 412a e03d 2395 c1bc 98fe b9be d209 c5bd
00000310: f3da 0b3d 79f6 033e 647f dd3d 1e57 143e
00000320: efa5 12bc b2c4 823d 128b 3ebd 1750 4bbe
00000330: b28d babb 6162 1d3e 2ff3 263e 83b1 583e
00000340: 8970 d73d 0f63 553d 05b1 48be 3478 003d
00000350: 5f41 52bd 65d0 c03d 5ac6 543e cea2 18bd
00000360: ce2f 24be c732 7d3c 81ad 16be c3bc e93c
00000370: d64c 0a3e eb5d 3a3e e6e8 b6bc e886 c43e
00000380: 6668 08bd c711 9b3d 4779 16be 0c50 5cbe
00000390: 60ba 82be 67bc 83be 1136 2fbe f669 943d
000003a0: 63d2 623d e936 2cbe 1c23 bcbd d7d1 2a3e
000003b0: 2a84 26be 1a17 05be 790c 12be f5d8 a93d
000003c0: a93c 0c3e 019e 1b3d 9bd2 883e ff9d 0abd
000003d0: ba91 73bc a585 4dbe 76b2 323a a1a3 a43d
000003e0: e72d e03d 6627 063e f023 a1bb d68d 41be
000003f0: 7ee3 d53d 65fc 2d3d 9079 233e 8c38 93bd

gcpn_3.P2P.bias f4 [64]
-0.14000608 -0.29471314 -0.15246274 0.09412588 0.010697604 0.42493337 0.2767641 0.12181795
0.1065283 0.22206715 0.07129269 -0.41394487 0.20699863 0.047186766 0.16671032 0.027018689
-0.18961215 -0.304498 0.23749045 -0.012643526 -0.1681499 0.10043956 -0.19456232 0.13361068
0.056544263 0.22486435 -0.2426002 -0.121843845 -0.07683089 0.2406826 -0.20707822 0.13817087
-0.09754983 0.1301647 0.26375976 0.27867374 -0.35298902 -0.16105916 -0.14257132 -0.17235503
-0.122294635 0.17690802 -0.2734617 0.2345551 -0.21673036 0.15098867 -0.30672172 -0.06137822
-0.0020923624 0.0038343752 -0.0029311052 -0.072263904 -0.07460796 -0.28968236 0.25134292 0.04624971
0.28762668 0.037915546 0.06125421 -0.11103953 -0.15278672 0.07548217 0.2128257 0.031912792
00000000: c15d 0fbe a4e4 96be 311f 1cbe 12c5 c03d
00000010: 0145 2f3c de90 d93e 06b4 8d3e b07b f93d
00000020: 822b da3d 9265 633e e701 923d 95f0 d3be
00000030: 73f7 533e e946 413d 1cb6 2a3e 4c56 dd3c
00000040: b029 42be 29e7 9bbe b230 733e cb26 4fbc
00000050: 7d2f 2cbe 42b3 cd3d 583b 47be 3dd1 083e
00000060: f59a 673d d742 663e 306c 78be 4489 f9bd
00000070: 8359 9dbd 8075 763e 500c 54be aa7c 0d3e
00000080: 35c8 c7bd e549 053e 850b 873e 53ae 8e3e
00000090: faba b4be b1ec 24be 37fe 11be d67d 30be
000000a0: 9c75 fabd 6027 353e 2c03 8cbe 362f 703e
000000b0: 90ee 5dbe c69c 1a3e a10a 9dbe ba67 7bbd
000000c0: 0420 09bb 244a 7b3b c917 40bb 19ff 93bd
000000d0: 0fcc 98bd 3f51 94be 05b0 803e 5670 3d3d
000000e0: ce43 933e 554d 1b3d b2e5 7a3d b168 e3bd
000000f0: 1f74 1cbe 6596 9a3d fbee 593e fdb6 023d

gcpn_3.P2P.batch_norm.weight f4 [64]
0.995679 1.0676851 0.9607494 1.1109995 1.1579043 1.1071786 0.9650085 0.95268583
1.1059003 1.0923343 1.0581595 0.9865187 1.0069693 1.0143588 0.96414316 1.0182629
1.0099939 1.0775338 0.98843014 1.0422438 1.0759145 0.96546865 0.94104254 0.9544039
1.0667301 1.0007957 0.97333425 1.031247 1.0583494 0.921224 0.9439076 1.0148879
1.068882 1.1408919 1.059128 1.0857944 0.97910535 1.0833678 0.97376466 0.95906615
1.0953612 1.0621372 0.9305612 1.0190119 1.097012 0.8250104 1.04826 0.9095144
0.8516718 0.9727933 0.7989395 1.1193463 1.0159024 0.98102725 1.0385562 0.99367565
0.968816 1.0255426 0.9400058 0.9247237 1.0152147 1.0936576 1.0064267 0.9781701
00000000: d2e4 7e3f e8a9 883f acf3 753f 3b35 8e3f
00000010: 3536 943f 07b8 8d3f cc0a 773f 38e3 733f
00000020: 248e 8d3f 9cd1 8b3f c571 873f 7d8c 7c3f
00000030: 5fe4 803f 82d6 813f 16d2 763f 7056 823f
00000040: 7b47 813f a1ec 893f c209 7d3f 3f68 853f
00000050: 91b7 893f f428 773f 2ae8 703f d053 743f
00000060: 9d8a 883f 131a 803f 6f2c 793f e7ff 833f
00000070: fe77 873f 56d5 6b3f eea3 713f d9e7 813f
00000080: 20d1 883f bf08 923f 8291 873f 50fb 8a3f
00000090: a6a6 7a3f ccab 8a3f a448 793f 5c85 753f
000000a0: cc34 8c3f 1df4 873f 4239 6e3f fb6e 823f
000000b0: e46a 8c3f e233 533f 622d 863f f0d5 683f
000000c0: 2a07 5a3f fb08 793f 4d87 4c3f bd46 8f3f
000000d0: 1709 823f 9a24 7b3f 69ef 843f 8761 7e3f
000000e0: 5304 783f fb44 833f 38a4 703f b1ba 6c3f
000000f0: 8ef2 813f f9fc 8b3f 97d2 803f 5b69 7a3f

gcpn_3.P2P.batch_norm.bias f4 [64]
-0.09042416 -0.03072314 -0.10344025 0.08771792 -0.12475359 -0.110373534 -0.18983914 -0.034629807
0.14109708 -0.0016191351 0.11244784 -0.029713474 0.00025908573 -0.009481312 -0.16682391 -0.06540202
0.121167205 -0.107520744 0.013744083 0.115048565 0.029554157 0.07042852 -0.09647593 -0.031189796
0.14783438 -0.09688214 0.09136761 0.0030304077 -0.03867101 -0.0527725 -0.087851584 -0.14042622
0.17512752 0.12719394 -0.027554477 -0.11988562 0.0031355391 -0.16149063 -0.06609879 -0.05940938
-0.1507265 -0.2284174 0.0028842266 -0.15148586 0.06597784 -0.21678786 0.15486233 -0.17890236
-0.04681117 -0.09311493 -0.17804533 -0.09082293 -0.07067392 0.0014962272 0.03289866 -0.011209192
-0.13741726 -0.065110296 -0.16893798 -0.13693452 0.023528708 -0.07134929 -0.28529775 -0.14643613
00000000: 4d30 b9bd 18af fbbc 7bd8 d3bd 74a5 b33d
00000010: cf7e ffbd 850b e2bd 3165 42be fcd7 0dbd
00000020: c17b 103e 2939 d4ba 0e4b e63d ac69 f3bc
00000030: e6d5 8739 8157 1bbc e3d3 2abe 7ff1 85bd
00000040: 8326 f83d d633 dcbd dd2e 613c 959e eb3d
00000050: 8f1b f23c d43c 903d 2c95 c5bd be81 ffbc
00000060: e561 173e 256a c6bd f11e bb3d ce99 463b
00000070: 7e65 1ebd fa27 58bd 88eb b3bd e4cb 0fbe
00000080: a154 333e 213f 023e edb9 e1bc 9886 f5bd
00000090: 9e7d 4d3b cd5d 25be cd5e 87bd 4057 73bd
000000a0: 0c58 1abe 40e6 69be 4b05 3d3b 1c1f 1bbe
000000b0: 641f 873d a3fd 5dbe 3b94 1e3e 2e32 37be
000000c0: 12bd 3fbd 0ab3 bebd 8451 36be 5f01 babd
000000d0: 7dbd 90bd 0e1d c43a bfc0 063d c2a6 37bc
000000e0: 1cb7 0cbe 8c58 85bd 14fe 2cbe 9038 0cbe
000000f0: 47bf c03c 941f 92bd 8c12 92be 5af3 15be

gcpn_3.P2P.batch_norm.running_mean f4 [64]
0.17783974 -0.5725475 0.870343 -0.25396118 0.4662576 0.56651807 -0.11082314 -0.31861275
0.18141562 0.06957221 0.87280923 -0.21091607 -0.32719028 -0.37011513 0.24431607 0.5133077
-0.0020582702 -0.048617274 0.2865723 -0.29996064 -0.92570275 0.436688 0.13709015 0.09201132
-0.46753907 0.013393357 -0.5904127 0.046779368 -0.93253255 -0.14546366 -0.19394398 -0.52333003
0.45904866 -0.3827945 0.70328236 0.9706271 -0.82336617 0.061853595 0.046995796 -0.15906814
-1.0436938 -0.25508544 0.20758899 0.94822484 0.21472597 0.9042043 -0.3957373 0.33316457
0.3083133 -0.44875208 -0.14213002 0.28465044 0.20373313 -0.8705654 -0.11870251 -0.6201169
1.3578486 -0.42879385 0.5052967 0.4736229 -0.0591803 -0.41230094 -0.4758243 0.433343
00000000: 9f1b 363e 7992 12bf cdce 5e3f 3307 82be
00000010: 51b9 ee3e 5407 113f 3ef7 e2bd 3621 a3be
00000020: 04c5 393e e07b 8e3d 6d70 5f3f 62fa 57be
00000030: 7c85 a7be bb7f bdbe fe2d 7a3e 2268 033f
00000040: 0be4 06bb e822 47bd 9bb9 923e 7194 99be
00000050: dbfa 6cbf 9295 df3e 5c61 0c3e 6e70 bc3d
00000060: 4861 efbe d06f 5b3c 4925 17bf b99b 3f3d
00000070: 74ba 6ebf 6df4 14be 4099 46be f5f8 05bf
00000080: 6d08 eb3e a4fd c3be 500a 343f 057b 783f
00000090: 20c8 52bf 325a 7d3d aa7e 403d c2e2 22be
000000a0: c297 85bf 8f9a 82be 3592 543e ddbe 723f
000000b0: 20e1 5b3e ef79 673f 149e cabe 8c94 aa3e
000000c0: 3edb 9d3e d5c2 e5be 888a 11be b4bd 913e
000000d0: 6b9f 503e 60dd 5ebf 4d1a f3bd fbbf 1ebf
000000e0: fccd ad3f de8a dbbe 205b 013f b37e f23e
000000f0: 0b67 72bd 1c19 d3be 3e9f f3be 22df dd3e

gcpn_3.P2P.batch_norm.running_var f4 [64]
18.28049 4.8809056 8.136601 4.76818 8.885862 8.394699 13.702792 18.254322
8.668923 18.020073 6.446734 4.2633553 11.923277 17.705616 15.319308 8.741523
8.384435 3.3061206 26.917736 18.007166 4.7063274 16.740768 10.898182 23.769947
11.791751 27.876583 12.176164 2.7771513 8.460892 17.776478 5.818935 8.023332
7.2600236 8.140695 2.969391 6.267121 26.875381 5.3626814 14.613964 16.272
8.529897 19.79691 13.736916 7.539124 6.342947 47.379402 5.087698 10.14334
36.40439 38.06855 45.79642 7.2969103 10.854634 13.8004875 13.732209 16.807846
16.110939 23.744518 23.366735 18.815674 12.989848 18.943823 14.552289 25.19612
00000000: 723e 9241 6130 9c40 852f 0241 ee94 9840
00000010: 7e2c 0e41 b050 0641 a33e 5b41 da08 9241
00000020: e9b3 0a41 1c29 9041 a54b ce40 686d 8840
00000030: bec5 3e41 1aa5 8d41 e31b 7541 47dd 0b41
00000040: a526 0641 7b97 5340 8657 d741 ad0e 9041
00000050: 3c9a 9640 18ed 8541 f45e 2e41 da28 be41
00000060: 03ab 3c41 3e03 df41 91d1 4241 d9bc 3140
00000070: d05f 0741 3a36 8e41 b734 ba40 915f 0041
00000080: 1d52 e840 4940 0241 810a 3e40 418c c840
00000090: c800 d741 169b ab40 ccd2 6941 0e2d 8241
000000a0: 757a 0841 1260 9e41 68ca 5b41 8140 f140
000000b0: 6cf9 ca40 8284 3d42 6cce a240 1f4b 2241
000000c0: 189e 1142 3246 1842 892f 3742 4a80 e940
000000d0: 95ac 2d41 ccce 5c41 21b7 5b41 7876 8641
000000e0: 34e3 8041 c6f4 bd41 13ef ba41 8086 9641
000000f0: 6bd6 4f41 f38c 9741 2dd6 6841 a791 c941
