dtefm_middle/resource/trained_memory/PPO_critic_lock_s.pth (torch, 112974 bytes, 79 tensors)

gcpn_1.P2P.weight f4 [8, 3]
0	0xbee6675a	-0.45000726
1	0x3ea9c4d8	0.33157992
2	0x3f0becd2	0.54658234
3	0xbce03ba7	-0.027372194
4	0x3ea367d4	0.31915152
5	0xbcfe6e0d	-0.031058336
6	0x3ee107ba	0.43951207
7	0xbe62c999	-0.22147216
8	0xbd212b93	-0.039348196
9	0x3e881029	0.2657483
10	0x3e99fe6f	0.3007693
11	0xbdf957ad	-0.12174926
12	0xbf183838	-0.59460783
13	0xbe0aa954	-0.13541156
14	0xbe948de7	-0.29014513
15	0xbe880fcb	-0.2657455
16	0x3e2fba17	0.17160831
17	0xbe545653	-0.20736055
18	0xbf120bb8	-0.5704913
19	0xbee25f3c	-0.44213283
20	0xbebc7283	-0.36806116
21	0x3ee25882	0.4420815
22	0x3ec7c9f0	0.39021254
23	0x3f1adb05	0.6049045

gcpn_1.P2P.bias f4 [8]
0	0xbee95775	-0.45574537
1	0xbd93b44b	-0.072121225
2	0xbe9a3cf0	-0.30124617
3	0xbdf823b0	-0.12116182
4	0x3dd2c79a	0.10291977
5	0xbdcdf17c	-0.10055825
6	0x3e217b8d	0.15769787
7	0xbe8e6e4d	-0.27818528

gcpn_1.P2P.batch_norm.weight f4 [8]
0	0x3f7583db	0.9590432
1	0x3f7efef8	0.996078
2	0x3f83038b	1.0235456
3	0x3f840791	1.0314809
4	0x3f8097e4	1.0046353
5	0x3f8434d4	1.0328622
6	0x3f8304e8	1.0235872
7	0x3f7807fa	0.9688717

gcpn_1.P2P.batch_norm.bias f4 [8]
0	0xbdde14ca	-0.10843809
1	0x3c5d51d7	0.013508282
2	0xbc8c7123	-0.017143792
3	0xbcc0313a	-0.023460973
4	0xbcdd99aa	-0.027050812
5	0x3cb67b73	0.022275662
6	0x3e056d32	0.13029936
7	0xbd16c53b	-0.036809187

gcpn_1.P2P.batch_norm.running_mean f4 [8]
0	0x3e80a11d	0.2512292
1	0x3e9e75d9	0.30949286
2	0xbedd8918	-0.43268657
3	0x3e937792	0.28802162
4	0xbf1727b9	-0.59044987
5	0xbe2f2b3e	-0.1710634
6	0xbf7eeb26	-0.9957756
7	0x3f7496f9	0.95542866

gcpn_1.P2P.batch_norm.running_var f4 [8]
0	0x3eb86d61	0.3602095
1	0x3e749a8a	0.23887077
2	0x3e1b44f3	0.15163021
3	0x3ea298b1	0.3175712
4	0x3ecd1834	0.40057528
5	0x3d9754c8	0.073892176
6	0x3f8716d4	1.0553842
7	0x3f62cc1b	0.8859269

gcpn_1.T2T.weight f4 [8, 3]
0	0xbf03dd51	-0.5150958
1	0xbeebdc76	-0.46066636
2	0xbee9a1cf	-0.45631263
3	0x3e99caa1	0.30037406
4	0x3e843dbc	0.2582835
5	0xbcb25f87	-0.021774067
6	0xbd80ebdc	-0.062949866
7	0x3f06f227	0.52713245
8	0xbe363c43	-0.17796426
9	0x3e4bdba1	0.19908
10	0xbe5cd4a2	-0.21565488
11	0x3e98afcf	0.2982163
12	0x3d9e08bf	0.07716512
13	0x3e47ad46	0.19499692
14	0xbeeb1a97	-0.45918724
15	0xbe800090	-0.2500043
16	0xbdfa677c	-0.12226769
17	0x3eba088b	0.36334643
18	0x3ea04bd3	0.3130785
19	0x3eb1aa67	0.3470032
20	0x3f03579a	0.51305544
21	0xbef7e092	-0.4841352
22	0xbe92cb29	-0.28670624
23	0xbf03365e	-0.5125483

gcpn_1.T2T.bias f4 [8]
0	0xbf0e29d3	-0.5553257
1	0xbd617136	-0.055039607
2	0xbe9b8efd	-0.3038253
3	0x3eaf2bac	0.34213006
4	0xbecb1059	-0.3966091
5	0xbeb8e89c	-0.36114967
6	0xbf058a67	-0.5216431
7	0xbdacf703	-0.08445551

gcpn_1.T2T.batch_norm.weight f4 [8]
0	0x3f7f9c31	0.99847704
1	0x3f7c6c2d	0.98602563
2	0x3f7c2735	0.98497325
3	0x3f7d04b9	0.9883533
4	0x3f82bb4d	1.021341
5	0x3f801ba7	1.0008439
6	0x3f7b5904	0.981827
7	0x3faeae6d	1.364698

gcpn_1.T2T.batch_norm.bias f4 [8]
0	0xbd9e31a5	-0.07724313
1	0xbd570d34	-0.052502826
2	0x3d3cd413	0.046100687
3	0xbc7e5882	-0.015524032
4	0x3cd112ad	0.0255216
5	0xbbda4c29	-0.006661911
6	0x3ca42f0b	0.020041963
7	0xbda16c7f	-0.07882022

gcpn_1.T2T.batch_norm.running_mean f4 [8]
0	0xbf5ec49e	-0.87018764
1	0x3dd8fc83	0.10595038
2	0xbe8072b8	-0.25087523
3	0x3ecff4db	0.40616497
4	0xbebaf7b3	-0.36517105
5	0xbee7fbb1	-0.45309213
6	0xbe99be5e	-0.3002805
7	0xbeb9d4f2	-0.36295277

gcpn_1.T2T.batch_norm.running_var f4 [8]
0	0x3f990aa2	1.195637
1	0x3ecf1886	0.40448397
2	0x3d1b563d	0.03792404
3	0x3e3bac6d	0.18327494
4	0x3ced649f	0.028978644
5	0x3e929092	0.28625923
6	0x3ee598e2	0.44843203
7	0x3f8722ae	1.0557458

gcpn_1.P2T.weight f4 [8, 8]
0	0x3e64e8cd	0.22354431
1	0xbe57fd56	-0.21092734
2	0xbea759c3	-0.3268567
3	0x3e95746a	0.2919038
4	0xbe9fdfeb	-0.31225523
5	0x3c411c8f	0.011786594
6	0x3ea22e76	0.31676072
7	0xbe1b96eb	-0.1519429
8	0x3e0a4a6c	0.13504952
9	0x3d1dbf04	0.038512245
10	0xbe85b53d	-0.26114836
11	0xbea7d058	-0.3277614
12	0x3ecfc771	0.4058185
13	0xbe5823e5	-0.21107443
14	0xbe6f9226	-0.23395595
15	0xbe297720	-0.16549349
16	0x3e3ef74f	0.18649028
17	0x3e4b6e00	0.1986618
18	0xbe84e82c	-0.25958383
19	0x3dfa5702	0.12223627
20	0x3e2d22cf	0.1690781
21	0x3e1a26af	0.15053819
22	0xbe2ed4c9	-0.17073359
23	0x3dbdd845	0.09269766
24	0xbdc0d22b	-0.09415086
25	0x3e83259b	0.25614628
26	0x3e5b2b89	0.21403326
27	0x3e71399b	0.23557131
28	0xbe572de1	-0.21013595
29	0xbe12ffbb	-0.14355366
30	0x3e796542	0.24355033
31	0x3e51cded	0.2048871
32	0xbd284028	-0.04107681
33	0xbeb2603b	-0.34839043
34	0xbd9cbdf9	-0.07653422
35	0xbdcc2dd2	-0.09969677
36	0x3e8a0c41	0.26962474
37	0xbe9cd209	-0.30628994
38	0x3e8a8179	0.27051905
39	0x3e2cd7f1	0.1687925
40	0x3e89db90	0.26925325
41	0xbe8781fc	-0.26466358
42	0xbf699373	-0.91240615
43	0xbdbca1ca	-0.09210546
44	0x3e0ee7de	0.13955638
45	0x3ea4d058	0.32190204
46	0xbdf72a45	-0.12068609
47	0xbe7c6ea3	-0.2465158
48	0x3eb3d0d0	0.3512025
49	0x3eafba9e	0.34322065
50	0xbde6ef1f	-0.112760775
51	0x3e1889da	0.14896336
52	0xbdfaa2e7	-0.122381024
53	0xbda1f0cd	-0.07907257
54	0xbc897332	-0.016778562
55	0xbe017093	-0.126406
56	0xbe014f8a	-0.12627998
57	0xbe903457	-0.28164932
58	0x3e0dc1cd	0.1384346
59	0xbe65c3a2	-0.22437909
60	0xbe7df7ea	-0.24801603
61	0x3e8a27cc	0.26983488
62	0x3df30018	0.11865252
63	0x3e96a67b	0.2942389

gcpn_1.P2T.bias f4 [8]
0	0x3d1de2e5	0.03854646
1	0x3e6b78ba	0.22995272
2	0x3ec09e4f	0.3762078
3	0xbe8a2506	-0.26981372
4	0xbde2a520	-0.11066651
5	0x3eba43b6	0.36379784
6	0x3e59e6d3	0.21279459
7	0xbe00e3df	-0.12586926

gcpn_1.P2T.batch_norm.weight f4 [8]
0	0x3f8b1dd7	1.0868481
1	0x3f806fde	1.0034139
2	0x3f85ea11	1.0462056
3	0x3f808303	1.0039982
4	0x3f7e1bb1	0.99261004
5	0x3f7fa6d6	0.99863946
6	0x3f678fa0	0.9045353
7	0x3f74560b	0.9544379

gcpn_1.P2T.batch_norm.bias f4 [8]
0	0x3d8c327a	0.06845565
1	0xbcaafa70	-0.020871371
2	0xbd418cc8	-0.0472534
3	0xbd0a7745	-0.03380515
4	0x3cb359ef	0.02189347
5	0xbd50852b	-0.05090825
6	0xbd33b02d	-0.043869186
7	0xbe0419a7	-0.1290041

gcpn_1.P2T.batch_norm.running_mean f4 [8]
0	0x3e65f613	0.22457151
1	0xbe95bc3d	-0.29245177
2	0x3fc0eb2a	1.5071766
3	0xbe75877e	-0.23977467
4	0xbfb53d7e	-1.4159391
5	0x3faef2f9	1.3667899
6	0x3f5677b1	0.83776385
7	0xbdc2a972	-0.095049754

gcpn_1.P2T.batch_norm.running_var f4 [8]
0	0x3e5500d2	0.20801094
1	0x3f61abf4	0.88153005
2	0x3f78317b	0.969505
3	0x3f62a16f	0.8852758
4	0x40073024	2.1123133
5	0x40a0f1f8	5.029537
6	0x3f618680	0.88095856
7	0x3d5c944d	0.05385237

gcpn_1.T2P.weight f4 [8, 8]
0	0xbeb1c2ec	-0.34719026
1	0x3e5cfff2	0.2158201
2	0xbdecf973	-0.11571016
3	0x3ea4cf00	0.32189178
4	0xbe9dbd7d	-0.3080863
5	0x3e08fa75	0.13376792
6	0x3e4cd112	0.20001629
7	0xbe1ef3eb	-0.15522735
8	0xbdde4adf	-0.10854124
9	0xbe8dd191	-0.2769895
10	0x3dace2d4	0.084417015
11	0xbe2db1db	-0.16962378
12	0xbe5907e7	-0.21194421
13	0xbdd04684	-0.101697
14	0x3e8cb324	0.27480423
15	0xbe0991e9	-0.13434567
16	0xbe150c4e	-0.14555475
17	0x3e6bd38c	0.23029917
18	0xbe2aa6bc	-0.16665167
19	0xbe7d4183	-0.24732022
20	0xbe9e5203	-0.30921945
21	0x3d090893	0.033455443
22	0x3c611249	0.01373727
23	0xbc969b18	-0.018384501
24	0xb905fc15	-0.00012777776
25	0xbe3d8846	-0.18509015
26	0xbd342c79	-0.043987725
27	0x3d9c45d3	0.076305054
28	0xbdd75b05	-0.105154075
29	0x3d16a47a	0.03677795
30	0x3e84773c	0.2587222
31	0xbebd9db8	-0.37034392
32	0x3a24ff7d	0.0006294174
33	0xbe59f1af	-0.21283601
34	0x3d92f4a8	0.07175571
35	0xbe5993b9	-0.21247758
36	0xbe0d259b	-0.13783877
37	0xbe8dbb6e	-0.2768206
38	0x3e8bd449	0.27310398
39	0xbe74f48a	-0.23921409
40	0xbe9eec2b	-0.31039557
41	0x3e8462a6	0.25856513
42	0x3ea90871	0.33014253
43	0x3eae9af1	0.34102586
44	0x3e8f8393	0.2803007
45	0xbebf9b9f	-0.37423417
46	0xbe97262a	-0.29521304
47	0x3e866a2e	0.26252884
48	0xbe63e4c4	-0.22255236
49	0xbd36a488	-0.044590503
50	0x3e3781c9	0.17920603
51	0x3d504373	0.050845575
52	0x3eec7241	0.4618092
53	0xbe5cdb8f	-0.2156813
54	0x3e03de8f	0.12877868
55	0x3df8e2de	0.121526465
56	0xbe8710d9	-0.2638004
57	0xbe86a446	-0.26297206
58	0xbe8f3cce	-0.27976078
59	0xbd8df3bc	-0.06931254
60	0xbe02acad	-0.12761183
61	0x3d83d924	0.06437901
62	0xbe027f8e	-0.12743971
63	0xbd62921d	-0.055315126

gcpn_1.T2P.bias f4 [8]
0	0x3ea4e651	0.32206967
1	0x3dbf721b	0.09347936
2	0x3dbcb8a4	0.09214905
3	0x3e5de5d0	0.21669698
4	0x3cf60699	0.030032443
5	0x3e8a89fb	0.27058396
6	0x3d89b1b3	0.067233466
7	0xbe8507df	-0.25982568

gcpn_1.T2P.batch_norm.weight f4 [8]
0	0x3f802f7a	1.0014489
1	0x3f7aaffd	0.97924787
2	0x3f7db08c	0.99097514
3	0x3f888491	1.0665456
4	0x3f817e57	1.0116681
5	0x3f7cdbd8	0.98772955
6	0x3f730c2c	0.9494045
7	0x3f80653e	1.0030897

gcpn_1.T2P.batch_norm.bias f4 [8]
0	0xbd94a2d2	-0.07257618
1	0xbc7659af	-0.015036031
2	0xbcc6970c	-0.024241947
3	0xbd7de325	-0.0619842
4	0xbbdcee1e	-0.006742253
5	0xbd4a1a65	-0.049341578
6	0xbd57e39e	-0.052707307
7	0xbcf78145	-0.030213008

gcpn_1.T2P.batch_norm.running_mean f4 [8]
0	0x3ecfad2d	0.4056181
1	0x3d978a98	0.073994815
2	0xbeba147f	-0.36343762
3	0x3ec22c25	0.37924305
4	0xbcf98c6a	-0.030462462
5	0x3eb38529	0.3506253
6	0x3e8c8105	0.27442184
7	0xbf71d7c7	-0.94469875

gcpn_1.T2P.batch_norm.running_var f4 [8]
0	0x41c8189e	25.01202
1	0x41f0b197	30.086714
2	0x41c2c52c	24.346275
3	0x411d3723	9.825961
4	0x41d21755	26.261393
5	0x4229a82b	42.414227
6	0x420ec926	35.696434
7	0x4298f481	76.47755

gcpn_2.P2P.weight f4 [16, 8]
0	0x3ea26ba2	0.31722742
1	0x3e88120d	0.26576272
2	0x3e9f3574	0.3109547
3	0xbe2c507b	-0.16827576
4	0x3e9b7583	0.30363092
5	0xbd1336e3	-0.035941016
6	0xbe8c4d0e	-0.27402538
7	0x3e497636	0.19674
8	0x3e4849a0	0.19559336
9	0x3e86eac4	0.26350987
10	0xbed28cb4	-0.41122973
11	0xbe9ddb29	-0.30831268
12	0xbecadb6e	-0.39620537
13	0xbdb13d8a	-0.08654316
14	0x3d92350d	0.07139025
15	0xbe90b805	-0.28265396
16	0x3e8e660e	0.27812237
17	0xbd91d182	-0.071200386
18	0x3e72f5b2	0.23726538
19	0xbdf07240	-0.117405415
20	0xbe880032	-0.2656265
21	0x3da2e624	0.07954052
22	0x3d0dc865	0.03461494
23	0x3ddd7fe3	0.10815408
24	0x3a00833f	0.00049023697
25	0x3b8f9021	0.004381195
26	0x3ebefdbf	0.37302968
27	0x3e0c8f7f	0.13726614
28	0x3e4547cf	0.19265674
29	0xbd38eb89	-0.0451465
30	0x3e3b66a0	0.18300867
31	0x3e221a33	0.15830307
32	0x3e718fe8	0.23590052
33	0x3e409772	0.18807772
34	0x3e65f49b	0.22456591
35	0x3e9e7b02	0.30953223
36	0x3de5a54a	0.11213167
37	0xbdf451c5	-0.11929659
38	0x3da6a9b4	0.08137837
39	0xbe995bfe	-0.29952997
40	0x3e47d971	0.19516541
41	0x3e1d6910	0.1537211
42	0x3d03c544	0.03217055
43	0xbe57d6bc	-0.21078008
44	0xbe1689f7	-0.14701067
45	0xbedadd6d	-0.4274706
46	0xbe8e75f5	-0.2782437
47	0x3e5376ae	0.20650741
48	0xbed62112	-0.41822106
49	0xbd6e5241	-0.058183912
50	0x3d480e57	0.0488418
51	0x3e3fda4d	0.18735619
52	0xbe46e13f	-0.19421862
53	0x3d9a4074	0.07531825
54	0xbe71a195	-0.23596795
55	0x3e7db60b	0.24776475
56	0x3e9ae23e	0.30250734
57	0x3e1090f7	0.141178
58	0xbdca9bf0	-0.09893024
59	0xbc9e1552	-0.019297276
60	0xbdbbd60c	-0.091716856
61	0xbe95aa58	-0.29231524
62	0x3deac381	0.11463071
63	0xbd2038cd	-0.03911667
64	0x3d901f22	0.07037188
65	0x3ec2ddf0	0.3805995
66	0x3e3203af	0.17384218
67	0x3e8a56ca	0.2701934
68	0x3e62bc0c	0.22142047
69	0xbd2a7b8f	-0.04162174
70	0x3cda2086	0.026626837
71	0xbdd86bab	-0.10567411
72	0xbe9fa45b	-0.3118008
73	0x3e6e3cc3	0.23265366
74	0xbe321c5e	-0.17393634
75	0x3dfba9b7	0.1228823
76	0x3e284567	0.16432725
77	0xbe43f6e9	-0.19137157
78	0xbe2f7c39	-0.17137231
79	0x3e76856c	0.24074334
80	0x3e1d0d35	0.1533707
81	0x3ddfa917	0.10920923
82	0xbe6909e0	-0.22757673
83	0x3dcb3503	0.099222206
84	0x3e9808b4	0.2969414
85	0xbd41f4ec	-0.047352716
86	0xbd61472b	-0.05499951
87	0xbc5e371e	-0.013562946
88	0xbe80c6d5	-0.25151697
89	0xbe7645a1	-0.24049999
90	0xbe1e8bb7	-0.15482984
91	0xbe92a44c	-0.28640974
92	0x3def407b	0.116822205
93	0xbdb8fd81	-0.09032727
94	0x3e703e2d	0.23461218
95	0xbe782caf	-0.24235795
96	0xbdecaca3	-0.11556365
97	0x3e2c2769	0.16811909
98	0xbd2a5a58	-0.041590065
99	0xbd74e428	-0.0597879
100	0x3c82b947	0.015957488
101	0x3df3de80	0.11907673
102	0x3bd16d84	0.006391229
103	0xbea8e4fb	-0.32987198
104	0x3e8c7e98	0.27440333
105	0xbe3efbbc	-0.18650717
106	0x3e881991	0.26582006
107	0xbe6d8581	-0.23195459
108	0xbb306f23	-0.0026921711
109	0xbeb32ed7	-0.34996673
110	0x3c81a80d	0.015827203
111	0xbd873196	-0.06601255
112	0x3d018238	0.031618327
113	0x3d68f28a	0.05687193
114	0x3db590b2	0.08865489
115	0xbe9a803d	-0.30175963
116	0xba6054c4	-0.0008557553
117	0x3e812af7	0.25228092
118	0xbd6a83de	-0.057254665
119	0xbcedad39	-0.029013263
120	0x3e5f9072	0.21832445
121	0xbe36c789	-0.17849554
122	0x3e82a7ef	0.25518748
123	0xbeab371e	-0.3344049
124	0x3db9a73d	0.09065101
125	0xbe784b58	-0.24247491
126	0xbe8ab734	-0.27092898
127	0x3ea127f1	0.31475785

gcpn_2.P2P.bias f4 [16]
0	0x3e6169ef	0.22013067
1	0xbdef51dc	-0.11685535
2	0xbdab965f	-0.083782904
3	0xbe6effb1	-0.23339726
4	0x3e189f9f	0.1490464
5	0x3c53d6ec	0.012929659
6	0x3e14b616	0.14522585
7	0xbdfb8b18	-0.122823894
8	0x3e3202e6	0.17383918
9	0xbe3c552a	-0.18391863
10	0x3ec6d6eb	0.38835844
11	0x3e5ef27e	0.21772191
12	0xbdc01f95	-0.09381024
13	0x3e7bff89	0.24609198
14	0x3d925c95	0.07146565
15	0x3e6ba493	0.23011999

gcpn_2.P2P.batch_norm.weight f4 [16]
0	0x3f8472a6	1.0347488
1	0x3f7a8e6d	0.97873574
2	0x3f806124	1.0029645
3	0x3f843b64	1.0330625
4	0x3f83165f	1.0241202
5	0x3f865985	1.0496069
6	0x3f6ae342	0.9175302
7	0x3f7bf971	0.9842749
8	0x3f8423c4	1.0323415
9	0x3f83b435	1.028937
10	0x3f7df06e	0.9919499
11	0x3f7d0278	0.9883189
12	0x3f7fd654	0.99936414
13	0x3f83b49c	1.0289493
14	0x3f817ce3	1.0116237
15	0x3f843d5c	1.0331225

gcpn_2.P2P.batch_norm.bias f4 [16]
0	0x3d4112c8	0.04713705
1	0x3abb1f9a	0.0014276386
2	0x3d35baff	0.044367786
3	0x3cf99eb2	0.03047118
4	0x3d71fe6b	0.059080523
5	0x3d651756	0.055930458
6	0xbcbee219	-0.023301171
7	0x3c8ea2ae	0.017411556
8	0xbd0aa9da	-0.03385339
9	0x3c2cb2a2	0.010540636
10	0x3c1e6736	0.009668162
11	0x3d0072be	0.031359427
12	0x3d1163ab	0.03549544
13	0xbce18ff0	-0.027534455
14	0x3d125030	0.035721004
15	0x3d628663	0.055303942

gcpn_2.P2P.batch_norm.running_mean f4 [16]
0	0x3fa0bbea	1.2557347
1	0xbed1cc38	-0.4097612
2	0xbec12716	-0.37725133
3	0xbdc6e3b7	-0.09711402
4	0x3fd7dc7f	1.6864165
5	0x3f5a7f43	0.85350436
6	0x3f174458	0.5908866
7	0x3f185efb	0.5951993
8	0x3ffa7c14	1.9569116
9	0x3f7f5a21	0.997469
10	0x3fb8f6f5	1.4450365
11	0xc00eacd5	-2.2292988
12	0xbeca7c37	-0.39547893
13	0xbf0b6386	-0.54448736
14	0xbf72eb3d	-0.94890195
15	0xbe84789b	-0.25873265

gcpn_2.P2P.batch_norm.running_var f4 [16]
0	0x4134a407	11.290046
1	0x4120af11	10.042741
2	0x40dd2152	6.9103174
3	0x402fc050	2.7461128
4	0x401cd7c8	2.4506702
5	0x41ba1118	23.258347
6	0x412f6982	10.963259
7	0x3f825dae	1.0184839
8	0x40219814	2.524907
9	0x41cf8f0a	25.944843
10	0x3f45c467	0.7725281
11	0x40868d7e	4.204772
12	0x3fd80399	1.6876098
13	0x40b85a71	5.76104
14	0x401a9391	2.4152567
15	0x4198373d	19.026972

gcpn_2.T2T.weight f4 [16, 8]
0	0xbcc305e8	-0.023806527
1	0x3e80cca5	0.2515613
2	0x3eb24727	0.3481991
3	0xbdb91fec	-0.09039292
4	0xbe8023b1	-0.2502723
5	0x3ec41c40	0.38302803
6	0x3ea3910f	0.31946608
7	0xbd031208	-0.031999618
8	0xbcdb9fe1	-0.026809635
9	0x3dd0c9c4	0.10194734
10	0xbe76da47	-0.24106704
11	0xbc1bde65	-0.009513472
12	0x3ec18b04	0.37801373
13	0x3e59d2a4	0.2127176
14	0x3d1ba95c	0.03800331
15	0xbe5d8572	-0.21632937
16	0x3ea780f6	0.32715577
17	0x3ec05935	0.3756806
18	0xbe158b6a	-0.14603963
19	0xbe40e258	-0.18836343
20	0x3e8663a1	0.26247886
21	0x3e1b7590	0.15181565
22	0x3b0a7e03	0.0021132238
23	0x3da79174	0.0818204
24	0xbe51a3bb	-0.20472614
25	0x3e80efc8	0.2518294
26	0x3d558aba	0.052134253
27	0xbe6c14b2	-0.2305477
28	0xbe431da8	-0.19054282
29	0xbe24673e	-0.16055009
30	0x3e3cfac8	0.1845504
31	0xbdb55a85	-0.08855156
32	0xbdcdce19	-0.10049076
33	0x3ca5b216	0.02022652
34	0xbe3aa5dc	-0.18227333
35	0xbc4168ff	-0.011804818
36	0xbd22baa4	-0.039728776
37	0xbd7b7abf	-0.061396357
38	0xbe06ba72	-0.1315706
39	0xbeb1bd04	-0.3471452
40	0xbe329075	-0.17437918
41	0xbe38948e	-0.18025419
42	0x3d3352ec	0.043780252
43	0xbc743015	-0.014904042
44	0x3e51c59e	0.20485541
45	0xbee83b85	-0.4535791
46	0xbe1acb13	-0.15116529
47	0x3ded6fcd	0.1159359
48	0xbe8a9c5e	-0.27072424
49	0x3dec3661	0.115338095
50	0xbe7ffe97	-0.24999462
51	0x3e9f5ce1	0.31125548
52	0xbddc06f4	-0.10743514
53	0xbe672c2f	-0.22575448
54	0xbd97fa78	-0.0742082
55	0xbd42380b	-0.047416728
56	0xbe9ddb49	-0.30831364
57	0xbddd1e08	-0.10796744
58	0xbe8ddaed	-0.2770609
59	0xbe0b7a0d	-0.13620777
60	0x3e3354b1	0.17512776
61	0xbe64eac3	-0.2235518
62	0xbc35826d	-0.011078459
63	0xbde3da22	-0.1112559
64	0x3e680fc8	0.2266227
65	0xbe4f8eec	-0.20269364
66	0x3dd8c0a5	0.10583619
67	0x3df136ce	0.11778031
68	0xbe6db40d	-0.23213215
69	0x3eae2bd2	0.34017807
70	0xbdf389eb	-0.1189154
71	0xbe8abdeb	-0.2709802
72	0x3d893266	0.06699066
73	0xbeb0e5d7	-0.34550354
74	0xbe389b0c	-0.18027896
75	0xbde3faf5	-0.11131851
76	0x3ecf4521	0.4048243
77	0x3d0342da	0.032046176
78	0xbe779025	-0.2417608
79	0x3e857f50	0.26073694
80	0xbeb54302	-0.35402685
81	0xbd2c3d1b	-0.042050462
82	0x3b25c3c7	0.0025293694
83	0xbda104c1	-0.07862235
84	0xbe5c20b8	-0.21496856
85	0x3c297cf2	0.010344731
86	0xbde1179c	-0.10990831
87	0x3e5fa9ac	0.21842068
88	0x3e79b636	0.24385914
89	0x3e2486e7	0.16067086
90	0xbc23d37d	-0.009999153
91	0xbe4a5317	-0.19758259
92	0x3d686ce7	0.056744482
93	0x3ed8d6b8	0.42351317
94	0xbdb072bd	-0.086156346
95	0x3d7e78be	0.062126867
96	0x3e56751a	0.20943108
97	0xbed35309	-0.41274288
98	0x3e8ee60b	0.27909884
99	0x3dad5f8b	0.08465489
100	0xbe9b8e1c	-0.30381858
101	0x3e9004ab	0.2812856
102	0xbe6a6d9a	-0.22893372
103	0x3d14a372	0.036288686
104	0xbe766bee	-0.2406461
105	0x3e1a3a85	0.15061386
106	0xbe9a941d	-0.30191126
107	0x3d94d2e8	0.0726679
108	0xbe80cae0	-0.2515478
109	0xbecf331c	-0.4046868
110	0xbe009e86	-0.12560472
111	0x3e5c7365	0.21528395
112	0x3c16867d	0.009187338
113	0xbe954e25	-0.29161182
114	0x3e6a994f	0.22910045
115	0x3ceb3fc9	0.028716939
116	0xbca55918	-0.020184085
117	0xbe152a11	-0.14566828
118	0xbe886469	-0.26639107
119	0x3e20e372	0.15711764
120	0xbe1a48fd	-0.15066905
121	0xbde07322	-0.1095946
122	0x3ea51ca7	0.32248423
123	0xbec97e82	-0.3935433
124	0x3e2193c5	0.15779026
125	0x3d4a4c40	0.049389124
126	0x3e866873	0.26251563
127	0xbe0b8cff	-0.13628004

gcpn_2.T2T.bias f4 [16]
0	0x3e056244	0.13025767
1	0xbc98ae3b	-0.018637767
2	0xbe974abf	-0.29549214
3	0x3e5dc772	0.21658114
4	0xbe4739ac	-0.19455594
5	0x3e0c8386	0.13722047
6	0xbe95088f	-0.29108092
7	0xbe83720e	-0.25672954
8	0xbe21f257	-0.15815102
9	0x3edc8c95	0.43076006
10	0xbda601f4	-0.08105841
11	0xbca56e6c	-0.020194255
12	0x3d0e1cf6	0.034695588
13	0x3ee516f9	0.4474409
14	0xbd408dac	-0.04701011
15	0x3e63812f	0.22217248

gcpn_2.T2T.batch_norm.weight f4 [16]
0	0x3f806652	1.0031226
1	0x3f7a6b2e	0.97819793
2	0x3f7b7bc9	0.98235756
3	0x3f8ac3a0	1.084095
4	0x3f8cc2e2	1.0996974
5	0x3f9057e1	1.1276819
6	0x3f7c8596	0.98641336
7	0x3f6fda25	0.9369224
8	0x3f83663a	1.0265572
9	0x3f7fcf96	0.99926126
10	0x3f7fbdfb	0.9989926
11	0x3f80f5a4	1.0074964
12	0x3f7497f1	0.95544344
13	0x3f5f31f8	0.8718562
14	0x3f7d19d9	0.98867565
15	0x3f73ff8b	0.953118

gcpn_2.T2T.batch_norm.bias f4 [16]
0	0xbc700bad	-0.014651221
1	0xbcdddf1a	-0.027083922
2	0xbd874ad7	-0.066060714
3	0x3cecaf69	0.028892236
4	0x3d0625ba	0.032750823
5	0x3c3422e4	0.010994647
6	0x3d7aa0bc	0.061188444
7	0xbd419079	-0.04725692
8	0xbc9a5140	-0.018837571
9	0xbdf772b2	-0.12082423
10	0x3bac4a24	0.0052578617
11	0x3ce38a2e	0.02777585
12	0x3d01ef2e	0.03172224
13	0xbdf678c0	-0.1203475
14	0x3d53ff72	0.051757284
15	0xbd059bde	-0.03261935

gcpn_2.T2T.batch_norm.running_mean f4 [16]
0	0x4134e57d	11.306027
1	0x4003e89b	2.061072
2	0x410dbcc2	8.858583
3	0xc08470e5	-4.138781
4	0xc126775b	-10.4041395
5	0xc0cd316c	-6.412283
6	0xc0fc2a6a	-7.8801775
7	0xc14497e2	-12.287081
8	0x3cec03d0	0.028810412
9	0xbfa38ff1	-1.2778302
10	0xc0e7d15d	-7.244307
11	0x40e14329	7.0394483
12	0x3ed18350	0.40920496
13	0xc13648fb	-11.3928175
14	0xc02d03fd	-2.7033684
15	0x4003feac	2.062419

gcpn_2.T2T.batch_norm.running_var f4 [16]
0	0x427a6487	62.59817
1	0x42e73cc3	115.618675
2	0x42dce53f	110.44775
3	0x40e8dd81	7.277039
4	0x41b9ec7f	23.240477
5	0x41d3cdb3	26.47544
6	0x42b4e33e	90.44383
7	0x41d62693	26.768835
8	0x428ccc66	70.399216
9	0x423c250e	47.036186
10	0x42abab29	85.8343
11	0x4223865f	40.88122
12	0x43820fe2	260.12408
13	0x4297def3	75.93545
14	0x42dddd8c	110.93271
15	0x4281ccd1	64.90003

gcpn_2.P2T.weight f4 [16, 16]
0	0xbe0abd6a	-0.13548818
1	0xbcc3d1f3	-0.023903823
2	0xbd097fcb	-0.03356914
3	0xbd284551	-0.04108173
4	0x3e7ae710	0.24502206
5	0xbe201286	-0.15632066
6	0x3cdbfcf0	0.026854008
7	0x3e1e3f41	0.15453817
8	0xbe2a7fb6	-0.1665028
9	0xbe4cc270	-0.19996047
10	0x3cddec3f	0.02709019
11	0x3dd036a8	0.10166675
12	0xbd1ab761	-0.03777254
13	0xbda06ab0	-0.07832849
14	0xbe1b263d	-0.15151305
15	0x3dffe01e	0.12493919
16	0xbd65fb1b	-0.056147676
17	0x3e802737	0.2502992
18	0x3df688e4	0.120378286
19	0xbb9d51d4	-0.0048010144
20	0xbd184e5a	-0.037184097
21	0xbe611819	-0.21981849
22	0x3e1e31b4	0.15448648
23	0xbc901c92	-0.017591748
24	0x3d395c8e	0.045254283
25	0xbe6b019f	-0.22949837
26	0x3e05ae4e	0.13054773
27	0xbd151d7c	-0.03640507
28	0x3e1afa15	0.15134461
29	0xbe2ae59b	-0.1668915
30	0xbe29c288	-0.16578114
31	0xbd53010c	-0.05151467
32	0x3e4578be	0.1928434
33	0x3e098991	0.13431384
34	0xbe3fa181	-0.18713953
35	0xbe3d9948	-0.18515503
36	0x3e805ba3	0.25069913
37	0xbcc96476	-0.024584036
38	0x3e460667	0.1933838
39	0xbe196f88	-0.14983952
40	0x3d90014b	0.070314966
41	0xbd02da6d	-0.03194659
42	0x3d93e680	0.07221699
43	0x3e2e2c80	0.17009163
44	0x3e086b3c	0.13322157
45	0xbe2aa833	-0.16665725
46	0x3daa57d9	0.08317537
47	0xbd8165fa	-0.063182786
48	0x3e610254	0.21973544
49	0x3d1b685a	0.037941314
50	0xbdb182fa	-0.0866756
51	0x3dd2dac7	0.10295635
52	0x3dd2c67a	0.10291763
53	0xbcac85e8	-0.021059945
54	0x3e4b9ba3	0.1988359
55	0x3e8b1f15	0.2717215
56	0x3e473b13	0.19456129
57	0x3c9195b8	0.017771587
58	0x3dced118	0.10098475
59	0xbbb62f98	-0.005559873
60	0x3db90d96	0.090357944
61	0xbd2c707e	-0.04209947
62	0xbc865743	-0.016399032
63	0xbd6b72ea	-0.057482637
64	0x3e5f8a15	0.21830018
65	0xbd72db7e	-0.059291355
66	0xbe1de096	-0.15417704
67	0x3e7ff5f6	0.2499617
68	0xbd52a3fd	-0.051425923
69	0xbe04ff62	-0.12988046
70	0xbdcac8d5	-0.09901587
71	0xbca450a0	-0.020057976
72	0x3c8f790d	0.017513776
73	0xbe37b593	-0.17940359
74	0xbd4c0daf	-0.049817737
75	0x3e706675	0.23476584
76	0xbe2ffced	-0.17186327
77	0x3e3086a3	0.1723886
78	0xbe66323a	-0.22480097
79	0x3cd6238e	0.02614
80	0x3e3eb7a0	0.18624735
81	0x3e035b88	0.12827885
82	0x3e90ab53	0.2825571
83	0xbe4b4f44	-0.19854456
84	0xbe8044be	-0.25052446
85	0x3e54e2bd	0.20789619
86	0xbdf0aeaf	-0.11752068
87	0xbe83af28	-0.2571957
88	0xbe50bfa1	-0.203856
89	0xbe3a9da1	-0.18224193
90	0x3dcd4b09	0.100240774
91	0x3db6f725	0.08933858
92	0xbe023e6f	-0.12719129
93	0xbe3bbe94	-0.18334419
94	0xbe41ff0f	-0.18944953
95	0xbe523212	-0.20526913
96	0xbbb7154a	-0.0055872547
97	0xbd8cb5ba	-0.06870599
98	0x3e00d23d	0.125802
99	0xbd61de36	-0.055143557
100	0xbe0ca6b7	-0.13735472
101	0xbe0a8b03	-0.13529591
102	0xbd220e3f	-0.039564367
103	0xbd6a375d	-0.057181705
104	0x3e484314	0.19556838
105	0x3d63306e	0.055466108
106	0xbcacb9fd	-0.02108478
107	0xbe1303bf	-0.14356898
108	0x3e1246a5	0.14284761
109	0x3da1470c	0.07874879
110	0xbe8cacad	-0.2747549
111	0xbe19846d	-0.14991923
112	0xbe248fd8	-0.16070497
113	0xbdb58f65	-0.08865241
114	0xbdc38d87	-0.095484786
115	0xbd3fdb5f	-0.046840068
116	0x3e9e67e5	0.3093864
117	0x3d0dd32c	0.034625217
118	0x3de859e1	0.11345268
119	0xbd96ec94	-0.073693424
120	0xbdcd0b73	-0.100119494
121	0x3dbefa28	0.09325057
122	0x3abc9e4f	0.0014390441
123	0xbdf20edf	-0.11819243
124	0xbd06bace	-0.032892995
125	0xbd08e326	-0.03341975
126	0xbe329046	-0.17437848
127	0xbe4f454e	-0.20241281
128	0xbd10ecea	-0.03538219
129	0xbe5e5ea7	-0.21715795
130	0x3c8c8b12	0.017156158
131	0xbe423126	-0.18964061
132	0x3d9ee895	0.07759205
133	0x3ba0638b	0.004894679
134	0x3e320793	0.17385702
135	0xbe4ec543	-0.20192437
136	0xbe05b642	-0.13057807
137	0xbc4170a0	-0.011806637
138	0xbc5d339b	-0.013501073
139	0x3e5b143c	0.21394438
140	0xbdcbdeda	-0.09954615
141	0xbe2d6c26	-0.16935787
142	0x3db58a80	0.088643074
143	0xbe7b77da	-0.24557438
144	0xbbd3cb21	-0.006463424
145	0x3dbd9af8	0.092580736
146	0x3c5a5988	0.01332701
147	0xbe2b9642	-0.16756538
148	0xbc4efbc8	-0.0126332715
149	0xbcd7a7c9	-0.026325123
150	0x3da3699e	0.07979129
151	0x3e072164	0.13196331
152	0x3e102ba1	0.14079143
153	0xbde5fd6d	-0.11229978
154	0xbe9829a9	-0.29719284
155	0x3e3c1747	0.18368255
156	0x3e6356de	0.22201106
157	0xbdd98581	-0.10621167
158	0x3dac05e7	0.08399563
159	0x3d09bc8c	0.033627078
160	0xbd935c2e	-0.07195316
161	0xbd75d85d	-0.060020793
162	0x3d4f680c	0.050636336
163	0xbe895a07	-0.26826498
164	0x3d2e633b	0.042575102
165	0x3da54ca1	0.080712564
166	0xbe27df52	-0.16393784
167	0x3e6fbe4a	0.23412433
168	0xbe8f754b	-0.28019175
169	0xbde48fb6	-0.11160223
170	0xbd9e9745	-0.07743696
171	0x3e27f3f9	0.16401662
172	0x3e0d282b	0.13784854
173	0x3e7828ee	0.24234363
174	0x3d5bb830	0.05364245
175	0x3d72bb6c	0.05926077
176	0x3d279599	0.04091415
177	0x3e98f322	0.29872996
178	0xbe2d9c81	-0.16954233
179	0xbd74e890	-0.0597921
180	0xbde553f3	-0.11197653
181	0x3daaf58d	0.08347616
182	0x3d289ea5	0.04116692
183	0x3da1ea16	0.079059765
184	0xbe5398b6	-0.20663723
185	0x3dbd95b3	0.092570685
186	0xbe899b69	-0.2687638
187	0x3e4b78b7	0.19870268
188	0xbba21e4c	-0.0049474593
189	0x3e46a0df	0.19397305
190	0x3d90dae7	0.07073002
191	0x3e48273f	0.19546221
192	0xbd46fe36	-0.04858228
193	0xbd978dce	-0.07400094
194	0xbcf2facf	-0.02966061
195	0xbd0a95c0	-0.03383422
196	0x3c805d8b	0.015669605
197	0xbce89db2	-0.028395507
198	0x3c205e89	0.009788164
199	0x3e047c0f	0.1293795
200	0x3e884034	0.26611483
201	0x3d04a38e	0.03238254
202	0x3e30ad71	0.17253663
203	0x3e2a34e4	0.16621739
204	0xbe8d2ac2	-0.27571684
205	0x3e86562d	0.26237622
206	0xbcc93da8	-0.024565533
207	0xbe0591d1	-0.13043906
208	0x3d0964a0	0.03354323
209	0xbe1c9a8c	-0.1529333
210	0xbdeece9a	-0.116605
211	0xbda05c66	-0.078301236
212	0xbdf6c26c	-0.12048802
213	0xbdac4a41	-0.084126
214	0xbc7e5afa	-0.01552462
215	0x3c7631e0	0.01502654
216	0xbcd00702	-0.025393967
217	0xbe7fcf0b	-0.24981324
218	0x3e15f549	0.1464435
219	0xbe774dd1	-0.24150778
220	0x3e152097	0.14563213
221	0x3e3bc49a	0.18336716
222	0xbe760d29	-0.24028458
223	0xbe1e389d	-0.15451284
224	0x3df29c3c	0.118462056
225	0x3c88c590	0.016695768
226	0xbddc4005	-0.10754398
227	0x3c22403b	0.009903009
228	0xbd87dafe	-0.06633566
229	0x3e4b299c	0.19840091
230	0xbe399770	-0.18124175
231	0x3d59f52a	0.053212322
232	0xbd8b0f9c	-0.067900866
233	0x3e589ea8	0.21154273
234	0x3de38c00	0.11110687
235	0xbd81cd1c	-0.0633795
236	0x3db7fdff	0.08983993
237	0xbdbce511	-0.092233784
238	0xbe5a5dab	-0.21324794
239	0x3e972ead	0.29527798
240	0xbe8c803b	-0.27441582
241	0xbde7ee8e	-0.113247976
242	0xbe2174bf	-0.15767191
243	0x3c09accf	0.008403017
244	0x3d531aa9	0.051539097
245	0xbe8845a1	-0.26615623
246	0x3da2a498	0.0794155
247	0x3e12b85e	0.14328143
248	0xbe505115	-0.2034343
249	0x3c3223a1	0.010872752
250	0xb999646e	-0.0002925726
251	0x3cd1aaa4	0.025594063
252	0x3e39e11a	0.18152276
253	0x3e50ffc1	0.20410062
254	0xbe526603	-0.20546727
255	0xbe8ac55a	-0.27103692

gcpn_2.P2T.bias f4 [16]
0	0xbe8eeb17	-0.27913734
1	0xbd419bf6	-0.047267877
2	0x3df5dd75	0.1200513
3	0x3e403aee	0.1877248
4	0xbdbbe104	-0.09173778
5	0x3e6cbd43	0.23119073
6	0xbdbd10c5	-0.09231714
7	0x3e0b8217	0.13623844
8	0x3e6edcbe	0.23326394
9	0xbe2d371c	-0.16915554
10	0xbc5940f9	-0.01326012
11	0x3dafccbd	0.085839726
12	0xbd264a73	-0.040598344
13	0xbe068eec	-0.13140458
14	0xbe1b9b12	-0.15195873
15	0xbdebd3f0	-0.11515033

gcpn_2.P2T.batch_norm.weight f4 [16]
0	0x3f7bb0ac	0.98316455
1	0x3f7777fd	0.9666746
2	0x3f79a193	0.9751217
3	0x3f7d06fd	0.9883879
4	0x3f84f498	1.0387144
5	0x3f725445	0.94659835
6	0x3f80b54e	1.005533
7	0x3f912cca	1.1341794
8	0x3f7dd79a	0.99157107
9	0x3f77890a	0.9669348
10	0x3f7c915a	0.9865929
11	0x3f8a6eef	1.0815104
12	0x3f887f73	1.0663894
13	0x3f88e09e	1.0693548
14	0x3f7fe0a9	0.9995218
15	0x3f7bdb9e	0.98381984

gcpn_2.P2T.batch_norm.bias f4 [16]
0	0xbd492e8c	-0.049116656
1	0x3cf885e7	0.030337287
2	0xbc2fa06f	-0.010719403
3	0x3cd20e22	0.025641505
4	0x3d6ee0d6	0.05831989
5	0x3d7ea570	0.062169492
6	0xbd555612	-0.052084036
7	0xbc1399db	-0.00900885
8	0xbcb1fe07	-0.021727575
9	0x3c92324d	0.01784625
10	0x3cd5b7c7	0.026088608
11	0xbe0e01c2	-0.13867858
12	0x3cf97ad5	0.030454079
13	0x3c3d81d3	0.011566597
14	0x3bee3170	0.007269077
15	0xbd55d26f	-0.05220264

gcpn_2.P2T.batch_norm.running_mean f4 [16]
0	0xbe9cb8ef	-0.30609843
1	0x3f788f88	0.9709401
2	0x3fa0e7b6	1.2570713
3	0xbe60c199	-0.21948852
4	0xbfb603bb	-1.4219888
5	0x3f7f8d9c	0.99825454
6	0xbf10e901	-0.56605536
7	0xbeff1c30	-0.49826193
8	0x3f8c9daa	1.0985615
9	0x3fb5d083	1.4204258
10	0x3f56181e	0.8363055
11	0x3f33c5d0	0.7022371
12	0xbf884fc5	-1.0649344
13	0xbf7a047a	-0.9766308
14	0xbf94d4ae	-1.1627405
15	0x3c96f2e7	0.018426372

gcpn_2.P2T.batch_norm.running_var f4 [16]
0	0x3f242fa9	0.64135224
1	0x3f86640c	1.0499282
2	0x3f56e9d4	0.83950543
3	0x3f6af45b	0.91779107
4	0x3f65a24b	0.89700764
5	0x3f0e282f	0.55530065
6	0x3ea0caf8	0.31404853
7	0x3ecb7da9	0.3974431
8	0x3fb0973f	1.3796157
9	0x3f9d4dd5	1.2289377
10	0x3fc099ef	1.5046977
11	0x3f800837	1.0002507
12	0x3e832f76	0.25622147
13	0x3f33b567	0.70198673
14	0x3fe0d922	1.7566264
15	0x3f647057	0.89233917

gcpn_2.T2P.weight f4 [16, 16]
0	0x3db8c105	0.090211906
1	0x3cac4ca9	0.021032648
2	0x3c9a87d6	0.0188636
3	0xbe68d2ea	-0.22736707
4	0xbe2091a8	-0.15680563
5	0x3e0e798a	0.13913551
6	0x3e8bc644	0.27299702
7	0xbe275c77	-0.16343866
8	0x3e18c68a	0.14919487
9	0xbda58c8f	-0.0808345
10	0xbd9e935f	-0.077429526
11	0xbe56ce2b	-0.20977084
12	0xbe150c70	-0.14555526
13	0xbd64a90f	-0.05582529
14	0x3da813f5	0.082069315
15	0x3e2597d4	0.16171199
16	0x3c97d553	0.018534338
17	0xbe3f89bd	-0.18704887
18	0xbd8c9a7e	-0.068654045
19	0x3e0d2038	0.13781822
20	0x3e81b1ba	0.25330907
21	0xbd88992f	-0.066698425
22	0xbdb2687c	-0.08711335
23	0x3e767591	0.24068286
24	0xbd5ec822	-0.05439008
25	0x3e5ee919	0.21768607
26	0x3e1164a3	0.14198546
27	0x3dc96a8f	0.098347776
28	0xbd7ebe69	-0.062193308
29	0x3becd915	0.0072280266
30	0xbe4038ca	-0.18771663
31	0xbb1b2cc6	-0.002367781
32	0xbe331742	-0.17489341
33	0xbde62d23	-0.11239078
34	0x3e5fdb14	0.21860915
35	0x3e1e04ac	0.1543147
36	0x3c732754	0.0148409195
37	0x3dbaddf0	0.091243625
38	0x3e23f62f	0.1601188
39	0xbea94570	-0.3306079
40	0xbe4d98d8	-0.20077837
41	0x3e6e63eb	0.23280303
42	0xbe696d06	-0.22795495
43	0xbe8321f2	-0.25611836
44	0x3d291235	0.04127713
45	0xbe7e1cab	-0.24815623
46	0xbe801ddf	-0.2502279
47	0x3e2786d1	0.16360022
48	0xbdd7b845	-0.105331935
49	0xbd40648b	-0.046970885
50	0x3d4ebb57	0.05047163
51	0x3e88545c	0.2662686
52	0x3ea3af66	0.31969756
53	0x3cb4b00a	0.022056598
54	0xbb127f4f	-0.0022353714
55	0xbdb24877	-0.08705228
56	0x3e3a15ad	0.18172331
57	0xbbf889d0	-0.007584788
58	0xbe070ebb	-0.13189213
59	0xbd7d5dd0	-0.061857045
60	0x3e120d8b	0.14262979
61	0xbd9f682a	-0.077835396
62	0xbd5dc2c3	-0.054140817
63	0xbdf7afe6	-0.12094097
64	0xbda82433	-0.082100295
65	0x3c333380	0.0109375715
66	0xbcd915cc	-0.026499651
67	0xbd8fd457	-0.070229225
68	0xbe9de6e9	-0.30840233
69	0x3e90c899	0.28278044
70	0xbccc5d8c	-0.02494695
71	0xbd91e634	-0.07123986
72	0x3e3428af	0.17593645
73	0xbddbbc96	-0.10729329
74	0xbde3bf17	-0.11120432
75	0xbe6ba9c9	-0.23013987
76	0x3c456589	0.012048134
77	0x3d25e952	0.040505715
78	0xbe4452ac	-0.19172162
79	0x3d91cc3b	0.07119032
80	0x3d95c9dd	0.07313893
81	0xbe246f1e	-0.16058013
82	0x3e370323	0.1787229
83	0x3e6709ed	0.2256238
84	0x3bfabf42	0.0076521942
85	0xbb96b5bf	-0.0045993025
86	0xbe1e96e1	-0.15487243
87	0xbe1cb8a5	-0.15304811
88	0xbe093f9b	-0.1340317
89	0x3d80a2f5	0.062810816
90	0x3dcb41cc	0.09924659
91	0x3bdbab6a	0.0067037838
92	0x3e128906	0.14310083
93	0xbda65fa4	-0.08123711
94	0xbe3adbad	-0.18247862
95	0xbc90fd3e	-0.01769888
96	0x3e4f80ef	0.20264028
97	0xbde9cc35	-0.114159025
98	0xbe119492	-0.14216831
99	0x3e2f37fe	0.17111203
100	0x3dea3966	0.11436729
101	0x3c1e62d6	0.009667119
102	0xbdfcfc28	-0.123527825
103	0x3de205c7	0.11036258
104	0xbd9188ba	-0.07106157
105	0xbcd16835	-0.025562385
106	0x3e6b73a4	0.22993332
107	0x3e86a689	0.2629893
108	0x3e3b70e5	0.18304785
109	0xbd2d7e75	-0.042356927
110	0xbe04f39a	-0.12983552
111	0x3df19133	0.11795273
112	0xbc99c6c2	-0.018771533
113	0x3da49070	0.08035362
114	0x3d5367ac	0.05161254
115	0xbe83dfbf	-0.25756642
116	0xbd847a5f	-0.06468653
117	0xbe1001b8	-0.14063156
118	0xbd2ec579	-0.042668793
119	0x3bff3eb0	0.0077894554
120	0x3e58154a	0.21101871
121	0x3e2118e5	0.15732153
122	0xbe7ea6a3	-0.24868254
123	0x3e79ff63	0.24413829
124	0x3e65231a	0.22376671
125	0x3b77056b	0.0037692438
126	0x3df09b14	0.11748329
127	0x3e4774c8	0.19478142
128	0xbe2b4f43	-0.16729455
129	0xbe45601b	-0.19274943
130	0xbd90b41f	-0.07065605
131	0x3cec4c4f	0.02884498
132	0x3e41096f	0.18851255
133	0xbe81224b	-0.25221476
134	0xbe529666	-0.20565185
135	0xbe911609	-0.28337124
136	0x3e538066	0.20654449
137	0x3e746967	0.23868333
138	0x3cff7b6a	0.031186778
139	0xbd6dc2a9	-0.05804697
140	0xbdbbcb63	-0.09169652
141	0x3dba0754	0.09083429
142	0xbd2a70d4	-0.041611508
143	0x3e1e5e97	0.1546577
144	0xbea3b9c2	-0.3197766
145	0xbe4be178	-0.19910228
146	0xbe188876	-0.14895806
147	0x3df80d72	0.121119395
148	0xbd7ee170	-0.062226713
149	0x3e1ae1d1	0.15125205
150	0xbc71b181	-0.014751793
151	0x3e285794	0.16439658
152	0x3ce48ffd	0.02790069
153	0x3d8d93ac	0.06912932
154	0x3e29b0ee	0.165714
155	0x3d8361fb	0.06415173
156	0xbde6fe93	-0.11279025
157	0xbe6b12f0	-0.22956443
158	0xbdffa773	-0.1248311
159	0xbb662613	-0.003511791
160	0xbe05043e	-0.129899
161	0x3d09a547	0.033604886
162	0x3e41d7d8	0.18929994
163	0xbe37ca96	-0.17948374
164	0xbe5038cb	-0.20334165
165	0xbe2fadd6	-0.17156157
166	0x3d5e5e3b	0.054289084
167	0x3e19633a	0.14979258
168	0x3dda7cee	0.1066836
169	0x3e7acc38	0.24491966
170	0xbe5d7eaf	-0.21630357
171	0x3d296d1f	0.04136383
172	0x3de187f0	0.11012256
173	0x3e1e2cb0	0.15446734
174	0x3d066748	0.03281334
175	0x3d89e198	0.06732482
176	0x3df5fa0a	0.12010582
177	0xbe0ea28e	-0.13929197
178	0x3e023769	0.1271645
179	0xbd4aab50	-0.049479783
180	0xbdc9b052	-0.098480836
181	0x3c9e357d	0.019312615
182	0xbe388253	-0.18018465
183	0xbdca2cff	-0.098718636
184	0xbd910be7	-0.07082348
185	0xbe708eb5	-0.23491938
186	0x3e73544f	0.2376263
187	0xbca37f54	-0.019958176
188	0xbdff7cc8	-0.12474972
189	0x3d84feb4	0.06493893
190	0x3baf06bc	0.005341379
191	0x3e3811dd	0.17975564
192	0xbea53afe	-0.3227157
193	0x3e4ea898	0.20181501
194	0xbdb22449	-0.08698327
195	0x3e6156fe	0.22005841
196	0x3e42aed3	0.19012003
197	0x3d427aa3	0.047480237
198	0xbd955338	-0.07291263
199	0x3e1f1a36	0.15537342
200	0x3e158b0a	0.1460382
201	0xbc0dad97	-0.008647344
202	0x3e37903d	0.17926116
203	0xbd796960	-0.06089151
204	0x3db02141	0.08600093
205	0x3e893bbd	0.2680339
206	0x3d09b908	0.033623725
207	0x3df06ba7	0.11739283
208	0x3dba177e	0.09086512
209	0x3d80dd6f	0.06292235
210	0xbebea60e	-0.37236065
211	0xbd438abf	-0.04773974
212	0x3e2c4766	0.16824111
213	0xbe605407	-0.21907054
214	0xbcac654a	-0.021044392
215	0x3dfd8091	0.12378038
216	0xbe38f9c0	-0.18064022
217	0xbe967aa3	-0.2939044
218	0x3d8e9fb7	0.06964057
219	0x3e44ece5	0.19230993
220	0x3daa4c97	0.083153896
221	0xbdc37994	-0.095446736
222	0xbe81358d	-0.25236169
223	0xbe4dc7ac	-0.200957
224	0xbdb52d2d	-0.08846507
225	0x3dcece50	0.10097945
226	0xbe5a2862	-0.21304467
227	0xbe1ed026	-0.1550909
228	0xbd5f7c02	-0.054561622
229	0x3d05c1e6	0.03265562
230	0xbdbc5c12	-0.091972485
231	0xbce1a403	-0.027544027
232	0xbe8f8065	-0.28027645
233	0xbdedd289	-0.11612422
234	0x3e0dbad6	0.13840804
235	0x3da20eb4	0.07912961
236	0x3e61a470	0.22035384
237	0x3d0399be	0.03212904
238	0xbe8136ed	-0.25237218
239	0xbe0eef73	-0.1395853
240	0x3e16d940	0.14731312
241	0x3e3e625f	0.18592213
242	0xbdccd085	-0.100007094
243	0xbc535359	-0.01289829
244	0x3abb8982	0.0014307948
245	0xbe3944e1	-0.18092681
246	0x3bd13f82	0.0063857445
247	0xbe1ac7c9	-0.15115274
248	0x3e60ec22	0.21965078
249	0x3dc82e35	0.09774438
250	0xbe7f2635	-0.24916919
251	0xbd1e573c	-0.038657412
252	0xbe73ed21	-0.23820926
253	0xba9ce92a	-0.0011971344
254	0xbdf515cd	-0.11967049
255	0xbd65f5fd	-0.056142796

gcpn_2.T2P.bias f4 [16]
0	0xbdc48652	-0.09595932
1	0xbe00c85c	-0.12576431
2	0xbdc5dc0f	-0.096611135
3	0x3be082c1	0.0068515246
4	0x3c572009	0.013130196
5	0x3ccbf761	0.024898233
6	0x3e3c559f	0.18392037
7	0x3e8fa835	0.2805802
8	0xbe0027ed	-0.1251523
9	0x3d85717d	0.06515787
10	0x3ebe199f	0.37128922
11	0x3da4a070	0.080384135
12	0xbe0b67c8	-0.13613808
13	0xbcf4f3fb	-0.029901495
14	0xbe6d3b76	-0.23167214
15	0xbdaa6f2d	-0.08321986

gcpn_2.T2P.batch_norm.weight f4 [16]
0	0x3f7be757	0.9839987
1	0x3f84701a	1.0346711
2	0x3f83f480	1.030899
3	0x3f87341e	1.056278
4	0x3f810d12	1.0082114
5	0x3f81c7f7	1.013915
6	0x3f7eee20	0.995821
7	0x3f7a9fdb	0.9790017
8	0x3f784fdf	0.96996874
9	0x3f702c6d	0.9381779
10	0x3f7bd257	0.9836783
11	0x3f78106d	0.96900064
12	0x3f798048	0.97461367
13	0x3f79d3d5	0.97588855
14	0x3f7688d8	0.96302557
15	0x3f6d7c28	0.9276757

gcpn_2.T2P.batch_norm.bias f4 [16]
0	0x3992273c	0.00027876522
1	0x3e2e020a	0.16992965
2	0x3c16c1d2	0.009201484
3	0xbd6e0022	-0.058105595
4	0x3bdbbbd5	0.006705741
5	0x3e13a615	0.14418824
6	0xbd79b36a	-0.06096212
7	0xbd2bcdfc	-0.04194449
8	0x3b64323c	0.003481998
9	0xbdc06d69	-0.09395868
10	0xbd16bbfa	-0.036800362
11	0x3af388c4	0.0018580188
12	0x3c62e8ef	0.013849481
13	0xbcc0e379	-0.023545967
14	0xbd01e64b	-0.031713765
15	0x3cc8f460	0.02453059

gcpn_2.T2P.batch_norm.running_mean f4 [16]
0	0xbe3d0a42	-0.18460944
1	0x3d654de3	0.05598248
2	0xbf033f03	-0.51268023
3	0x3ea3ac74	0.3196751
4	0xbed78b1b	-0.42098317
5	0xbdfc44ec	-0.12317833
6	0x3f0415a7	0.5159554
7	0x3eaeb853	0.34125003
8	0xbf0986ce	-0.5372132
9	0xbe95ed5c	-0.29282653
10	0x3f015fda	0.5053688
11	0xbe458250	-0.19287992
12	0x3f1186eb	0.56846493
13	0xbed5a4b1	-0.41727212
14	0xbf615728	-0.88023615
15	0xbea1c8c6	-0.3159849

gcpn_2.T2P.batch_norm.running_var f4 [16]
0	0x417b4c5e	15.706144
1	0x41682e85	14.511357
2	0x419b31e5	19.399363
3	0x414cb195	12.793355
4	0x41803371	16.025118
5	0x40adb293	5.4280486
6	0x41c2d6b0	24.354828
7	0x41b246a6	22.284496
8	0x4204ef6a	33.233803
9	0x422ae8b4	42.72725
10	0x408d715c	4.420088
11	0x40ce7f3f	6.453033
12	0x421840bf	38.06323
13	0x4265fbee	57.496025
14	0x422dfff4	43.499954
15	0x41859f2d	16.702723

gcpn_3.P2P.weight f4 [64, 16]
0	0x3eaae62c	0.33378732
1	0x3e60c73f	0.21951006
2	0x3e76fbb8	0.2411946
3	0xbaf85a8d	-0.0018947885
4	0x3e9ddafa	0.30831128
5	0xbe199a6d	-0.15000315
6	0x3d35a95b	0.044350963
7	0x3c44e8dd	0.01201841
8	0xbddb5721	-0.10709978
9	0x3dcfa168	0.10138208
10	0xbe3e1036	-0.18560871
11	0x3dfcad10	0.123376966
12	0xbd04999e	-0.032373063
13	0xbdb246cd	-0.087049104
14	0xbe2760c8	-0.16345513
15	0x3db06307	0.08612638
16	0xbd72b8d0	-0.059258282
17	0x3e031da7	0.1280428
18	0x3eb28ff8	0.34875464
19	0xbe468702	-0.19387439
20	0x3e45e170	0.19324279
21	0x3e5835eb	0.21114318
22	0x3de71afa	0.11284442
23	0x3e0ed5e7	0.13948785
24	0x3d2e2291	0.042513434
25	0xbcc3554b	-0.023844382
26	0xbe91eb61	-0.28499892
27	0x3e8ee739	0.27910784
28	0xbbdc8070	-0.006729178
29	0xbe0faa9b	-0.14029925
30	0xbd8da104	-0.06915477
31	0x3dac2f27	0.08407431
32	0xbe80da59	-0.25166586
33	0x3e219aab	0.15781657
34	0xbdf95291	-0.121739514
35	0x3d8e50a9	0.069489785
36	0x3d29c230	0.041444957
37	0xbdb66558	-0.089060485
38	0xbdc2743d	-0.09494827
39	0x3d6254f7	0.05525681
40	0xbd1e8a0e	-0.038705878
41	0x3e8b707d	0.2723426
42	0x3dda4067	0.10656815
43	0xbd4cdfc1	-0.050018076
44	0xbd4f9267	-0.05067673
45	0xbe19b2e3	-0.15009646
46	0xbe86b076	-0.26306504
47	0x3e684d6a	0.22685781
48	0x3e14684d	0.14492913
49	0x3dbf38ae	0.09336983
50	0x3d8d0cf5	0.06887237
51	0xbe710d8d	-0.23540325
52	0xbe3a3e57	-0.18187843
53	0xbe7d66b3	-0.24746208
54	0xbebb5053	-0.3658472
55	0x3d145d4f	0.0362218
56	0x3e43b67f	0.19112585
57	0x3dcd12b4	0.10013333
58	0xbda2aa3e	-0.07942627
59	0xbe1139a1	-0.1418214
60	0xbe86d652	-0.26335388
61	0xbd566d5a	-0.05235038
62	0xbdab5c2f	-0.08367192
63	0x3e53a1c7	0.20667182
64	0xbd92b6e0	-0.07163787
65	0xbeab6559	-0.3347576
66	0x3e3eeb9b	0.18644564
67	0x3c4ce822	0.012506517
68	0x3e231864	0.15927273
69	0xbe201665	-0.15633543
70	0xbe8b1d4a	-0.27170783
71	0x3cee7feb	0.02911373
72	0x3d4176a6	0.047232293
73	0x3dda37a2	0.10655142
74	0xbdd1222f	-0.10211598
75	0x3dfae7f8	0.12251276
76	0x3e77aac9	0.24186243
77	0xbb535473	-0.003224638
78	0xbe3e8948	-0.18607056
79	0xbd32c891	-0.043648306
80	0xbcf78629	-0.03021534
81	0x3d59b9f5	0.053155858
82	0x3d6198cc	0.05507736
83	0x3ea06db4	0.31333697
84	0x3dd8ab59	0.10579557
85	0xbd6d7d42	-0.057980783
86	0xbd94be3a	-0.07262845
87	0x3cea9152	0.028633747
88	0x3e3705db	0.17873327
89	0x3c403d1c	0.01173332
90	0xbe77786a	-0.24167028
91	0x3d8d8a53	0.06911149
92	0x3cdf4ccf	0.027258305
93	0xbd20808b	-0.039185088
94	0x3e24d2e2	0.1609607
95	0xbe2bc693	-0.16774969
96	0xbe19a628	-0.1500479
97	0x3e1dd24a	0.1541225
98	0xbe2f36d2	-0.17110756
99	0x3e7fe9de	0.24991557
100	0xbc215c00	-0.009848595
101	0x3e80895a	0.2510479
102	0xbdb24697	-0.0870487
103	0x3df03d21	0.117304094
104	0x3e90a998	0.2825439
105	0x3d863ec8	0.06554943
106	0xbd38032c	-0.0449249
107	0x3db7bbf5	0.08971397
108	0x3df04902	0.11732675
109	0xbd879c0b	-0.0662156
110	0xbd64e371	-0.055880968
111	0xbe05bca4	-0.13060242
112	0xbcd4635d	-0.025926286
113	0x3e751a37	0.23935781
114	0x3e31e44d	0.17372246
115	0xbc9c24cb	-0.019060513
116	0xbe9aea4a	-0.30256873
117	0xbd7dbbe3	-0.06194676
118	0x3e1bac1a	0.1520237
119	0xbe89c8e0	-0.26911068
120	0x3e932df5	0.28746
121	0x3e3f7673	0.18697529
122	0x3dd1eb45	0.10249952
123	0x3d1bbc81	0.03802157
124	0x3c3ccc60	0.011523336
125	0x3e54e7da	0.2079157
126	0x3e10bc93	0.14134435
127	0x3e2e3aea	0.17014661
128	0xbe583c2e	-0.21116707
129	0xbbf824fb	-0.007572768
130	0x3e456eab	0.19280498
131	0x3de7eaeb	0.11324104
132	0xbe26f5f8	-0.16304767
133	0x3defd072	0.1170968
134	0x3cc0db0b	0.023541948
135	0xbe19ecbd	-0.15031715
136	0x3cce2353	0.025163328
137	0x3cd73da4	0.02627451
138	0xbe4a18c7	-0.19736014
139	0x3e5ca851	0.21548583
140	0x3dc8d0fc	0.098054856
141	0xbe449481	-0.19197275
142	0xbe089200	-0.13336945
143	0x3e3f01f2	0.18653086
144	0x3d4ccfc6	0.050002836
145	0x3d1663cf	0.03671628
146	0xbe37e91d	-0.1796002
147	0xbd39ad84	-0.045331493
148	0x3e19606f	0.14978193
149	0xbcd24bf5	-0.025670985
150	0xbe7a145b	-0.24421827
151	0xbe2fc5a5	-0.17165239
152	0xbe3282f3	-0.17432766
153	0x3dd5251a	0.10407467
154	0x3e040c72	0.12895373
155	0x3e1b6ea4	0.15178925
156	0xbdf02366	-0.11725502
157	0x3b0b6797	0.002127146
158	0xbe26ba57	-0.1628202
159	0xbdbf5d82	-0.09344007
160	0x3b54e277	0.0032483616
161	0x3d6b24e1	0.057408217
162	0xbe742ee2	-0.2384601
163	0x3d8f4881	0.06996251
164	0xbe52812d	-0.20557089
165	0xbe175260	-0.14777517
166	0xbc868d8a	-0.016424913
167	0xbe5e012d	-0.21680136
168	0x3e2acccc	0.16679686
169	0x3e91676a	0.2839921
170	0x3e92073c	0.28521144
171	0xbdbca762	-0.09211613
172	0xbbce6a31	-0.00629928
173	0xbe61d96c	-0.22055596
174	0x3e11b8cb	0.14230649
175	0x3e5a8836	0.21341023
176	0xbdf45c65	-0.11931685
177	0x3ddcce02	0.1078148
178	0xbdcd12d7	-0.10013359
179	0x3db77e74	0.08959666
180	0x3db3ee6c	0.0878571
181	0x3e20a351	0.156873
182	0x3d8e1385	0.06937317
183	0x3e07ac1d	0.1324925
184	0x3d9edbbc	0.07756755
185	0xbe2349af	-0.15946077
186	0xbb95fffd	-0.0045776353
187	0xbc64aefd	-0.013957736
188	0x3e124cdc	0.14287132
189	0x3e27f87d	0.16403385
190	0xbe17da9d	-0.14829488
191	0xbe45e746	-0.19326505
192	0x3e8ea44a	0.27859718
193	0xbe8e0b13	-0.27742824
194	0x3e813f8b	0.25243792
195	0xbe1ed09f	-0.1550927
196	0xbe0804d9	-0.13283099
197	0x3db17300	0.08664513
198	0xbd36e4f2	-0.044651933
199	0x3d49517a	0.049149968
200	0x3e3d76c0	0.18502331
201	0x3e04867e	0.1294193
202	0xbe428379	-0.18995465
203	0x3e7fd0b6	0.2498196
204	0xbde23b78	-0.11046499
205	0x3bf4e927	0.007474083
206	0xbe9a3cd3	-0.3012453
207	0x3ce23d95	0.027617255
208	0xbd0a40bd	-0.033753145
209	0xbe5e14dd	-0.21687646
210	0x3e9a3c8c	0.3012432
211	0xbce9657e	-0.028490778
212	0x3d9e34c0	0.07724905
213	0xbe55cf1e	-0.2087979
214	0x3e4c557c	0.19954485
215	0xbcad9813	-0.021190679
216	0x3e4028a3	0.18765502
217	0xbdd7e85b	-0.10542365
218	0xbdb5f2f4	-0.0888423
219	0xbe0dda98	-0.13852918
220	0x3e5c1b70	0.21494842
221	0x3df0ff96	0.11767499
222	0x3e2d885a	0.16946545
223	0x3e4f00ab	0.20215099
224	0xbd48f373	-0.049060296
225	0xbe7005f0	-0.23439765
226	0x3e22e32a	0.15906969
227	0x3dccfea2	0.10009505
228	0xbc1dffbc	-0.009643491
229	0xbca10400	-0.019655228
230	0xbe9db5a1	-0.30802634
231	0xbded1727	-0.115766816
232	0xbe66e184	-0.22546965
233	0xbd8645ff	-0.065563194
234	0x3e218517	0.15773426
235	0x3ce1f361	0.027581872
236	0xbdbf8247	-0.0935102
237	0xbe03d36a	-0.12873617
238	0xbe332504	-0.17494589
239	0xbd3f08d7	-0.04663929
240	0xbe289b85	-0.16465576
241	0x3e11cba3	0.14237837
242	0x3e560d1d	0.2090344
243	0x3c48597d	0.012228367
244	0xbe34b1ee	-0.17646
245	0x3d7aac2b	0.06119935
246	0x3dd2832c	0.10278925
247	0xbdee0e5f	-0.11623835
248	0x3e1dd140	0.15411854
249	0x3e90a078	0.28247428
250	0x3d8aec91	0.06783403
251	0xbcb8f6db	-0.022578647
252	0xbdcccff0	-0.100005984
253	0x3d86a18e	0.06573783
254	0x3e20e533	0.15712433
255	0x3e4729da	0.19449559

gcpn_3.P2P.bias f4 [64]
0	0x3e39199a	0.18076172
1	0x3e48bb45	0.19602688
2	0xbe20f87b	-0.15719788
3	0x3e482cd7	0.19548355
4	0xbdf69478	-0.12040037
5	0x3eacd5c8	0.33756852
6	0xbd8c83ca	-0.06861074
7	0x3d8e03e8	0.06934339
8	0x3dd99e28	0.10625869
9	0x3e7c88da	0.2466158
10	0x3e5150a8	0.20440924
11	0xbe0e5d48	-0.13902771
12	0xbe2a7c18	-0.166489
13	0x3e4c5a6e	0.19956371
14	0xbe69ec54	-0.22844058
15	0xbca5cf3e	-0.020240422
16	0xbd3a711d	-0.04551803
17	0x3e61fd29	0.22069229
18	0xbdf18223	-0.117924
19	0x3e742492	0.23842075
20	0x3e6a96a9	0.22909035
21	0x3e4e47aa	0.20144525
22	0x3e090bd5	0.1338342
23	0x3e49a504	0.19691855
24	0xbe1c7b2d	-0.15281363
25	0x3e818230	0.25294638
26	0x3da9b047	0.08285575
27	0x3ed95c80	0.42453384
28	0xbe6fa586	-0.23402986
29	0xbdd685fc	-0.10474774
30	0xbb6be4e6	-0.0035994588
31	0x3e400dc8	0.18755257
32	0x3e901f08	0.28148675
33	0xbc04af69	-0.008098462
34	0xbe0c937e	-0.13728139
35	0x3ea12824	0.31475937
36	0xbdb260ff	-0.08709907
37	0x3e4d1697	0.20028149
38	0xbe4aab60	-0.19791937
39	0xbdcb290e	-0.0991994
40	0x3df4f1cf	0.11960184
41	0xbe445520	-0.19173098
42	0xbdcf2759	-0.10114927
43	0xbde985e2	-0.11402489
44	0x3e01e3be	0.12684533
45	0x3e4aab63	0.19791941
46	0xbe2909c5	-0.16507633
47	0x3e099c7a	0.13438597
48	0x3e33420e	0.17505667
49	0xbe46e915	-0.19424851
50	0xbe1da4c4	-0.15394884
51	0xbd80e7da	-0.06294222
52	0x3dd5fcaa	0.104485825
53	0x3de8b366	0.113623425
54	0xbe5a7a72	-0.21335772
55	0x3e916e7b	0.28404602
56	0x3e85618e	0.2605099
57	0x3ddd28cd	0.10798798
58	0xbe972243	-0.29518327
59	0x3dec623c	0.11542174
60	0xbe4ec994	-0.20194083
61	0xbdc7d44e	-0.09757291
62	0x3e856809	0.26055935
63	0xbd8afc95	-0.067864574

gcpn_3.P2P.batch_norm.weight f4 [64]
0	0x3f8f174d	1.1178986
1	0x3f71894b	0.9435012
2	0x3f90478e	1.1271837
3	0x3f865d5d	1.0497242
4	0x3f897324	1.0738263
5	0x3f903f2b	1.1269277
6	0x3f8e016e	1.1094186
7	0x3f8d806a	1.1054814
8	0x3f8fe9a1	1.1243173
9	0x3f8cc0d0	1.0996342
10	0x3f8cbc16	1.0994899
11	0x3f89ae95	1.0756403
12	0x3f85bb20	1.0447731
13	0x3f8ca8e3	1.098904
14	0x3f8ca5d6	1.0988109
15	0x3f93bbbc	1.1541667
16	0x3f8147cf	1.0100039
17	0x3f8aa827	1.0832566
18	0x3f931ef6	1.1493824
19	0x3f8bddb1	1.092703
20	0x3f8e640d	1.1124283
21	0x3f8f7793	1.1208366
22	0x3f89ea73	1.0774673
23	0x3f8e118c	1.1099105
24	0x3f87043e	1.054817
25	0x3f88671a	1.0656464
26	0x3f7a7d8c	0.9784782
27	0x3f93081c	1.148685
28	0x3f8bb69b	1.0915102
29	0x3f91897d	1.1370083
30	0x3f884ed2	1.0649054
31	0x3f965934	1.1745973
32	0x3f8c9a2f	1.0984553
33	0x3f7ca59e	0.9869021
34	0x3f92a7f8	1.145751
35	0x3f6c6e91	0.9235621
36	0x3f8bbbdc	1.0916705
37	0x3f86043c	1.0470042
38	0x3f8deae3	1.1087307
39	0x3f88489b	1.0647157
40	0x3f859f87	1.0439309
41	0x3f8410f7	1.0317677
42	0x3f6a97f2	0.916381
43	0x3f8f5138	1.1196661
44	0x3f8c5014	1.0961938
45	0x3f9638ca	1.1736081
46	0x3f8f16e6	1.1178863
47	0x3f9446d5	1.1584116
48	0x3f89abe5	1.0755583
49	0x3f8a9d05	1.0829169
50	0x3f7cc86f	0.9874334
51	0x3f882c76	1.0638568
52	0x3f8d40ac	1.1035361
53	0x3f857bbd	1.0428387
54	0x3f8f4215	1.1192042
55	0x3f89ea9a	1.077472
56	0x3f8a61cc	1.0811095
57	0x3f8ce52b	1.1007437
58	0x3f940f0f	1.1567096
59	0x3f873e34	1.0565858
60	0x3f8f9653	1.121775
61	0x3f89df72	1.0771315
62	0x3f973a2f	1.1814631
63	0x3f884119	1.0644866

gcpn_3.P2P.batch_norm.bias f4 [64]
0	0x3e10f438	0.14155662
1	0xbe323808	-0.17404187
2	0x3dc0f1ae	0.09421097
3	0x3d31765a	0.04332576
4	0x3dc57a54	0.09642473
5	0x3d4fd99f	0.05074465
6	0x3dbef374	0.09323779
7	0x3dc4ee62	0.096157804
8	0xbca4e7d6	-0.02013008
9	0x3de8b861	0.113632925
10	0x3db31b0e	0.08745395
11	0x3d9e066c	0.077160686
12	0x3d018bf9	0.03162763
13	0x3dc99281	0.098423965
14	0x3d50a75a	0.05094085
15	0x3e17f566	0.14839706
16	0x3cb34066	0.021881294
17	0x3cf8ae69	0.030356603
18	0x3e250f75	0.16119178
19	0x3e328975	0.17435248
20	0x3d99784d	0.07493649
21	0xbe08a1b1	-0.1334293
22	0x3d71b62a	0.059011616
23	0x3d878ae8	0.06618291
24	0x3d8470ba	0.064668134
25	0x3d0d60a2	0.034515984
26	0xbd4c6c69	-0.049908075
27	0x3e1a5f00	0.15075302
28	0x3db761c5	0.08954195
29	0x3d0ce9bf	0.034402605
30	0x3da576ae	0.08079277
31	0x3c86a8f9	0.016437994
32	0x3dbf33b3	0.09336033
33	0xbd1b341c	-0.037891492
34	0xbdcc936b	-0.09989055
35	0xbd19153b	-0.037373763
36	0x3dbfe7cc	0.093703836
37	0x3d8e8376	0.06958668
38	0xbd28dcb9	-0.041226123
39	0x3deaaf88	0.11459261
40	0xbe31f617	-0.17379032
41	0x3cd1fc74	0.025633074
42	0xbce54cf1	-0.02799079
43	0x3d31853c	0.043339953
44	0x3dfae8c8	0.12251431
45	0x3e0b1bdf	0.1358485
46	0x3ddb4cd5	0.10708014
47	0x3e109fda	0.14123479
48	0x3d07ddec	0.033170626
49	0x3d649aed	0.05581181
50	0x3d10cb8e	0.035350375
51	0x3daf435a	0.08557768
52	0x3dc26c9c	0.09493372
53	0x3d629081	0.05531359
54	0x3dd19b28	0.10234672
55	0x3d985e44	0.07439855
56	0x3d13aaf9	0.036051724
57	0x3e1324ac	0.14369458
58	0xbcec7558	-0.028864548
59	0x3da48610	0.08033383
60	0xbc8642de	-0.016389307
61	0x3d767fa7	0.060180333
62	0x3b1ab0df	0.0023603959
63	0x3d97304d	0.073822595

gcpn_3.P2P.batch_norm.running_mean f4 [64]
0	0x3e879006	0.2647707
1	0xbf9f78b5	-1.2458712
2	0x3e84ef6d	0.25963917
3	0x3f168cee	0.5880879
4	0x3db260c7	0.08709865
5	0x3dfba494	0.1228725
6	0xbeb6d4dc	-0.35709274
7	0xbd80e62f	-0.06293904
8	0xbf17f4a5	-0.5935767
9	0x3e57c203	0.21070103
10	0x3f2495a7	0.6429085
11	0x3c955d61	0.018233003
12	0xbf349cb7	-0.7055163
13	0x3f3a57b9	0.72790104
14	0x3e58d381	0.21174432
15	0xbeae1e0a	-0.34007293
16	0x3e7e3932	0.24826506
17	0x3f13d095	0.57740146
18	0xbe893b3b	-0.26803002
19	0x3e3c57f4	0.18392926
20	0x3f123627	0.5711388
21	0x3fcd66a4	1.6046948
22	0x3f20cd7e	0.62813556
23	0xbea4b4c7	-0.32169172
24	0xbeb9d7ab	-0.36297354
25	0x3e17449d	0.14772268
26	0x3f2c765d	0.6736811
27	0x3f41d065	0.7570861
28	0xbf1353f6	-0.5754999
29	0xbefb5a6c	-0.49092424
30	0xbee04bd0	-0.4380784
31	0x3f1c173d	0.6097296
32	0x3f8bc687	1.0919961
33	0xbf2d6410	-0.6773081
34	0xbdadae48	-0.08480507
35	0xbee23093	-0.44177684
36	0x3d85b611	0.06528867
37	0xbefe6924	-0.4968959
38	0x3e342b3d	0.17594619
39	0x3f001d60	0.5004482
40	0x3ebbe128	0.36695218
41	0xbf0f599b	-0.559961
42	0xbec559c6	-0.38545054
43	0x3e3ac42c	0.18238896
44	0x3eb66dea	0.35630733
45	0x3d490745	0.0490792
46	0x3e34835e	0.17628238
47	0x3fab3d6c	1.337812
48	0x3ea8a7bd	0.32940474
49	0xbf95ad10	-1.169344
50	0xbf032a7d	-0.51236707
51	0x3e810cd1	0.2520509
52	0xbf3659ae	-0.7123059
53	0x3eb0d5d9	0.34538153
54	0xbf3c10e6	-0.73463285
55	0xbe75cc9e	-0.24003837
56	0xbe5f4682	-0.2180424
57	0x3ea1bbd5	0.31588617
58	0x3dc46743	0.09590008
59	0xbe6eb180	-0.23309898
60	0x3e8b2729	0.27178314
61	0xbf51ae3f	-0.81906503
62	0x3f485625	0.78256446
63	0xbf0d37db	-0.55163354
